dqn_checkpoint_1obstacle.pth (torch, 43074 bytes, 12 tensors)

fc.0.weight f4 [64, 3]
00000000: 6e7c 0a3f c068 663d eab2 063f c2f2 10bf
00000010: 1402 cd3e 707c 8c3e 9e2d c6be c006 5dbc
00000020: bc33 4c3e dea5 56be 76f6 cc3e a6f9 c53e
00000030: 8856 f8bd fe14 803e 00b9 663c 0079 0d3e
00000040: c073 9bbd 44f5 783e 00a9 0d3b d206 a83e
00000050: 8044 eabb 0884 eebe b0ce 88be a289 cbbe
00000060: 03be a6be c645 c53e 96c2 01be 8b15 9abe
00000070: 9451 de3e 7663 74be 0499 903e 1881 9a3e
00000080: faec cf3e 9018 5b3d 6a20 a13e 1468 3c3e
00000090: c481 633e 402a c0bd 5811 1c3e ee39 043f
000000a0: 9ed7 2ebe 60ee e7bd 2361 e1be a468 763e
000000b0: 6c74 0fbf 2aa5 0f3f b4ec cbbd 066e 63be
000000c0: a8b0 9a3d 0649 9c3e 2013 403d 4e55 9a3e
000000d0: 7406 073e cc83 95be 89c6 12bf 4843 4bbe
000000e0: c219 b5be 2c30 30be cec1 bf3e fc86 12bf
000000f0: 548c b03e 780e 9f3d a4bc 003f 1466 823e
00000100: 8c4e 393e b538 a3be f9d6 bebe 28d6 7d3e
00000110: 70ce f2bd 80eb 7a3e c270 c2be 2c56 c23e
00000120: 70d3 023d 9058 d03e b8ec 313e 506b 5dbe
00000130: 0492 753e 9c44 27be d82a 523e f05d 353d
00000140: 88a5 5ebe 503d be3d 50ba 523e b0fd f5be
00000150: 508a b9bd 0004 453e b061 673d ac61 413e
00000160: 1a71 0dbf dac1 12bf b843 0cbf 17ea b4be
00000170: 664b 33be aca3 a03e 4e34 50be 7085 c0bd
00000180: 7013 eb3e a01c 41be 025d f3be f4ab f73e
00000190: 5d6f a2be 44d3 eebd 59bc 88be d2b6 0cbf
000001a0: 4080 113f aae9 b53e c078 003c a04a 983d
000001b0: 804f c73b 0e15 883e 502b d7be fa37 a5be
000001c0: 10b3 88bd 3c6a abbe 82fb af3e 5669 0a3f
000001d0: 6cf0 f43e d6cd cd3e 782a b43d a8fa e93e
000001e0: b81a 65be 60f8 8d3d bae1 1ebe 80ed 513c
000001f0: 3acb b03e e00f 1ebd 083e f63e 509c 733d
00000200: ba55 fabe 3d17 e3be f4a6 80be 5c6e 543e
00000210: 2c58 8cbe 24cb aa3e f44c 4c3e 7839 d03e
00000220: 2ce2 dcbe 989a a5be 2c37 f33e 583e e83d
00000230: eec1 993e 94c9 703e 88ec 94bd 80bc a93b
00000240: ca04 113f 4c00 d7be 3021 1c3d 5bc1 f9be
00000250: 0ce7 c93e 8c06 a3be c400 da3e 6974 01bf
00000260: d040 803e b818 a53d 104e 493d 30a1 3f3d
00000270: e865 9c3e 6260 b1be de99 bfbe b6ab a93e
00000280: 3c75 ed3e b8ed ef3e 1873 f03e 4492 acbd
00000290: bc00 cfbe c061 fa3c e8d4 823e 799b a8be
000002a0: b0e9 a23e 7cb4 673e 8bed bebe d8a1 843e
000002b0: 939e fdbe 0903 85be 9eee d9be d78d ccbe
000002c0: c1e0 a6be 7290 89be 88e6 b03e 5445 23be
000002d0: 0ada 9f3e 5a63 77be 1cca d33e 982e e93e
000002e0: bee7 b23e e0b5 e03d 9cf4 f1be e8b8 a9be
000002f0: 488c eabd e0b1 b33d 60e8 523e a4ba c43e
0.54096115 0.05625224 0.5261675 -0.5662042 0.40040648 0.27438688 -0.38706678 -0.013490379
0.1994161 -0.20961711 0.40031785 0.3866703 -0.121258795 0.25016016 0.014082193 0.13815689
-0.07590437 0.24312311 0.0021615624 0.32817703 -0.007149279 -0.46585107 -0.2672019 -0.39753443
-0.32566842 0.38529795 -0.12671885 -0.3009456 0.43421614 -0.23866066 0.28241742 0.30176616
0.40610486 0.05349022 0.31470042 0.18399078 0.2221747 -0.093830585 0.15240991 0.51650894
-0.17074439 -0.11324763 -0.44019422 0.24063355 -0.5603702 0.56111395 -0.09957257 -0.2220994
0.07553226 0.30524462 0.04689324 0.30143207 0.13186055 -0.29202116 -0.5733419 -0.19849885
-0.35371214 -0.17205876 0.3745255 -0.5723722 0.34482062 0.077664316 0.5028784 0.25468504
0.1809637 -0.31879202 -0.37273386 0.24788725 -0.11855781 0.24503899 -0.37976652 0.3795637
0.031939924 0.40692568 0.17375457 -0.21622968 0.23981482 -0.16334766 0.20524156 0.04427904
-0.21742833 0.09289038 0.20578885 -0.4804511 -0.09059584 0.19239807 0.056489646 0.18884915
-0.55250704 -0.57327044 -0.5479083 -0.35334846 -0.17509231 0.31374872 -0.20332453 -0.09400451
0.45913267 -0.18858576 -0.47531897 0.48373377 -0.31725588 -0.116613895 -0.26706198 -0.5496646
0.5683632 0.35529834 0.007841289 0.074361086 0.006082475 0.26578563 -0.42025232 -0.3226927
-0.066747785 -0.33479488 0.34371573 0.5406698 0.47839677 0.40196103 0.08797163 0.45699048
-0.22373474 0.069321394 -0.15515795 0.012812972 0.3453005 -0.03858936 0.480942 0.059475243
-0.4889353 -0.44353667 -0.25127375 0.20745224 -0.2741102 0.3335811 0.1995123 0.40668845
-0.43141305 -0.32344508 0.4750303 0.11340016 0.3003077 0.23514396 -0.07271677 0.0051799417
0.5664793 -0.41992414 0.038117588 -0.4878033 0.39434087 -0.31840932 0.4257871 -0.5056825
0.25049448 0.08061355 0.04914671 0.04678458 0.30546498 -0.34643847 -0.3742208 0.33138818
0.46378505 0.46861053 0.4696281 -0.084263355 -0.40430248 0.030564189 0.2555306 -0.32931116
0.31818914 0.22627443 -0.37290606 0.25904727 -0.49535045 -0.25978878 -0.42564863 -0.39951965
-0.3259335 -0.26868016 0.3455088 -0.15944415 0.31221038 -0.24158993 0.41365135 0.4554336
0.3494243 0.1097219 -0.47256935 -0.33148885 -0.11452538 0.08774161 0.20596457 0.38423645

fc.0.bias f4 [64]
00000000: 5ef0 933e c630 4ebe c092 7abc 6aa3 06be
00000010: 2bfb 08bf 0842 d9bd a52a bfbe 147b b73e
00000020: 0411 7fbe b441 763e 1cdd 663e 7e23 dbbe
00000030: b06b d83d 3006 713e da83 09bf b478 a23e
00000040: e0cb cb3e 50c4 383d cab7 823e 46c4 c2be
00000050: 6642 21be 028c c13e 90ca a93d 374a 0bbf
00000060: 00a0 f138 f0ed ff3e e0c1 f03c 284f ca3d
00000070: c619 d9be 300b f3be c00f 963c 6cf2 573e
00000080: 70b6 b8be aca8 9cbe 78a0 ef3e 908d 3d3d
00000090: 3f82 08bf b69c c7be 56aa bebe 489f 0d3f
000000a0: 5893 f83d 7867 d43e 804e e2be da4b a8be
000000b0: a8a7 f53e 94ac 103f 4042 303d 3540 9dbe
000000c0: fc59 e3be 4d58 cebe 2886 003f bc15 0bbf
000000d0: 84a9 eebd ed16 9abe e08f a5bc c866 61be
000000e0: f8df 493e 1428 a5bd cc47 e33e 3044 7cbd
000000f0: b07a f4bd b9c6 dfbe 1e96 d33e 20ee ef3d
0.28894323 -0.20135793 -0.015293777 -0.13148275 -0.5350825 -0.106082976 -0.37337223 0.3583609
-0.24908835 0.24048501 0.22545284 -0.42800516 0.10567415 0.23537517 -0.53716815 0.31732714
0.39803982 0.045109093 0.25530845 -0.3804037 -0.15747985 0.3780213 0.08290589 -0.5441012
0.00011521578 0.4998622 0.029389322 0.09878379 -0.42402476 -0.47469473 0.018318057 0.2108857
-0.3607669 -0.30597436 0.46802115 0.046277583 -0.5332374 -0.38986748 -0.3723933 0.5532117
0.121374786 0.4148519 -0.44200516 -0.3287037 0.47979474 0.56513333 0.04303193 -0.3071305
-0.4440459 -0.40301743 0.50204706 -0.5433004 -0.11653426 -0.30095616 -0.020210207 -0.22011864
0.19714344 -0.08064285 0.44390714 -0.061588466 -0.11937463 -0.437063 0.41325468 0.117153406

fc.2.weight f4 [64, 64]
00000000: 20c7 0dbd 0826 c1bc 507b 00bd daea 9ebd
00000010: 8ec1 e3bd 60c3 de3b 544b 9cbd a4da d33d
00000020: fa8c f83d 20db 943b a22f 8f3d b005 223d
00000030: 9841 9abd 8824 8d3c 3471 7f3d 70a8 52bd
00000040: f87a 51bd a0ae ecbd d8ce e9bc 7c8e 67bd
00000050: 7cd2 0b3d fc67 e1bd 3c3f a7bd e68d a3bd
00000060: ecd0 36bd 68ef 553d 9c09 67bd cac8 b83d
00000070: 601d bebb 8871 f43d 7039 1fbc 0c4b 78bd
00000080: 58d7 a93c 0097 7eba 7228 ba3d 46d3 85bd
00000090: 90f7 babd a432 083d 0eaa e4bd c495 be3d
000000a0: 40e4 3c3c 8c48 473d 9a1f b2bd a8ac 873d
000000b0: 74c5 003d f2dc debd dc3e 7abd 5c38 fb3d
000000c0: 2048 84bd 18d3 0cbd 5061 693d 1891 5d3d
000000d0: 1c5d 9c3d 84e3 2fbd 3a15 edbd 346d c73d
000000e0: d62d c73d 601a 55bd 982c b7bd 289f e6bd
000000f0: 805b eaba 5c92 24bd 3ccf 153d de7a e5bd
00000100: f0b0 513d 7e6f cf3d 14f3 c03d e08a 813d
00000110: 0c63 40bd 20a7 8a3d 00db b43c 80db eeba
00000120: 00a2 a739 300c 56bd 14c9 07bd cea3 fb3d
00000130: d44d 7d3d d03f 58bd e024 c5bb 0066 8bbc
00000140: 6ee9 aabd 2259 d63d 8082 133c a854 a8bd
00000150: b067 c33c f86f 463d 58ef 15bd 8a7d f43d
00000160: 7462 46bd 0e91 ce3d 52f7 be3d 1453 74bd
00000170: 7274 83bd e001 3fbc 382a 87bd 4617 f73d
00000180: 1a87 f33d 588b d2bc 4065 7d3b c2bc b3bd
00000190: c8f1 a43d c042 cdbb 18e6 6abd 349e d4bd
000001a0: 6812 a93d f03d 1a3d 26ae f73d bcbd 323d
000001b0: 5af8 b13d 5030 163c 96c2 ea3d 0665 953d
000001c0: 361b de3d 58cc 9cbc f0e4 21bc 8e36 febd
000001d0: 50e4 0abd 50a6 5ebd 5c23 c93d 36b2 c9bd
000001e0: 18fb b0bd e058 2ebd 00c0 8eb8 6eeb 873d
000001f0: f475 dbbd 5e96 8a3d b040 e23c c080 1ebc
00000200: 8ccd bdbd 70de 12bc 0c57 9cbd 18d4 f93d
00000210: 2c96 253d 6c09 7ebd 888c 52bd 989b 0a3d
00000220: d802 90bc 48c8 2fbd bac9 fabd c0d5 4a3c
00000230: 14a0 17bd e02c 093c 4477 b3bd 12a5 a4bd
00000240: 8c8a 0f3d 5a06 9fbd 78f0 debd 085f 4e3d
00000250: 289c 023d 1a52 a9bd 28a5 af3c 96be f4bd
00000260: 60a8 b6bb 34b5 b6bd 0461 afbd 7eb8 9dbd
00000270: a838 5cbd 563a 96bd 4063 7f3d 4058 f63d
00000280: 8a10 b0bd f41d 6dbd 6c6e bd3d 4aaf d53d
00000290: 7c13 d9bd 70cc ff3c a0b3 f4bc 6048 70bd
000002a0: 58ff 74bd d422 6fbd 4c8a 4f3d a855 8dbc
000002b0: b8be 53bd a67b d63d d842 35bd 8a8f c5bd
000002c0: 5664 cc3d c076 263b 6a80 91bd b8c6 423d
000002d0: 1898 21bd 2818 98bd 5234 c7bd daba 9b3d
000002e0: 00db ff3d c0d7 43bd 8060 dfbb 585d 97bd
000002f0: aaf3 ea3d a29b fabd 4064 67bd a8cd babc
00000300: fee3 eebd 7c2c 3fbd 4435 ff3d 6ce4 6ebd
00000310: 76af a93d e6c5 a7bd 9295 cc3d 6862 2ebd
00000320: c014 203c 1a77 98bd a85a bb3d c083 2ebd
00000330: de77 94bd 68d4 cc3c 103b 5e3d 94c4 89bd
00000340: bc51 c2bd 00b5 e3bc 1851 593d 9427 bcbd
00000350: 60c8 10bd 1e47 ba3d 547b b8bd bc1a c0bd
00000360: 98fd 1f3d d8d9 b03c 5c14 b73d b8f3 32bd
00000370: 6627 9dbd b08d 6abd f015 b2bc a0b2 ad3b
00000380: 4ad8 c23d 9cee 1d3d 5c4c 0a3d 0480 2a3d
00000390: c462 eebd f4d0 22bd 18e1 a93c 1867 a03c
000003a0: c82c c1bd 0a95 90bd 388f c13d e86e da3c
000003b0: 089c 213d 4a8b fb3d 4c3b 2f3d 9a2a e13d
000003c0: 685a 9abc 48c6 b5bc 6839 d4bc 02a6 9a3d
000003d0: c69f f4bd c899 c73d 1e02 82bd e45f 793d
000003e0: 143a 31bd c640 a5bd e8d8 433d 005d 23bb
000003f0: 4483 66bd 503b 023d a84e eabc c067 53bc
-0.03461373 -0.023577705 -0.0313676 -0.07759638 -0.11120902 0.006798193 -0.07631555 0.10344437
0.12136264 0.0045427233 0.06991507 0.039556205 -0.07532042 0.017229334 0.06236382 -0.051430166
-0.051142663 -0.115567446 -0.028541014 -0.056532368 0.03413628 -0.110061616 -0.08166358 -0.07986049
-0.044632837 0.05223027 -0.05640565 0.090226725 -0.0058018416 0.11935717 -0.009718284 -0.060618445
0.020732567 -0.0009711832 0.090897456 -0.06534438 -0.0912925 0.03325142 -0.11165248 0.09305909
0.011529028 0.04865317 -0.08697434 0.066247284 0.031438306 -0.10881986 -0.061095104 0.12266609
-0.06459069 -0.034381002 0.05697757 0.05409345 0.07634947 -0.042941585 -0.11576314 0.09737626
0.097255394 -0.052027106 -0.089440525 -0.112608254 -0.0017880052 -0.04017864 0.036574587 -0.11205076
0.05119413 0.10128687 0.094213635 0.063253164 -0.04696946 0.06770158 0.022077084 -0.0018223375
0.00031973422 -0.052257717 -0.033150747 0.12287103 0.0618418 -0.05279523 -0.0060163587 -0.01701641
-0.083453044 0.104662195 0.009003282 -0.08219272 0.023853153 0.048446625 -0.03660521 0.11938007
-0.048433736 0.10086261 0.09324516 -0.059649542 -0.064186946 -0.011658162 -0.065998495 0.12064986
0.11891003 -0.02570121 0.0038665086 -0.08776237 0.080539286 -0.0062640607 -0.05734834 -0.10381737
0.08255464 0.037656724 0.12093763 0.043637976 0.086899474 0.009166792 0.114628956 0.07294659
0.10845034 -0.019140407 -0.009881243 -0.12412749 -0.033909142 -0.054357827 0.098211974 -0.09848444
-0.08641642 -0.042565227 -6.8068504e-05 0.066367015 -0.10715857 0.067669615 0.027618736 -0.009674251
-0.092677206 -0.008964166 -0.076337904 0.12198657 0.04042642 -0.062020704 -0.051403552 0.033839792
-0.017579481 -0.042915612 -0.122455075 0.0123800635 -0.037017897 0.008372515 -0.087629825 -0.08039297
0.035044238 -0.07764883 -0.108857095 0.050383598 0.031887203 -0.08267613 0.021441057 -0.11950414
-0.005574271 -0.089212805 -0.08563426 -0.07701205 -0.05376497 -0.073353454 0.06235051 0.12028551
-0.085969046 -0.057889894 0.09249577 0.10433824 -0.105994195 0.031225413 -0.029870808 -0.058662772
-0.059813827 -0.058382824 0.050669 -0.017252758 -0.051695555 0.10472803 -0.0442532 -0.096465185
0.09980075 0.002540037 -0.07104571 0.047552794 -0.03945169 -0.074264824 -0.09726776 0.076039985
0.12492943 -0.047813177 -0.0068169236 -0.07390851 0.114722565 -0.12236716 -0.05649209 -0.022803143
-0.1166458 -0.046673283 0.124613315 -0.05832331 0.0828542 -0.08192043 0.09989466 -0.042574316
0.009770572 -0.07444592 0.09148151 -0.042606115 -0.07249425 0.025003627 0.054255545 -0.067269474
-0.09488246 -0.027796268 0.053055853 -0.091872364 -0.035347342 0.09095596 -0.09007898 -0.09380099
0.039060205 0.021588251 0.0893943 -0.04368946 -0.0767353 -0.05726403 -0.021738976 0.005300835
0.0951391 0.038557634 0.03376423 0.04162599 -0.11639932 -0.039750054 0.020737216 0.019580409
-0.094323695 -0.07059677 0.09451145 0.026664212 0.039455444 0.12282427 0.04278116 0.10994454
-0.018841937 -0.022189274 -0.02590628 0.07551195 -0.11944537 0.09746128 -0.0634806 0.060882464
-0.04326828 -0.08068995 0.04781428 -0.0024927258 -0.05627753 0.031794846 -0.02860196 -0.012903154

fc.2.bias f4 [64]
00000000: d09e 163c facf 853d 003b 02ba d013 99bd
00000010: f418 d13d e604 ebbd 18ed d9bc d4d4 7f3d
00000020: 84f4 6f3d b678 e93d 2431 45bd 10ce bf3d
00000030: 6483 98bd f6d1 9dbd a4e4 d83d c859 1c3d
00000040: 0073 91bb 5a24 ccbd 8061 df3a ec16 04bd
00000050: 10d2 0c3c 5c16 6bbd 50f6 b4bc b063 d0bc
00000060: 8044 fb3b 14b3 bb3d 38c1 503d e0f5 21bd
00000070: 5875 aebc 7884 a5bd fad6 c2bd 9437 5e3d
00000080: a255 cebd 1467 b8bd 30f7 dcbd 7c61 c93d
00000090: f0e4 41bc 90d1 e2bd 40b3 f83c e84d dc3c
000000a0: 2cbd 853d baed 8ebd 0898 9a3d 5071 ddbc
000000b0: 5849 803d c04f 04bb f489 71bd 1cc9 0e3d
000000c0: d89c 993d c294 9ebd 30fa 1fbc 28b5 c4bc
000000d0: ae3b e73d 30a1 d83d 2074 1bbd 60ca d1bb
000000e0: b056 8a3d c013 463c f856 aa3d 0033 a93b
000000f0: d8ec df3d 8832 62bd ba66 a5bd dae6 cabd
0.009193137 0.06533809 -0.0004967898 -0.07474482 0.102098376 -0.11475544 -0.026602313 0.062458828
0.058582798 0.11399977 -0.048142567 0.09365475 -0.07446936 -0.077060625 0.10590485 0.03817156
-0.004438758 -0.09967871 0.0017042607 -0.032248423 0.008595005 -0.05739437 -0.022090107 -0.02543816
0.007668078 0.09165016 0.050965518 -0.039541125 -0.021296188 -0.08081907 -0.0951366 0.054252222
-0.10074927 -0.090040356 -0.10789335 0.09833047 -0.011834368 -0.11075127 0.03035891 0.026892617
0.06530222 -0.069789365 0.07548529 -0.02703157 0.06263989 -0.0020189136 -0.058969453 0.03485976
0.07500619 -0.07743217 -0.009764239 -0.024012163 0.1129068 0.10577619 -0.037952542 -0.006402299
0.067548156 0.01208967 0.08317369 0.0051635504 0.10933846 -0.05522397 -0.08076234 -0.09907313

fc.4.weight f4 [6, 64]
00000000: 78e2 c93c a4cc e7bd 48b7 4e3d 006a 653d
00000010: d404 d93d 4815 d7bc 8844 e53c dcba 4fbd
00000020: 6c6c efbd 6081 c4bb e011 1c3d 02e1 983d
00000030: 604e dbbb 805e f23c 082f f33c 1849 eabd
00000040: 702a ba3d dc57 c3bd c810 a8bd fe28 afbd
00000050: e496 b0bd e294 a3bd b44d 9e3d 6037 a63d
00000060: dac4 e23d 300f 1f3d 8036 44bd e8a8 663d
00000070: a8c0 dcbc 50e2 d4bc 00d7 313b 7e7e e43d
00000080: 0217 9bbd bc13 a03d 0030 3639 54f0 57bd
00000090: 703e bebc 68de dbbc 60ad 04bd d0c7 293c
000000a0: 48f6 093d 7cd3 9ebd 70df b1bd 9493 333d
000000b0: 3e70 f43d f026 503c e0ae 32bd d8d5 923d
000000c0: 54d1 f03d 887d 50bd 709a d03c 5438 01bd
000000d0: 0e1b a7bd 703f c0bc 90b8 e43d 4ed9 f23d
000000e0: 6c52 3c3d 6623 ea3d 1a7a bd3d ac8c 3dbd
000000f0: 34c5 62bd e044 d83d e4db 623d 4c61 b53d
00000100: 4890 50bd 747b 5b3d 0613 a5bd 546e 673d
00000110: e408 513d d06d 243c 4823 d4bc 600d 04bd
00000120: 88de 8d3c 9881 d23c 504e 3bbc 70af d63c
00000130: 9c45 02bd 04b6 eebd e0ab d5bd 3054 f3bd
00000140: 5a9d ca3d 6050 0d3d d076 e33c 1cc2 c5bd
00000150: 606c c1bb 6e21 ac3d 6054 c4bb 5808 df3c
00000160: 0eb2 acbd 44f0 01bd c0ac 8dbb 8a85 a9bd
00000170: 704a b3bc 109c ccbc 4cd8 f5bd 0010 ea39
00000180: eea6 d8bd 2087 713c 0421 91bd 605a 62bc
00000190: 508d ea3c a45a 693d 58e3 9e3c b2bc 8e3d
000001a0: 2044 103c 3cbb 0abd 38cf 5d3d 6016 adbb
000001b0: 8008 d7bc b8a8 dc3c eea4 9b3d ea32 a3bd
000001c0: 2e08 f63d 4cbd ba3d b2ca d13d a0ca 97bc
000001d0: 86ee e7bd 3c67 4fbd 8e98 d2bd 868b cdbd
000001e0: 901c 063c f4e2 2b3d 94ac 3ebd 98c3 213d
000001f0: 4011 593b 2060 d93b 265e cebd 101a f13c
00000200: e6dd 8dbd 26bb f5bd 603f 83bb f8b0 003d
00000210: b897 23bd e8df b5bd 500f 973c ac81 5f3d
00000220: b8b9 e73c 102f 8a3c d002 56bd 28d4 913c
00000230: dcac d8bd 9e64 c23d a8d5 b6bc 206c af3c
00000240: 6051 dabc 0808 58bd 8c2b e43d 12d8 f53d
00000250: 2ccd 153d b281 81bd b0fe 2c3c f80b 48bd
00000260: 02f6 973d 54ba e5bd a627 c13d 6e59 8cbd
00000270: 6847 5e3d 16c0 cdbd 5acb ac3d 226d c93d
00000280: 88bc de3c a4de 7bbd a298 a3bd 482d 57bd
00000290: ba66 803d 24be ccbd 0098 343b a078 c0bb
000002a0: 2cea ccbd 20d8 11bc d2d6 96bd c0e9 4ebb
000002b0: 4677 953d 00b9 38ba d8df 29bd 7c80 2d3d
000002c0: c038 853c 5ceb 2c3d 1c6c c8bd 367d a13d
000002d0: 26c0 f5bd f83e fa3d 507b 54bd aa4a 84bd
000002e0: 6249 e93d 30f2 c7bd d08c 7a3d e088 e5bc
000002f0: 3c97 923d c05d 7f3c 00bb e93d 409a 77bc
00000300: faaf abbd 1861 a03c 0e2b 8ebd d6af dcbd
00000310: 1090 19bc 12a3 efbd 60b2 10bc 223d a43d
00000320: 3623 d7bd d0bf 653d 2c39 9c3d 5efa c7bd
00000330: 9074 ec3c 52ec 90bd d4a4 a3bd 344f a43d
00000340: 6ae0 dbbd 94cc c93d 96ec bb3d 0cfb 0dbd
00000350: a0c2 c93c 40c8 433c 0ed3 c03d 202b f5bc
00000360: 1053 34bc c00e 0b3d 443e 26bd 400a 4fbc
00000370: 9824 843c 7ab2 f43d 90f0 c53d defc a03d
00000380: ded1 d23d 86b3 89bd dae9 b9bd d068 81bd
00000390: 50a8 ff3c a803 78bd 884b 08bd 208e 59bd
000003a0: 2081 213d 9454 973d 2004 2abc 921e 933d
000003b0: 4648 ff3d 5028 2dbc 00df 96ba 2ae3 843d
000003c0: 081e 87bd fe38 913d aea3 a1bd 34f8 5dbd
000003d0: c029 313d ee32 cc3d 40b6 3b3d e644 9ebd
000003e0: f64a 993d e0f4 12bc 0a5d 9dbd 200f dc3c
000003f0: 782c aa3d 484d b2bc 64f1 61bd 5895 52bd
0.024644122 -0.11318329 0.05046776 0.056009293 0.10596624 -0.026255265 0.02798678 -0.050715312
-0.11690602 -0.005996868 0.038102984 0.07464792 -0.0066926926 0.029586077 0.029685512 -0.11439723
0.090901256 -0.09538242 -0.08206326 -0.085527405 -0.0862253 -0.079873815 0.077296644 0.08116031
0.11072703 0.038832843 -0.047903538 0.056313425 -0.026947334 -0.02598682 0.0027136207 0.11156939
-0.07572748 0.07816264 0.00017374754 -0.05271943 -0.023223132 -0.02683945 -0.032391906 0.01036258
0.033682138 -0.07755181 -0.086851954 0.043841913 0.11935471 0.012704596 -0.043623805 0.07169694
0.11758676 -0.050900966 0.025464267 -0.03154786 -0.08159457 -0.02346775 0.11168015 0.11857854
0.04597704 0.11432533 0.09251805 -0.046276733 -0.05536385 0.10560012 0.055385485 0.088564485
-0.050918847 0.05358453 -0.08060269 0.0565017 0.05103387 0.010035947 -0.02589573 -0.032239318
0.017318025 0.02569656 -0.011432245 0.026206702 -0.031804666 -0.116558105 -0.10433173 -0.11881292
0.09893294 0.03450048 0.027766615 -0.09656164 -0.005902812 0.08404814 -0.0059915036 0.027225658
-0.08432399 -0.031723276 -0.004323572 -0.08277424 -0.02188608 -0.02497676 -0.12004146 0.0004464388
-0.10578714 0.014741689 -0.07086375 -0.013815492 0.028631836 0.056971207 0.019395515 0.069695845
0.008805305 -0.033869967 0.054152697 -0.0052822083 -0.02624917 0.02693592 0.07599817 -0.079686955
0.12013279 0.09118137 0.10243739 -0.018529236 -0.113247916 -0.05063556 -0.10283004 -0.100363776
0.008185521 0.041964486 -0.046551302 0.039493173 0.0033121854 0.0066337734 -0.10076551 0.029431373
-0.069270894 -0.11998586 -0.0040053576 0.03141877 -0.039939612 -0.08880597 0.018439919 0.054567024
0.0282868 0.016868144 -0.052248776 0.01780136 -0.10579845 0.094918475 -0.022318676 0.021413863
-0.02665013 -0.052742034 0.111411184 0.12004103 0.03657262 -0.063235655 0.010558769 -0.04883954
0.07419969 -0.1121718 0.094313905 -0.06852995 0.054267317 -0.10046403 0.08437224 0.098352686
0.027189508 -0.061491624 -0.07988097 -0.052533418 0.062695935 -0.09997204 0.002755642 -0.0058737546
-0.10005602 -0.008901626 -0.073651925 -0.0031572431 0.0729814 -0.000704661 -0.04147324 0.04235886
0.016262412 0.042216644 -0.09786245 0.0788521 -0.1199954 0.122190416 -0.051875412 -0.064595535
0.1139095 -0.097629905 0.061169446 -0.028019369 0.07157752 0.015586317 0.114126205 -0.01511246
-0.08383174 0.019577548 -0.06941806 -0.107757255 -0.009372726 -0.11701025 -0.00883159 0.08019473
-0.10504763 0.05609113 0.07628092 -0.097645506 0.028864175 -0.070763245 -0.07990423 0.08022919
-0.10736163 0.09853473 0.091759846 -0.034663245 0.024628937 0.011949599 0.094152555 -0.02992779
-0.011006132 0.033949614 -0.040586725 -0.012636721 0.01613073 0.11948104 0.09665024 0.078607306
0.10293935 -0.067236945 -0.09077807 -0.063188195 0.031208187 -0.060550362 -0.033275157 -0.053114057
0.039429784 0.07389179 -0.01037696 0.07183565 0.12464957 -0.010568693 -0.0011510551 0.064886406
-0.06597525 0.070909485 -0.078925475 -0.054191783 0.043252707 0.099706516 0.045828104 -0.07727985
0.07485001 -0.008969516 -0.076837614 0.02686268 0.08309263 -0.021765366 -0.05516185 -0.051411957

fc.4.bias f4 [6]
00000000: 7426 9d3d 76be 9c3d 9ae8 87bd 20d6 1f3c
00000010: 9ae2 a1bd c842 ccbd
0.0767335 0.07653515 -0.06636162 0.009755641 -0.07904549 -0.09973675

fc.0.weight f4 [64, 3]
00000000: 6e7c 0a3f c068 663d eab2 063f c2f2 10bf
00000010: 1402 cd3e 707c 8c3e 9e2d c6be c006 5dbc
00000020: bc33 4c3e dea5 56be 76f6 cc3e a6f9 c53e
00000030: 8856 f8bd fe14 803e 00b9 663c 0079 0d3e
00000040: c073 9bbd 44f5 783e 00a9 0d3b d206 a83e
00000050: 8044 eabb 0884 eebe b0ce 88be a289 cbbe
00000060: 03be a6be c645 c53e 96c2 01be 8b15 9abe
00000070: 9451 de3e 7663 74be 0499 903e 1881 9a3e
00000080: faec cf3e 9018 5b3d 6a20 a13e 1468 3c3e
00000090: c481 633e 402a c0bd 5811 1c3e ee39 043f
000000a0: 9ed7 2ebe 60ee e7bd 2361 e1be a468 763e
000000b0: 6c74 0fbf 2aa5 0f3f b4ec cbbd 066e 63be
000000c0: a8b0 9a3d 0649 9c3e 2013 403d 4e55 9a3e
000000d0: 7406 073e cc83 95be 89c6 12bf 4843 4bbe
000000e0: c219 b5be 2c30 30be cec1 bf3e fc86 12bf
000000f0: 548c b03e 780e 9f3d a4bc 003f 1466 823e
00000100: 8c4e 393e b538 a3be f9d6 bebe 28d6 7d3e
00000110: 70ce f2bd 80eb 7a3e c270 c2be 2c56 c23e
00000120: 70d3 023d 9058 d03e b8ec 313e 506b 5dbe
00000130: 0492 753e 9c44 27be d82a 523e f05d 353d
00000140: 88a5 5ebe 503d be3d 50ba 523e b0fd f5be
00000150: 508a b9bd 0004 453e b061 673d ac61 413e
00000160: 1a71 0dbf dac1 12bf b843 0cbf 17ea b4be
00000170: 664b 33be aca3 a03e 4e34 50be 7085 c0bd
00000180: 7013 eb3e a01c 41be 025d f3be f4ab f73e
00000190: 5d6f a2be 44d3 eebd 59bc 88be d2b6 0cbf
000001a0: 4080 113f aae9 b53e c078 003c a04a 983d
000001b0: 804f c73b 0e15 883e 502b d7be fa37 a5be
000001c0: 10b3 88bd 3c6a abbe 82fb af3e 5669 0a3f
000001d0: 6cf0 f43e d6cd cd3e 782a b43d a8fa e93e
000001e0: b81a 65be 60f8 8d3d bae1 1ebe 80ed 513c
000001f0: 3acb b03e e00f 1ebd 083e f63e 509c 733d
00000200: ba55 fabe 3d17 e3be f4a6 80be 5c6e 543e
00000210: 2c58 8cbe 24cb aa3e f44c 4c3e 7839 d03e
00000220: 2ce2 dcbe 989a a5be 2c37 f33e 583e e83d
00000230: eec1 993e 94c9 703e 88ec 94bd 80bc a93b
00000240: ca04 113f 4c00 d7be 3021 1c3d 5bc1 f9be
00000250: 0ce7 c93e 8c06 a3be c400 da3e 6974 01bf
00000260: d040 803e b818 a53d 104e 493d 30a1 3f3d
00000270: e865 9c3e 6260 b1be de99 bfbe b6ab a93e
00000280: 3c75 ed3e b8ed ef3e 1873 f03e 4492 acbd
00000290: bc00 cfbe c061 fa3c e8d4 823e 799b a8be
000002a0: b0e9 a23e 7cb4 673e 8bed bebe d8a1 843e
000002b0: 939e fdbe 0903 85be 9eee d9be d78d ccbe
000002c0: c1e0 a6be 7290 89be 88e6 b03e 5445 23be
000002d0: 0ada 9f3e 5a63 77be 1cca d33e 982e e93e
000002e0: bee7 b23e e0b5 e03d 9cf4 f1be e8b8 a9be
000002f0: 488c eabd e0b1 b33d 60e8 523e a4ba c43e
0.54096115 0.05625224 0.5261675 -0.5662042 0.40040648 0.27438688 -0.38706678 -0.013490379
0.1994161 -0.20961711 0.40031785 0.3866703 -0.121258795 0.25016016 0.014082193 0.13815689
-0.07590437 0.24312311 0.0021615624 0.32817703 -0.007149279 -0.46585107 -0.2672019 -0.39753443
-0.32566842 0.38529795 -0.12671885 -0.3009456 0.43421614 -0.23866066 0.28241742 0.30176616
0.40610486 0.05349022 0.31470042 0.18399078 0.2221747 -0.093830585 0.15240991 0.51650894
-0.17074439 -0.11324763 -0.44019422 0.24063355 -0.5603702 0.56111395 -0.09957257 -0.2220994
0.07553226 0.30524462 0.04689324 0.30143207 0.13186055 -0.29202116 -0.5733419 -0.19849885
-0.35371214 -0.17205876 0.3745255 -0.5723722 0.34482062 0.077664316 0.5028784 0.25468504
0.1809637 -0.31879202 -0.37273386 0.24788725 -0.11855781 0.24503899 -0.37976652 0.3795637
0.031939924 0.40692568 0.17375457 -0.21622968 0.23981482 -0.16334766 0.20524156 0.04427904
-0.21742833 0.09289038 0.20578885 -0.4804511 -0.09059584 0.19239807 0.056489646 0.18884915
-0.55250704 -0.57327044 -0.5479083 -0.35334846 -0.17509231 0.31374872 -0.20332453 -0.09400451
0.45913267 -0.18858576 -0.47531897 0.48373377 -0.31725588 -0.116613895 -0.26706198 -0.5496646
0.5683632 0.35529834 0.007841289 0.074361086 0.006082475 0.26578563 -0.42025232 -0.3226927
-0.066747785 -0.33479488 0.34371573 0.5406698 0.47839677 0.40196103 0.08797163 0.45699048
-0.22373474 0.069321394 -0.15515795 0.012812972 0.3453005 -0.03858936 0.480942 0.059475243
-0.4889353 -0.44353667 -0.25127375 0.20745224 -0.2741102 0.3335811 0.1995123 0.40668845
-0.43141305 -0.32344508 0.4750303 0.11340016 0.3003077 0.23514396 -0.07271677 0.0051799417
0.5664793 -0.41992414 0.038117588 -0.4878033 0.39434087 -0.31840932 0.4257871 -0.5056825
0.25049448 0.08061355 0.04914671 0.04678458 0.30546498 -0.34643847 -0.3742208 0.33138818
0.46378505 0.46861053 0.4696281 -0.084263355 -0.40430248 0.030564189 0.2555306 -0.32931116
0.31818914 0.22627443 -0.37290606 0.25904727 -0.49535045 -0.25978878 -0.42564863 -0.39951965
-0.3259335 -0.26868016 0.3455088 -0.15944415 0.31221038 -0.24158993 0.41365135 0.4554336
0.3494243 0.1097219 -0.47256935 -0.33148885 -0.11452538 0.08774161 0.20596457 0.38423645

fc.0.bias f4 [64]
00000000: 5ef0 933e c630 4ebe c092 7abc 6aa3 06be
00000010: 2bfb 08bf 0842 d9bd a52a bfbe 147b b73e
00000020: 0411 7fbe b441 763e 1cdd 663e 7e23 dbbe
00000030: b06b d83d 3006 713e da83 09bf b478 a23e
00000040: e0cb cb3e 50c4 383d cab7 823e 46c4 c2be
00000050: 6642 21be 028c c13e 90ca a93d 374a 0bbf
00000060: 00a0 f138 f0ed ff3e e0c1 f03c 284f ca3d
00000070: c619 d9be 300b f3be c00f 963c 6cf2 573e
00000080: 70b6 b8be aca8 9cbe 78a0 ef3e 908d 3d3d
00000090: 3f82 08bf b69c c7be 56aa bebe 489f 0d3f
000000a0: 5893 f83d 7867 d43e 804e e2be da4b a8be
000000b0: a8a7 f53e 94ac 103f 4042 303d 3540 9dbe
000000c0: fc59 e3be 4d58 cebe 2886 003f bc15 0bbf
000000d0: 84a9 eebd ed16 9abe e08f a5bc c866 61be
000000e0: f8df 493e 1428 a5bd cc47 e33e 3044 7cbd
000000f0: b07a f4bd b9c6 dfbe 1e96 d33e 20ee ef3d
0.28894323 -0.20135793 -0.015293777 -0.13148275 -0.5350825 -0.106082976 -0.37337223 0.3583609
-0.24908835 0.24048501 0.22545284 -0.42800516 0.10567415 0.23537517 -0.53716815 0.31732714
0.39803982 0.045109093 0.25530845 -0.3804037 -0.15747985 0.3780213 0.08290589 -0.5441012
0.00011521578 0.4998622 0.029389322 0.09878379 -0.42402476 -0.47469473 0.018318057 0.2108857
-0.3607669 -0.30597436 0.46802115 0.046277583 -0.5332374 -0.38986748 -0.3723933 0.5532117
0.121374786 0.4148519 -0.44200516 -0.3287037 0.47979474 0.56513333 0.04303193 -0.3071305
-0.4440459 -0.40301743 0.50204706 -0.5433004 -0.11653426 -0.30095616 -0.020210207 -0.22011864
0.19714344 -0.08064285 0.44390714 -0.061588466 -0.11937463 -0.437063 0.41325468 0.117153406

fc.2.weight f4 [64, 64]
00000000: 20c7 0dbd 0826 c1bc 507b 00bd daea 9ebd
00000010: 8ec1 e3bd 60c3 de3b 544b 9cbd a4da d33d
00000020: fa8c f83d 20db 943b a22f 8f3d b005 223d
00000030: 9841 9abd 8824 8d3c 3471 7f3d 70a8 52bd
00000040: f87a 51bd a0ae ecbd d8ce e9bc 7c8e 67bd
00000050: 7cd2 0b3d fc67 e1bd 3c3f a7bd e68d a3bd
00000060: ecd0 36bd 68ef 553d 9c09 67bd cac8 b83d
00000070: 601d bebb 8871 f43d 7039 1fbc 0c4b 78bd
00000080: 58d7 a93c 0097 7eba 7228 ba3d 46d3 85bd
00000090: 90f7 babd a432 083d 0eaa e4bd c495 be3d
000000a0: 40e4 3c3c 8c48 473d 9a1f b2bd a8ac 873d
000000b0: 74c5 003d f2dc debd dc3e 7abd 5c38 fb3d
000000c0: 2048 84bd 18d3 0cbd 5061 693d 1891 5d3d
000000d0: 1c5d 9c3d 84e3 2fbd 3a15 edbd 346d c73d
000000e0: d62d c73d 601a 55bd 982c b7bd 289f e6bd
000000f0: 805b eaba 5c92 24bd 3ccf 153d de7a e5bd
00000100: f0b0 513d 7e6f cf3d 14f3 c03d e08a 813d
00000110: 0c63 40bd 20a7 8a3d 00db b43c 80db eeba
00000120: 00a2 a739 300c 56bd 14c9 07bd cea3 fb3d
00000130: d44d 7d3d d03f 58bd e024 c5bb 0066 8bbc
00000140: 6ee9 aabd 2259 d63d 8082 133c a854 a8bd
00000150: b067 c33c f86f 463d 58ef 15bd 8a7d f43d
00000160: 7462 46bd 0e91 ce3d 52f7 be3d 1453 74bd
00000170: 7274 83bd e001 3fbc 382a 87bd 4617 f73d
00000180: 1a87 f33d 588b d2bc 4065 7d3b c2bc b3bd
00000190: c8f1 a43d c042 cdbb 18e6 6abd 349e d4bd
000001a0: 6812 a93d f03d 1a3d 26ae f73d bcbd 323d
000001b0: 5af8 b13d 5030 163c 96c2 ea3d 0665 953d
000001c0: 361b de3d 58cc 9cbc f0e4 21bc 8e36 febd
000001d0: 50e4 0abd 50a6 5ebd 5c23 c93d 36b2 c9bd
000001e0: 18fb b0bd e058 2ebd 00c0 8eb8 6eeb 873d
000001f0: f475 dbbd 5e96 8a3d b040 e23c c080 1ebc
00000200: 8ccd bdbd 70de 12bc 0c57 9cbd 18d4 f93d
00000210: 2c96 253d 6c09 7ebd 888c 52bd 989b 0a3d
00000220: d802 90bc 48c8 2fbd bac9 fabd c0d5 4a3c
00000230: 14a0 17bd e02c 093c 4477 b3bd 12a5 a4bd
00000240: 8c8a 0f3d 5a06 9fbd 78f0 debd 085f 4e3d
00000250: 289c 023d 1a52 a9bd 28a5 af3c 96be f4bd
00000260: 60a8 b6bb 34b5 b6bd 0461 afbd 7eb8 9dbd
00000270: a838 5cbd 563a 96bd 4063 7f3d 4058 f63d
00000280: 8a10 b0bd f41d 6dbd 6c6e bd3d 4aaf d53d
00000290: 7c13 d9bd 70cc ff3c a0b3 f4bc 6048 70bd
000002a0: 58ff 74bd d422 6fbd 4c8a 4f3d a855 8dbc
000002b0: b8be 53bd a67b d63d d842 35bd 8a8f c5bd
000002c0: 5664 cc3d c076 263b 6a80 91bd b8c6 423d
000002d0: 1898 21bd 2818 98bd 5234 c7bd daba 9b3d
000002e0: 00db ff3d c0d7 43bd 8060 dfbb 585d 97bd
000002f0: aaf3 ea3d a29b fabd 4064 67bd a8cd babc
00000300: fee3 eebd 7c2c 3fbd 4435 ff3d 6ce4 6ebd
00000310: 76af a93d e6c5 a7bd 9295 cc3d 6862 2ebd
00000320: c014 203c 1a77 98bd a85a bb3d c083 2ebd
00000330: de77 94bd 68d4 cc3c 103b 5e3d 94c4 89bd
00000340: bc51 c2bd 00b5 e3bc 1851 593d 9427 bcbd
00000350: 60c8 10bd 1e47 ba3d 547b b8bd bc1a c0bd
00000360: 98fd 1f3d d8d9 b03c 5c14 b73d b8f3 32bd
00000370: 6627 9dbd b08d 6abd f015 b2bc a0b2 ad3b
00000380: 4ad8 c23d 9cee 1d3d 5c4c 0a3d 0480 2a3d
00000390: c462 eebd f4d0 22bd 18e1 a93c 1867 a03c
000003a0: c82c c1bd 0a95 90bd 388f c13d e86e da3c
000003b0: 089c 213d 4a8b fb3d 4c3b 2f3d 9a2a e13d
000003c0: 685a 9abc 48c6 b5bc 6839 d4bc 02a6 9a3d
000003d0: c69f f4bd c899 c73d 1e02 82bd e45f 793d
000003e0: 143a 31bd c640 a5bd e8d8 433d 005d 23bb
000003f0: 4483 66bd 503b 023d a84e eabc c067 53bc
-0.03461373 -0.023577705 -0.0313676 -0.07759638 -0.11120902 0.006798193 -0.07631555 0.10344437
0.12136264 0.0045427233 0.06991507 0.039556205 -0.07532042 0.017229334 0.06236382 -0.051430166
-0.051142663 -0.115567446 -0.028541014 -0.056532368 0.03413628 -0.110061616 -0.08166358 -0.07986049
-0.044632837 0.05223027 -0.05640565 0.090226725 -0.0058018416 0.11935717 -0.009718284 -0.060618445
0.020732567 -0.0009711832 0.090897456 -0.06534438 -0.0912925 0.03325142 -0.11165248 0.09305909
0.011529028 0.04865317 -0.08697434 0.066247284 0.031438306 -0.10881986 -0.061095104 0.12266609
-0.06459069 -0.034381002 0.05697757 0.05409345 0.07634947 -0.042941585 -0.11576314 0.09737626
0.097255394 -0.052027106 -0.089440525 -0.112608254 -0.0017880052 -0.04017864 0.036574587 -0.11205076
0.05119413 0.10128687 0.094213635 0.063253164 -0.04696946 0.06770158 0.022077084 -0.0018223375
0.00031973422 -0.052257717 -0.033150747 0.12287103 0.0618418 -0.05279523 -0.0060163587 -0.01701641
-0.083453044 0.104662195 0.009003282 -0.08219272 0.023853153 0.048446625 -0.03660521 0.11938007
-0.048433736 0.10086261 0.09324516 -0.059649542 -0.064186946 -0.011658162 -0.065998495 0.12064986
0.11891003 -0.02570121 0.0038665086 -0.08776237 0.080539286 -0.0062640607 -0.05734834 -0.10381737
0.08255464 0.037656724 0.12093763 0.043637976 0.086899474 0.009166792 0.114628956 0.07294659
0.10845034 -0.019140407 -0.009881243 -0.12412749 -0.033909142 -0.054357827 0.098211974 -0.09848444
-0.08641642 -0.042565227 -6.8068504e-05 0.066367015 -0.10715857 0.067669615 0.027618736 -0.009674251
-0.092677206 -0.008964166 -0.076337904 0.12198657 0.04042642 -0.062020704 -0.051403552 0.033839792
-0.017579481 -0.042915612 -0.122455075 0.0123800635 -0.037017897 0.008372515 -0.087629825 -0.08039297
0.035044238 -0.07764883 -0.108857095 0.050383598 0.031887203 -0.08267613 0.021441057 -0.11950414
-0.005574271 -0.089212805 -0.08563426 -0.07701205 -0.05376497 -0.073353454 0.06235051 0.12028551
-0.085969046 -0.057889894 0.09249577 0.10433824 -0.105994195 0.031225413 -0.029870808 -0.058662772
-0.059813827 -0.058382824 0.050669 -0.017252758 -0.051695555 0.10472803 -0.0442532 -0.096465185
0.09980075 0.002540037 -0.07104571 0.047552794 -0.03945169 -0.074264824 -0.09726776 0.076039985
0.12492943 -0.047813177 -0.0068169236 -0.07390851 0.114722565 -0.12236716 -0.05649209 -0.022803143
-0.1166458 -0.046673283 0.124613315 -0.05832331 0.0828542 -0.08192043 0.09989466 -0.042574316
0.009770572 -0.07444592 0.09148151 -0.042606115 -0.07249425 0.025003627 0.054255545 -0.067269474
-0.09488246 -0.027796268 0.053055853 -0.091872364 -0.035347342 0.09095596 -0.09007898 -0.09380099
0.039060205 0.021588251 0.0893943 -0.04368946 -0.0767353 -0.05726403 -0.021738976 0.005300835
0.0951391 0.038557634 0.03376423 0.04162599 -0.11639932 -0.039750054 0.020737216 0.019580409
-0.094323695 -0.07059677 0.09451145 0.026664212 0.039455444 0.12282427 0.04278116 0.10994454
-0.018841937 -0.022189274 -0.02590628 0.07551195 -0.11944537 0.09746128 -0.0634806 0.060882464
-0.04326828 -0.08068995 0.04781428 -0.0024927258 -0.05627753 0.031794846 -0.02860196 -0.012903154

fc.2.bias f4 [64]
00000000: d09e 163c facf 853d 003b 02ba d013 99bd
00000010: f418 d13d e604 ebbd 18ed d9bc d4d4 7f3d
00000020: 84f4 6f3d b678 e93d 2431 45bd 10ce bf3d
00000030: 6483 98bd f6d1 9dbd a4e4 d83d c859 1c3d
00000040: 0073 91bb 5a24 ccbd 8061 df3a ec16 04bd
00000050: 10d2 0c3c 5c16 6bbd 50f6 b4bc b063 d0bc
00000060: 8044 fb3b 14b3 bb3d 38c1 503d e0f5 21bd
00000070: 5875 aebc 7884 a5bd fad6 c2bd 9437 5e3d
00000080: a255 cebd 1467 b8bd 30f7 dcbd 7c61 c93d
00000090: f0e4 41bc 90d1 e2bd 40b3 f83c e84d dc3c
000000a0: 2cbd 853d baed 8ebd 0898 9a3d 5071 ddbc
000000b0: 5849 803d c04f 04bb f489 71bd 1cc9 0e3d
000000c0: d89c 993d c294 9ebd 30fa 1fbc 28b5 c4bc
000000d0: ae3b e73d 30a1 d83d 2074 1bbd 60ca d1bb
000000e0: b056 8a3d c013 463c f856 aa3d 0033 a93b
000000f0: d8ec df3d 8832 62bd ba66 a5bd dae6 cabd
0.009193137 0.06533809 -0.0004967898 -0.07474482 0.102098376 -0.11475544 -0.026602313 0.062458828
0.058582798 0.11399977 -0.048142567 0.09365475 -0.07446936 -0.077060625 0.10590485 0.03817156
-0.004438758 -0.09967871 0.0017042607 -0.032248423 0.008595005 -0.05739437 -0.022090107 -0.02543816
0.007668078 0.09165016 0.050965518 -0.039541125 -0.021296188 -0.08081907 -0.0951366 0.054252222
-0.10074927 -0.090040356 -0.10789335 0.09833047 -0.011834368 -0.11075127 0.03035891 0.026892617
0.06530222 -0.069789365 0.07548529 -0.02703157 0.06263989 -0.0020189136 -0.058969453 0.03485976
0.07500619 -0.07743217 -0.009764239 -0.024012163 0.1129068 0.10577619 -0.037952542 -0.006402299
0.067548156 0.01208967 0.08317369 0.0051635504 0.10933846 -0.05522397 -0.08076234 -0.09907313

fc.4.weight f4 [6, 64]
00000000: 78e2 c93c a4cc e7bd 48b7 4e3d 006a 653d
00000010: d404 d93d 4815 d7bc 8844 e53c dcba 4fbd
00000020: 6c6c efbd 6081 c4bb e011 1c3d 02e1 983d
00000030: 604e dbbb 805e f23c 082f f33c 1849 eabd
00000040: 702a ba3d dc57 c3bd c810 a8bd fe28 afbd
00000050: e496 b0bd e294 a3bd b44d 9e3d 6037 a63d
00000060: dac4 e23d 300f 1f3d 8036 44bd e8a8 663d
00000070: a8c0 dcbc 50e2 d4bc 00d7 313b 7e7e e43d
00000080: 0217 9bbd bc13 a03d 0030 3639 54f0 57bd
00000090: 703e bebc 68de dbbc 60ad 04bd d0c7 293c
000000a0: 48f6 093d 7cd3 9ebd 70df b1bd 9493 333d
000000b0: 3e70 f43d f026 503c e0ae 32bd d8d5 923d
000000c0: 54d1 f03d 887d 50bd 709a d03c 5438 01bd
000000d0: 0e1b a7bd 703f c0bc 90b8 e43d 4ed9 f23d
000000e0: 6c52 3c3d 6623 ea3d 1a7a bd3d ac8c 3dbd
000000f0: 34c5 62bd e044 d83d e4db 623d 4c61 b53d
00000100: 4890 50bd 747b 5b3d 0613 a5bd 546e 673d
00000110: e408 513d d06d 243c 4823 d4bc 600d 04bd
00000120: 88de 8d3c 9881 d23c 504e 3bbc 70af d63c
00000130: 9c45 02bd 04b6 eebd e0ab d5bd 3054 f3bd
00000140: 5a9d ca3d 6050 0d3d d076 e33c 1cc2 c5bd
00000150: 606c c1bb 6e21 ac3d 6054 c4bb 5808 df3c
00000160: 0eb2 acbd 44f0 01bd c0ac 8dbb 8a85 a9bd
00000170: 704a b3bc 109c ccbc 4cd8 f5bd 0010 ea39
00000180: eea6 d8bd 2087 713c 0421 91bd 605a 62bc
00000190: 508d ea3c a45a 693d 58e3 9e3c b2bc 8e3d
000001a0: 2044 103c 3cbb 0abd 38cf 5d3d 6016 adbb
000001b0: 8008 d7bc b8a8 dc3c eea4 9b3d ea32 a3bd
000001c0: 2e08 f63d 4cbd ba3d b2ca d13d a0ca 97bc
000001d0: 86ee e7bd 3c67 4fbd 8e98 d2bd 868b cdbd
000001e0: 901c 063c f4e2 2b3d 94ac 3ebd 98c3 213d
000001f0: 4011 593b 2060 d93b 265e cebd 101a f13c
00000200: e6dd 8dbd 26bb f5bd 603f 83bb f8b0 003d
00000210: b897 23bd e8df b5bd 500f 973c ac81 5f3d
00000220: b8b9 e73c 102f 8a3c d002 56bd 28d4 913c
00000230: dcac d8bd 9e64 c23d a8d5 b6bc 206c af3c
00000240: 6051 dabc 0808 58bd 8c2b e43d 12d8 f53d
00000250: 2ccd 153d b281 81bd b0fe 2c3c f80b 48bd
00000260: 02f6 973d 54ba e5bd a627 c13d 6e59 8cbd
00000270: 6847 5e3d 16c0 cdbd 5acb ac3d 226d c93d
00000280: 88bc de3c a4de 7bbd a298 a3bd 482d 57bd
00000290: ba66 803d 24be ccbd 0098 343b a078 c0bb
000002a0: 2cea ccbd 20d8 11bc d2d6 96bd c0e9 4ebb
000002b0: 4677 953d 00b9 38ba d8df 29bd 7c80 2d3d
000002c0: c038 853c 5ceb 2c3d 1c6c c8bd 367d a13d
000002d0: 26c0 f5bd f83e fa3d 507b 54bd aa4a 84bd
000002e0: 6249 e93d 30f2 c7bd d08c 7a3d e088 e5bc
000002f0: 3c97 923d c05d 7f3c 00bb e93d 409a 77bc
00000300: faaf abbd 1861 a03c 0e2b 8ebd d6af dcbd
00000310: 1090 19bc 12a3 efbd 60b2 10bc 223d a43d
00000320: 3623 d7bd d0bf 653d 2c39 9c3d 5efa c7bd
00000330: 9074 ec3c 52ec 90bd d4a4 a3bd 344f a43d
00000340: 6ae0 dbbd 94cc c93d 96ec bb3d 0cfb 0dbd
00000350: a0c2 c93c 40c8 433c 0ed3 c03d 202b f5bc
00000360: 1053 34bc c00e 0b3d 443e 26bd 400a 4fbc
00000370: 9824 843c 7ab2 f43d 90f0 c53d defc a03d
00000380: ded1 d23d 86b3 89bd dae9 b9bd d068 81bd
00000390: 50a8 ff3c a803 78bd 884b 08bd 208e 59bd
000003a0: 2081 213d 9454 973d 2004 2abc 921e 933d
000003b0: 4648 ff3d 5028 2dbc 00df 96ba 2ae3 843d
000003c0: 081e 87bd fe38 913d aea3 a1bd 34f8 5dbd
000003d0: c029 313d ee32 cc3d 40b6 3b3d e644 9ebd
000003e0: f64a 993d e0f4 12bc 0a5d 9dbd 200f dc3c
000003f0: 782c aa3d 484d b2bc 64f1 61bd 5895 52bd
0.024644122 -0.11318329 0.05046776 0.056009293 0.10596624 -0.026255265 0.02798678 -0.050715312
-0.11690602 -0.005996868 0.038102984 0.07464792 -0.0066926926 0.029586077 0.029685512 -0.11439723
0.090901256 -0.09538242 -0.08206326 -0.085527405 -0.0862253 -0.079873815 0.077296644 0.08116031
0.11072703 0.038832843 -0.047903538 0.056313425 -0.026947334 -0.02598682 0.0027136207 0.11156939
-0.07572748 0.07816264 0.00017374754 -0.05271943 -0.023223132 -0.02683945 -0.032391906 0.01036258
0.033682138 -0.07755181 -0.086851954 0.043841913 0.11935471 0.012704596 -0.043623805 0.07169694
0.11758676 -0.050900966 0.025464267 -0.03154786 -0.08159457 -0.02346775 0.11168015 0.11857854
0.04597704 0.11432533 0.09251805 -0.046276733 -0.05536385 0.10560012 0.055385485 0.088564485
-0.050918847 0.05358453 -0.08060269 0.0565017 0.05103387 0.010035947 -0.02589573 -0.032239318
0.017318025 0.02569656 -0.011432245 0.026206702 -0.031804666 -0.116558105 -0.10433173 -0.11881292
0.09893294 0.03450048 0.027766615 -0.09656164 -0.005902812 0.08404814 -0.0059915036 0.027225658
-0.08432399 -0.031723276 -0.004323572 -0.08277424 -0.02188608 -0.02497676 -0.12004146 0.0004464388
-0.10578714 0.014741689 -0.07086375 -0.013815492 0.028631836 0.056971207 0.019395515 0.069695845
0.008805305 -0.033869967 0.054152697 -0.0052822083 -0.02624917 0.02693592 0.07599817 -0.079686955
0.12013279 0.09118137 0.10243739 -0.018529236 -0.113247916 -0.05063556 -0.10283004 -0.100363776
0.008185521 0.041964486 -0.046551302 0.039493173 0.0033121854 0.0066337734 -0.10076551 0.029431373
-0.069270894 -0.11998586 -0.0040053576 0.03141877 -0.039939612 -0.08880597 0.018439919 0.054567024
0.0282868 0.016868144 -0.052248776 0.01780136 -0.10579845 0.094918475 -0.022318676 0.021413863
-0.02665013 -0.052742034 0.111411184 0.12004103 0.03657262 -0.063235655 0.010558769 -0.04883954
0.07419969 -0.1121718 0.094313905 -0.06852995 0.054267317 -0.10046403 0.08437224 0.098352686
0.027189508 -0.061491624 -0.07988097 -0.052533418 0.062695935 -0.09997204 0.002755642 -0.0058737546
-0.10005602 -0.008901626 -0.073651925 -0.0031572431 0.0729814 -0.000704661 -0.04147324 0.04235886
0.016262412 0.042216644 -0.09786245 0.0788521 -0.1199954 0.122190416 -0.051875412 -0.064595535
0.1139095 -0.097629905 0.061169446 -0.028019369 0.07157752 0.015586317 0.114126205 -0.01511246
-0.08383174 0.019577548 -0.06941806 -0.107757255 -0.009372726 -0.11701025 -0.00883159 0.08019473
-0.10504763 0.05609113 0.07628092 -0.097645506 0.028864175 -0.070763245 -0.07990423 0.08022919
-0.10736163 0.09853473 0.091759846 -0.034663245 0.024628937 0.011949599 0.094152555 -0.02992779
-0.011006132 0.033949614 -0.040586725 -0.012636721 0.01613073 0.11948104 0.09665024 0.078607306
0.10293935 -0.067236945 -0.09077807 -0.063188195 0.031208187 -0.060550362 -0.033275157 -0.053114057
0.039429784 0.07389179 -0.01037696 0.07183565 0.12464957 -0.010568693 -0.0011510551 0.064886406
-0.06597525 0.070909485 -0.078925475 -0.054191783 0.043252707 0.099706516 0.045828104 -0.07727985
0.07485001 -0.008969516 -0.076837614 0.02686268 0.08309263 -0.021765366 -0.05516185 -0.051411957

fc.4.bias f4 [6]
00000000: 7426 9d3d 76be 9c3d 9ae8 87bd 20d6 1f3c
00000010: 9ae2 a1bd c842 ccbd
0.0767335 0.07653515 -0.06636162 0.009755641 -0.07904549 -0.09973675
