dqn_checkpoint_no_obstacle.pth (torch, 43106 bytes, 12 tensors)

fc.0.weight f4 [64, 3]
000000 12 f8 b5 3e d0 1a 0d bf b8 51 ea be 78 84 4c 3e
       0.35540825 -0.5511904 -0.4576547 0.19972408
000010 3e c5 6d be d0 bb e8 be 50 1b 4e bd 72 7a 09 3f
       -0.23219773 -0.4545579 -0.050319016 0.5370246
000020 2c 76 c4 be 5c 25 cb 3e e0 35 19 bd 4c 77 51 be
       -0.38371408 0.3967694 -0.037404895 -0.20455664
000030 90 7c 7a bd 08 4b da bd d8 44 c1 3e 9e 4b 91 3e
       -0.06115395 -0.10658842 0.37747836 0.28378004
000040 40 0f c5 3e 8a 23 d5 be 62 bb bb be c6 0e f8 be
       0.38488197 -0.41628677 -0.366664 -0.4844877
000050 27 5f a3 be 90 06 f0 3e 8b e9 0c bf 6b 5c 87 be
       -0.31908533 0.46880007 -0.5504386 -0.26437697
000060 bf 12 89 be 1c 5e de 3e 6c 61 5e be dc 13 d2 3e
       -0.26772115 0.43431175 -0.21716851 0.41030777
000070 24 22 fa 3e 0e f2 98 be c0 43 13 3c 40 4b 6b bc
       0.48854172 -0.29872173 0.008988321 -0.014361203
000080 66 3d aa 3e ac d2 c2 be 40 9f 44 bc 26 70 31 be
       0.33249968 -0.38051355 -0.012000859 -0.17327937
000090 80 1c bd bb 04 60 e7 3e f4 23 0d 3f d0 0e ef be
       -0.0057712197 0.45190442 0.55132985 -0.4669099
0000a0 80 8c 10 bd e2 dd b4 be e6 fe bc be 00 c6 95 bc
       -0.03529024 -0.35325533 -0.36913222 -0.01828289
0000b0 4d 50 0d bf f6 c7 c6 be 22 62 f0 be e4 0a 16 3e
       -0.55200654 -0.38824433 -0.4694987 0.14652592
0000c0 3e 18 13 3f f6 3c 0c bf 5c 9d f9 3e 58 5f ad be
       0.57458866 -0.5478052 0.48752868 -0.33861804
0000d0 26 d9 07 3f 18 5e 67 be b6 29 c4 3e d9 a6 07 bf
       0.5306572 -0.22594488 0.38313073 -0.52988964
0000e0 00 13 ee 3e 62 2e d1 3e 9c 8d f2 3e ba 0c af 3e
       0.4649887 0.408557 0.47373664 0.34189397
0000f0 b4 f0 e3 3e 5e bc 3b be cc 0c cc 3e f0 ba 1c be
       0.4451958 -0.18333575 0.39853513 -0.15305686
000100 14 6f 0b be 76 54 c7 be 40 0c 58 3d 7e ca 9b 3e
       -0.13616592 -0.38931626 0.052746058 0.30427927
000110 86 98 b9 3e d8 9f ba bd f0 9c bc 3e 41 65 c0 be
       0.3624918 -0.09112519 0.36838484 -0.3757725
000120 f0 5f e9 3d c0 14 7a be 1b 0f 9d be e0 40 97 3c
       0.11395252 -0.24421978 -0.30675587 0.018463552
000130 58 0f 9d bd 14 d8 29 3e a0 e4 cb 3d 96 48 c4 be
       -0.07668942 0.16586334 0.09955716 -0.3833663
000140 60 14 d1 be b9 77 81 be 4c 2d ee 3e d6 f3 06 3f
       -0.40835857 -0.25286654 0.46518934 0.52715814
000150 88 49 0f 3f 8e 5f 7d be 84 36 fb 3e ba 84 08 3f
       0.55971575 -0.24743482 0.4906503 0.53327525
000160 34 7d 03 bf f8 97 b0 bd 38 16 ce 3d 90 55 b5 3e
       -0.5136292 -0.08622736 0.10062832 0.35416842
000170 a0 9a 30 3e 6c ca a5 bd 00 dc 67 3b 52 5a d6 3e
       0.17246485 -0.080952495 0.0035378933 0.41865784
000180 82 ba bd be 8a be 28 be e0 2b cd 3e 74 e9 ec be
       -0.37056357 -0.16478935 0.40072536 -0.4627186
000190 64 32 c0 be f2 65 81 3e a8 b5 8b 3e 5e 4c 77 be
       -0.37538445 0.2527309 0.2728703 -0.24150226
0001a0 80 4d e7 3e ff 9b 11 bf a4 d8 08 3e d0 24 d6 be
       0.45176315 -0.56878656 0.13363892 -0.4182496
0001b0 b0 bb de be 9e 48 dd be 26 1d dc be da 6b c6 3e
       -0.4350257 -0.43219465 -0.42990988 0.3875416
0001c0 92 e5 b2 be 00 57 48 be 58 2b 97 bd 4c 16 3e 3e
       -0.34940773 -0.19564438 -0.07381314 0.18563193
0001d0 66 bf ed be 52 f7 01 3f 10 b8 47 bd 78 4d 13 3f
       -0.46435088 0.50768006 -0.04875952 0.5754008
0001e0 c8 51 84 bd 7c 55 2d 3e 50 60 d2 bd 80 aa 95 bb
       -0.06460911 0.16927141 -0.102722764 -0.0045674443
0001f0 ee ca 96 be 76 be 01 3f 54 0e 5f 3e c8 71 45 3e
       -0.29451698 0.50681245 0.2178281 0.19281685
000200 c8 25 fa 3d 90 ca cb 3d 08 03 85 3d da 24 a9 be
       0.122142375 0.09950745 0.06494719 -0.33035928
000210 c8 5a e8 3d ce 01 02 3f 02 de 05 bf 58 d9 c6 3d
       0.1134544 0.50784004 -0.5229188 0.09709424
000220 e2 a4 cd be 84 17 02 bf 4c d0 61 be b0 8e 88 3e
       -0.40164858 -0.5081713 -0.22052115 0.26671362
000230 d0 55 19 bd 34 22 4c 3e e0 e0 0b 3d 64 75 23 3e
       -0.037435353 0.19934922 0.034150004 0.1596275
000240 08 d1 b4 3e f8 25 d1 3e 50 a8 0d 3e 5e c9 10 3f
       0.35315728 0.4084928 0.13833737 0.5655726
000250 60 99 91 3e 0c 76 ca 3e e0 4b 25 3e f6 93 a1 be
       0.28437328 0.39543188 0.16142225 -0.31558198
000260 34 04 01 bf bd a2 f9 be ec 40 ba 3e e4 d1 ad 3e
       -0.5039704 -0.48756972 0.36377656 0.33949196
000270 6c 87 0a 3e 89 36 e9 be 20 11 af 3d 6b c9 d1 be
       0.13528222 -0.4554942 0.08548188 -0.40973982
000280 a8 d6 58 3e cc b2 40 3e 90 90 0d 3d 00 24 ac be
       0.21175635 0.18818206 0.034561694 -0.33621216
000290 ee 30 fd be 80 57 f8 3c a8 28 8b be 00 e2 1c 3c
       -0.49451393 0.03031516 -0.27179456 0.009575367
0002a0 16 7b 8a 3e b2 1a ce be 08 78 86 3d 9e ac 3f be
       0.27047032 -0.40254742 0.06565863 -0.18718192
0002b0 ca c8 17 be 60 9c 99 bd c8 93 ea bd 10 fe 9a bd
       -0.14822689 -0.07500529 -0.11453968 -0.0756799
0002c0 7a 74 12 3f 00 71 e8 3e 12 de d5 be 80 3c df 3c
       0.5720898 0.45398712 -0.4177099 0.027250528
0002d0 f9 b9 e8 be c8 85 e0 be d8 a1 3f 3e e0 a8 a9 3c
       -0.45454386 -0.43852067 0.18714082 0.020710409
0002e0 dc 57 10 be a5 a8 10 bf b6 cf 71 be 59 65 03 bf
       -0.14096016 -0.5650733 -0.23614392 -0.5132652
0002f0 bc 1a 89 3e 3c 00 4e 3e 56 12 d2 3e 98 e3 b4 3e
       0.2677821 0.20117277 0.41029614 0.3532989

fc.0.bias f4 [64]
000000 2a b0 b3 be c0 5d 0f bc b1 5f ac be b8 89 f1 3d
       -0.3509534 -0.008750379 -0.33666757 0.11793846
000010 c2 dc 0b bf a0 48 aa 3c 5c 0e 60 3e 24 b2 52 3e
       -0.54633725 0.020786583 0.21880478 0.20575768
000020 9e db 12 3f ed dd a0 be 1d 45 f2 be 4c 87 aa 3e
       0.5736636 -0.31419316 -0.47318354 0.33306348
000030 88 d1 51 be 7a 67 37 be e2 b6 0f bf 96 82 ac be
       -0.20490086 -0.17910567 -0.5613843 -0.3369338
000040 de 61 1d be 80 bb d4 3b 58 83 a7 3d e8 8d 03 3f
       -0.15369365 0.0064920783 0.08179349 0.51388407
000050 08 0e ad 3d e8 c9 b7 be 09 c6 08 bf ae 97 47 be
       0.08449942 -0.3589623 -0.5342718 -0.19491455
000060 44 c5 e2 be 2f 8b ad be 6c 08 a6 bd 92 93 8c 3e
       -0.44291127 -0.3389525 -0.08107075 0.27456337
000070 55 3e 86 be 00 f4 bc 3e 74 0b ac be 70 0c 0d 3f
       -0.2621943 0.36904907 -0.33602488 0.55097103
000080 8a 27 0a be 5e 62 13 3f a0 a8 a3 3c 50 c1 39 3d
       -0.13491645 0.5757197 0.019977868 0.045350373
000090 a8 ed 6f be 62 2d b9 be 7e 84 0c bf 30 a0 79 3e
       -0.23430502 -0.36167437 -0.5488967 0.24377513
0000a0 67 0c a0 be 6a 88 d7 3e 08 7b 37 be d2 d9 f8 be
       -0.31259462 0.42096263 -0.17918026 -0.48603684
0000b0 fc 1f b9 be 80 12 f7 bb 78 f0 0e bf ec fd 11 3f
       -0.36157215 -0.007540047 -0.55835676 0.5702808
0000c0 b4 3e 06 be 79 43 13 bf c0 ed d1 bc de 08 c8 be
       -0.13109857 -0.5752483 -0.025626063 -0.39069265
0000d0 94 95 67 3e e8 4b dd be 1c 94 3b 3e ea 00 cf be
       0.22615653 -0.43221974 0.18318218 -0.40430385
0000e0 14 18 8f 3e 9a 19 80 3e 30 24 4b 3e a0 fa db 3e
       0.27948058 0.25019532 0.19838023 0.4296465
0000f0 a4 10 f2 3e 00 dc a6 3a 5c 20 e4 3e e0 01 95 3e
       0.4727832 0.001273036 0.44555938 0.29102993

fc.2.weight f4 [64, 64]
000000 a0 31 55 bd 90 ce 77 bc 80 3c 01 3d b2 80 a4 bd
       -0.05204928 -0.015124932 0.031551838 -0.08032359
000010 80 b0 6d bb 5c df 42 bd 0c 14 24 3d 00 f0 51 38
       -0.0036268532 -0.047576293 0.04005818 5.0053e-05
000020 40 fa 31 3b 98 7e ff 3d 40 2d 65 3b cc d7 6c bd
       0.0027157217 0.12475318 0.0034969598 -0.057822987
000030 24 bc 46 bd 18 48 70 bd 5c 0b 8a 3d 00 b4 5a 3a
       -0.04851927 -0.058662504 0.06740448 0.0008342862
000040 24 96 44 3d 80 28 76 bc 1c ef d0 3d d0 8e 86 bc
       0.047994748 -0.015024304 0.102018565 -0.01642552
000050 d4 c4 9d bd e4 d1 1d bd f4 38 3c 3d ac fa d8 3d
       -0.077035576 -0.038530245 0.045952752 0.10594687
000060 38 63 ae 3c e6 b5 c7 bd c0 ce 4b bb cc da 03 3d
       0.021287546 -0.09751491 -0.0031098574 0.032191083
000070 c0 b7 43 3b b8 46 d8 bc 10 a1 bc bc 50 a3 5b 3c
       0.0029864162 -0.026400909 -0.02302602 0.013405636
000080 c8 ec 93 bc 18 a1 2c 3d 50 a6 db 3c 34 4b 70 bd
       -0.018057242 0.04214582 0.026812702 -0.05866547
000090 d0 b1 f4 3c a8 d1 bc bd 6c 82 dc bd 18 d9 b0 3d
       0.029869944 -0.09219676 -0.107670635 0.08635157
0000a0 46 c7 f9 bd 60 ad 0e bd 08 a6 9c 3c c0 8d 4a bc
       -0.121962115 -0.034833312 0.019122139 -0.012362897
0000b0 96 40 a6 bd 58 65 83 3c 86 a7 a1 bd ca 46 9b bd
       -0.081177875 0.016039535 -0.07893281 -0.07581861
0000c0 08 bc 6e 3d 1e bb c0 3d ec 7f e0 3d 6a 89 84 bd
       0.05828479 0.0941069 0.10961899 -0.06471522
0000d0 f8 10 9f bd 00 fd ce ba f4 5e c0 bd 74 df d9 bd
       -0.077669084 -0.0015791953 -0.09393111 -0.106383234
0000e0 d0 35 d8 bd 18 e2 24 bd d4 20 87 3d a8 24 7f bd
       -0.10557139 -0.040254682 0.06598058 -0.062290817
0000f0 14 62 ae 3d a8 b0 96 3d b6 27 a0 3d 40 0c 01 bb
       0.08514801 0.07357913 0.07820074 -0.001969114
000100 92 95 c3 bd 00 46 84 3a c0 83 47 bc 54 8a cc 3d
       -0.09550013 0.0010091662 -0.012177408 0.099873215
000110 cc e7 c7 3d 8e 1a d9 3d 54 33 ba 3d 90 09 6c 3d
       0.097610086 0.10600768 0.09091821 0.057626307
000120 00 f3 32 bc 60 76 d3 3c 98 47 55 3d 50 f7 90 bc
       -0.0109221935 0.025813282 0.05207023 -0.017696053
000130 e2 1b f9 3d f8 d7 92 3c 1e 8d ec bd c8 a4 fd 3c
       0.12163521 0.017925248 -0.115503535 0.030962363
000140 ea a9 fd bd f4 87 56 bd 20 f9 2a bd 64 80 e0 bd
       -0.12385924 -0.05237575 -0.04174149 -0.109619886
000150 68 a3 3a bd 00 a5 03 bb 00 28 9a 3b 9c 6a 9a bd
       -0.045565993 -0.0020087361 0.0047044754 -0.075398654
000160 9c b7 93 3d 7a df 8e 3d 88 7f e4 3d 00 01 2e 3d
       0.07212755 0.069762185 0.11157137 0.042481422
000170 a0 a4 43 3d 60 c2 62 3d 70 f4 31 3d 80 c3 5d bb
       0.04776442 0.05536115 0.043446004 -0.003383845
000180 84 7f 79 3d 04 e9 d8 bd e8 4d 81 bd c0 e3 8c bc
       0.060912624 -0.10591319 -0.063136876 -0.017198443
000190 e0 d5 97 bd c8 3b aa bc 00 d5 af ba 08 c8 0e 3d
       -0.0741384 -0.020780459 -0.0013414919 0.034858733
0001a0 80 e9 38 bd ba 1c e4 3d 10 94 aa bc c4 99 05 bd
       -0.045144558 0.11138292 -0.020822555 -0.032617345
0001b0 c8 7c fc 3c 36 cb e7 bd 2e 05 a6 3d aa 33 94 bd
       0.03082122 -0.11318056 0.08106457 -0.07236417
0001c0 56 8e cc 3d 60 29 85 bc 14 58 1d bd 88 eb 88 3c
       0.09988086 -0.01625508 -0.038414076 0.016713873
0001d0 20 9b cd bb 80 29 c6 3d 80 ec 34 3d 38 e5 f5 3c
       -0.006274596 0.09675884 0.044170856 0.030016527
0001e0 92 37 8a bd fe 62 c5 bd 40 99 9f 3b e4 d4 de 3d
       -0.067488804 -0.09638022 0.0048705637 0.108804494
0001f0 de 8b e2 bd 34 a3 8f bd a0 2b a3 bd b6 cd e4 bd
       -0.11061834 -0.070135504 -0.07967305 -0.11172049
000200 08 c3 d8 bd a4 92 23 3d 14 4e 9c bd f0 8b 78 3c
       -0.10584074 0.03993477 -0.0763208 0.015170082
000210 38 ce 89 3c 90 10 23 bc 0e 93 d3 3d c0 b7 20 bd
       0.016821966 -0.009952679 0.10330783 -0.039237738
000220 cc 6b 5b 3d ba 4d b8 3d 20 30 1d bd b6 1e dc bd
       0.0535696 0.089992 -0.038375974 -0.10748045
000230 1a ca ac 3d e8 f3 69 bd 00 de c6 3c 1e c1 ba bd
       0.08436985 -0.057117373 0.02427578 -0.091188654
000240 6a 3a 8b 3d 88 74 2b 3d 0a 09 df 3d cc b8 9a 3d
       0.06798251 0.04185918 0.10890396 0.075547785
000250 b4 63 cf 3d a8 d1 f2 3c 96 9e 9e 3d cc 1c a2 3d
       0.10126439 0.029640988 0.077450916 0.07915649
000260 00 8e 68 bd f6 a1 83 3d fa f3 fe bd 18 10 db bc
       -0.056776047 0.06427376 -0.124488786 -0.026741073
000270 80 d8 6f bd 38 b3 d0 3c b8 77 b6 3d 04 f4 ce 3d
       -0.05855608 0.025476083 0.08909553 0.10105136
000280 84 50 58 3d 3c 63 0f 3d 26 d6 ea bd 08 11 da bc
       0.05281116 0.035006747 -0.11466627 -0.02661945
000290 a2 7f a0 bd 30 22 59 3c d0 17 a1 bd 3c 4c 85 bd
       -0.07836844 0.01325278 -0.0786587 -0.06508681
0002a0 18 26 97 bc 96 23 e4 3d 2e e1 ab bd c8 a5 90 bd
       -0.018450782 0.111396 -0.08392559 -0.0706287
0002b0 be b8 92 bd 22 ac b3 3d 46 0e d3 bd a8 10 48 bd
       -0.07164143 0.08773066 -0.10305457 -0.04884401
0002c0 62 fa a2 bd a8 87 36 bd 0c 57 c9 3d 00 16 c0 b9
       -0.07957913 -0.044562966 0.09831056 -0.00036637485
0002d0 28 4f 89 3d e0 a3 09 bd 0c 19 80 3d 68 8c 11 3d
       0.06704551 -0.03360355 0.06254777 0.035534292
0002e0 8c 7b 68 bd 98 9d 9e bc 84 d5 b9 3d 48 f8 b1 bd
       -0.05675845 -0.019362256 0.09073928 -0.08689934
0002f0 18 8a 02 bd 38 be ce 3c 1c 4b f0 3d 1a 3a c9 3d
       -0.031869978 0.025237188 0.11733076 0.09825535
000300 e2 d7 f4 3d f8 45 46 3d c4 7d 35 bd 36 2e c5 3d
       0.11955239 0.04840657 -0.044309393 0.09627955
000310 f2 d3 9b bd 50 9f d7 3c 30 a4 8b 3d 82 e2 cb bd
       -0.07608785 0.026321083 0.06818426 -0.09955312
000320 0e 77 8a 3d 3c af 9f 3d d8 0f b3 3c 00 11 71 ba
       0.06760989 0.07797095 0.02185814 -0.00091959536
000330 d8 76 5d bd e4 f5 ef bd 80 82 81 bd 7e 1d e9 bd
       -0.054068416 -0.11716822 -0.06323719 -0.11382578
000340 c4 9f c9 bd 90 44 8f bc 00 a3 4d bc 74 95 57 bd
       -0.09844926 -0.017488748 -0.012551069 -0.052632764
000350 68 50 de 3d 6c 2b 76 3d f2 9a ec bd 00 3b ff bc
       0.1085518 0.060100004 -0.11552991 -0.031156063
000360 20 c5 75 3c 0c 82 2c bd 48 5d 9a bc c0 97 6a 3b
       0.015000612 -0.04211621 -0.018843308 0.0035796016
000370 80 9b 88 3c a2 3c ee bd 74 1a a4 3d e4 f7 7c 3d
       0.01667571 -0.116326585 0.08012858 0.061759844
000380 50 00 5c bd ec 8f f9 3d 14 8b 1d bd 4a 38 b9 3d
       -0.053711236 0.12185654 -0.038462713 0.090439394
000390 78 e3 ba bd b0 fe 9c bc 1e d0 c1 bd a4 58 38 3d
       -0.091254175 -0.019164413 -0.09463523 0.04500641
0003a0 20 8c 77 bc 76 30 aa 3d 9c 6d 8a bd 82 bb af bd
       -0.015109092 0.083100244 -0.067591876 -0.08580686
0003b0 9a db a3 3d b8 c0 a9 bc f4 2d 3e bd 14 62 59 3d
       0.0800087 -0.020721778 -0.046430543 0.05307205
0003c0 90 43 0d bc ee 2d ed bd 18 29 ac bd 2a 48 e4 bd
       -0.008622065 -0.11581026 -0.084062755 -0.11146577
0003d0 c0 ce 26 3c 70 8e 7c 3d dc 13 5c 3d 62 60 a8 bd
       0.010181129 0.061659276 0.053729877 -0.082215086
0003e0 1c cb 06 bd 90 0d 4f 3c 76 e9 a3 bd d2 2e a2 bd
       -0.032908544 0.012637511 -0.080035135 -0.079190865
0003f0 c8 e7 99 bd f8 6c c8 bd 18 1a cd 3d 70 74 5f 3d
       -0.07514912 -0.09786409 0.100147426 0.054554403

fc.2.bias f4 [64]
000000 84 a5 58 3d 16 5d f3 3d 56 80 ee 3d 9a cf ef bd
       0.052892223 0.11882989 0.11645572 -0.11709519
000010 e8 f0 86 3d dc 5b 04 bd a2 f7 bf bd 80 52 bd 3c
       0.06588918 -0.032314166 -0.09373404 0.023110628
000020 70 81 3a bc 2c e2 b1 bd e0 f9 67 3d 16 53 eb bd
       -0.011383399 -0.08685717 0.056634784 -0.11490457
000030 f4 29 c5 bd 08 74 98 3d 58 a5 a8 bc ee 7c 85 bd
       -0.096271425 0.07444006 -0.020586655 -0.06517969
000040 c4 44 6d bd 6a 89 d6 3d 00 c0 a3 b9 20 5e d4 3d
       -0.057926908 0.104754284 -0.00031232834 0.103695154
000050 18 63 13 3d 70 cf 5d bd a0 f7 ab bb fc e4 10 3d
       0.035983175 -0.054152906 -0.005248025 0.035374627
000060 40 41 cb bb 08 fa 90 3d 20 dc 30 bd b0 7c dc 3c
       -0.0062028468 0.0707894 -0.043178678 0.026914924
000070 08 b1 f9 3c 64 9f ee 3d 08 8e 91 bd 6c ed 34 3d
       0.030479923 0.11651495 -0.071071684 0.044171736
000080 b8 5b 83 bc 62 ea cc 3d 40 3c 29 3d 48 c1 4a 3d
       -0.016034946 0.100056425 0.041317225 0.049500734
000090 64 fb 59 3d 78 18 14 3d c0 6e 0f bc f4 c4 9b 3d
       0.05321826 0.036156148 -0.008754432 0.07605925
0000a0 06 4f ca bd 24 35 40 3d a0 f1 be bc 98 ee 1c bd
       -0.09878354 0.04692568 -0.023308575 -0.03831348
0000b0 c0 bf 0a 3d 12 c1 d7 bd a0 16 78 3d a2 94 a4 3d
       0.033874273 -0.10534872 0.060568452 0.08036162
0000c0 b8 1b c1 3d 84 38 32 bd 90 ed c0 bd 40 b3 21 3b
       0.09429115 -0.04351093 -0.094203115 0.0024673492
0000d0 6c fb e6 bd e0 5d cf bb 78 ff e4 bc cc 0c b7 3d
       -0.11278424 -0.0063283294 -0.027953848 0.08937988
0000e0 e4 e3 54 bd f0 a9 3d 3d 08 f1 2c 3d 98 65 a7 3d
       -0.051975146 0.046304643 0.042222053 0.08173674
0000f0 e0 cf 51 bd 58 34 c2 bd 80 6e e4 3a 36 63 fc bd
       -0.051223636 -0.0948264 0.0017427951 -0.123236105

fc.4.weight f4 [6, 64]
000000 84 85 f2 bd 94 5e df bd dc 61 19 3d 18 56 de 3c
       -0.11841872 -0.10906711 0.03744684 0.027140662
000010 c0 3d d3 bc 76 17 fd 3d 46 f2 86 3d 80 5c 9d 3d
       -0.02578628 0.123579904 0.06589179 0.076836586
000020 40 1d b9 3d b4 4e d5 3d 7c a9 b8 3d 04 c9 53 bd
       0.09038782 0.10415402 0.090167016 -0.051705375
000030 8e 0a bb bd 48 c3 d3 3d 2a 53 ec 3d 84 e2 13 3d
       -0.091328725 0.10339981 0.115393 0.036104694
000040 b2 56 9c bd ee 30 90 bd d8 77 59 bd f4 a5 a9 3d
       -0.07633723 -0.070405826 -0.053092808 0.08283606
000050 a4 f0 8d bd 50 99 92 3d 3c 51 17 bd 7e d6 ea 3d
       -0.06930664 0.07158148 -0.036942706 0.114666924
000060 24 3b 79 bd e4 fc 96 3d 30 6c 01 3d fc 9c 8e bd
       -0.060847417 0.07372454 0.031597316 -0.06963536
000070 70 c1 8c 3d fc 5b fa 3d fa cf c1 3d 10 ac fd 3c
       0.06872833 0.12224576 0.094634965 0.030965835
000080 d0 63 da 3d e0 0a 41 bd 38 7b d2 3c bc 8b d4 3d
       0.10663569 -0.04712951 0.02569352 0.10378215
000090 b4 20 cf bd 90 69 f3 3c 86 47 b2 3d 4e c6 b1 3d
       -0.101136595 0.029713422 0.08705048 0.08680402
0000a0 4a a8 a1 3d 40 17 31 3b cc 93 21 3d e4 33 d8 3d
       0.07893427 0.0027021915 0.03944759 0.10556772
0000b0 22 6c 8a 3d 30 06 22 3d 00 f6 0c bc a8 b8 24 3d
       0.06758906 0.039556682 -0.008603573 0.040215164
0000c0 50 5d 63 bd 54 36 b8 3d 78 9c 0e bd ba f5 c1 3d
       -0.05550891 0.08994737 -0.03481719 0.09470697
0000d0 f4 86 b2 3d 1c c2 b1 bd 7c 33 6c bd 08 a6 b5 3c
       0.087171465 -0.086796016 -0.057666287 0.022173896
0000e0 40 a1 db bb ee f2 dc bd 10 56 b8 bd 72 05 81 3d
       -0.006702572 -0.10788523 -0.0900079 0.06299867
0000f0 78 41 cb bc 50 4f 3b bc 78 d8 84 3d 48 21 fc bc
       -0.024811491 -0.011432484 0.06486601 -0.030777588
000100 9a 92 8a bd 38 75 bb bc 98 0c 4b 3d 1c 7e be bd
       -0.06766243 -0.022883043 0.049572557 -0.09301397
000110 24 63 ce bd e4 ae 45 3d de 98 e4 3d f6 f5 bb bd
       -0.10077503 0.04826249 0.111619696 -0.09177773
000120 78 2d 88 3d 90 fb fa 3c 00 f8 81 3b 2a ac f2 3d
       0.066492975 0.030637532 0.0039663315 0.11849244
000130 80 17 22 3c de 15 90 3d 00 5c c4 b9 44 f5 0e 3d
       0.009893298 0.07035421 -0.00037452579 0.034901872
000140 80 d0 c7 bd 08 e4 ec bc e8 3d 88 bc 28 2c 68 3d
       -0.09756565 -0.028917328 -0.016631082 0.056682736
000150 10 4a d2 3c 28 93 ca 3d 50 f1 f8 3c 44 50 c1 3d
       0.025670081 0.09891349 0.030388504 0.094391376
000160 28 60 c1 bd f8 a9 1f bd 74 f7 53 3d fc b3 5d bd
       -0.094421685 -0.038980454 0.05174966 -0.054126725
000170 50 1a 88 bd 2c 32 bb 3d bc 67 56 bd 68 46 f3 bd
       -0.06645644 0.09140429 -0.052345023 -0.11878663
000180 d8 f1 72 3d 48 f9 c4 bd a8 9a f0 bc 5c d8 70 bd
       0.05931267 -0.09617859 -0.02937062 -0.058800086
000190 8c ac 0b 3d 28 c8 df 3c a8 d7 15 bd a8 59 62 bd
       0.0341001 0.027317122 -0.03658262 -0.055261284
0001a0 ae 38 a7 bd c0 0c ac bb c8 19 16 bd c0 bc 21 bc
       -0.08165108 -0.0052505434 -0.03664568 -0.009871662
0001b0 60 f1 ea bd ac 8e a8 3d 30 de dd bd c8 c2 0c 3d
       -0.1147182 0.082303375 -0.108333945 0.034365445
0001c0 b8 54 fb bc 08 72 55 3d a0 7f a6 bd 34 7c e9 3d
       -0.030680045 0.0521107 -0.08129811 0.11400643
0001d0 be 89 c1 3d d8 b5 3c bd 50 a2 fd 3d 6c fe 7d bd
       0.094501 -0.046071857 0.12384474 -0.062010214
0001e0 86 df c1 3d 34 7a c4 3d e8 3f bb 3c 50 ea 8f 3d
       0.09466462 0.09593621 0.022857621 0.070271134
0001f0 be 79 ba bd 80 b6 61 bc c6 5d ae 3d c4 73 ac bd
       -0.09105252 -0.013776422 0.085139796 -0.08420518
000200 50 a2 5e 3d f0 c4 9b 3c 94 81 c3 bd 7c f1 50 bd
       0.054354012 0.019014806 -0.095461994 -0.051011547
000210 f6 e1 b9 3d 40 10 03 3b 66 3a e0 3d ea fc 99 3d
       0.09076302 0.00199987 0.109486386 0.07518943
000220 78 a5 5a 3d 62 99 c0 bd c2 e1 d1 3d 30 83 0f bc
       0.05338046 -0.094042554 0.10248138 -0.008759305
000230 30 eb 04 bc 60 7f 34 bd 90 83 cf bc 64 3c 28 3d
       -0.008112714 -0.044066787 -0.025331289 0.041073218
000240 b6 bc aa 3d 90 66 4d bc 36 68 b3 bd 38 e2 0a bd
       0.08336775 -0.01253666 -0.08760111 -0.033907145
000250 50 83 9d 3c 82 29 dc 3d 84 ee cf bd 00 03 20 3a
       0.019227654 0.107501045 -0.10152915 0.00061039627
000260 28 c9 cf 3d 80 88 c8 3c 90 5c e2 bd 9c b6 bc bd
       0.101457894 0.02447915 -0.11052811 -0.092145175
000270 ca 3b da 3d 40 20 7c bb 48 3c 68 3d 78 08 3f 3d
       0.10655935 -0.003847137 0.056698114 0.046638936
000280 28 0d ee 3d e4 fb 9b bd 64 c1 cd bd 70 92 61 bc
       0.11623603 -0.07616404 -0.10046652 -0.013767824
000290 a6 e9 ae 3d c2 f3 ac 3d 30 55 ef bc 34 cf c9 bd
       0.08540659 0.084449306 -0.029215425 -0.09853974
0002a0 52 96 9b bd 00 ee e0 3a 38 c4 f1 3d 80 f4 8f bb
       -0.07597031 0.0017160773 0.11805004 -0.0043931603
0002b0 54 fa a1 3d 18 8f 75 3d c0 e8 41 bc 52 1c e0 3d
       0.079090744 0.059950918 -0.011835277 0.10942902
0002c0 34 f5 91 3d 30 7b 62 3c a8 ea 56 bd 9a 45 ca 3d
       0.07126847 0.0138233155 -0.05246988 0.09876557
0002d0 bc d5 90 bd 18 c2 5f bd 0e 06 bd bd 00 5d 45 3b
       -0.070720166 -0.05462846 -0.092296705 0.0030115247
0002e0 b8 bc f5 bc b2 11 84 3d 00 ff 3f ba d0 56 ce bc
       -0.029997215 0.064486876 -0.000732407 -0.02518788
0002f0 10 6b 63 3d 3a 40 ea bd 16 2a db bd 0c 9b 83 3d
       0.055522025 -0.114380315 -0.10701387 0.06426057
000300 48 af 9b 3c 20 fe 95 3d 80 f6 0d 3c 58 fc da bd
       0.019004479 0.07323861 0.008664727 -0.10692662
000310 32 8c b6 3d 40 21 cc bd 70 71 02 3d 90 4e 72 bd
       0.08913459 -0.099672794 0.031846464 -0.059156954
000320 00 16 1e 3b e2 43 96 bd 06 7a 94 3d 60 02 62 3d
       0.0024122 -0.07337166 0.072498366 0.055178046
000330 80 02 85 bd 9c e1 54 3d 04 9f 99 bd 82 ad dc bd
       -0.064946175 0.05197297 -0.07501033 -0.107752815
000340 96 f7 b9 bd 2e c6 af 3d c2 6f ac bd c0 75 de 3c
       -0.090804264 0.08582722 -0.084197536 0.027155757
000350 c8 c1 b2 3c f4 26 2b bd 70 8d 2d 3c 08 4e 26 3d
       0.021820918 -0.041785195 0.010592803 0.04060176
000360 98 62 76 bd 70 85 0c bd 3c 73 30 bd ca 81 c5 3d
       -0.06015262 -0.034306943 -0.043078646 0.09643896
000370 28 b4 7d 3d b0 17 99 3c 40 82 5e bb a8 14 42 bd
       0.06193939 0.018688053 -0.0033952147 -0.04738298
000380 90 c5 e2 bc 80 9d 48 3d 50 ad 0e 3c 18 78 0e 3d
       -0.027682096 0.04897833 0.008708313 0.0347825
000390 54 6a 89 bd 40 3c 3e 3b 40 40 0b 3b 88 86 fa 3c
       -0.067097336 0.002902761 0.0021248013 0.030581728
0003a0 a2 40 d9 3d 9e e7 80 bd 5c 82 64 3d 32 ab ce 3d
       0.10608031 -0.062941775 0.055788383 0.10091247
0003b0 c2 61 8c 3d de a0 91 3d 10 19 ad 3d 32 29 97 3d
       0.06854583 0.07110761 0.08452046 0.07380904
0003c0 e8 1f cd bd e4 94 2b bd c0 fa 01 3c 0a 07 ab 3d
       -0.10015851 -0.04189004 0.007933319 0.08350952
0003d0 be 42 e2 3d 64 39 51 3d 2c 85 c5 3d 10 40 2a 3d
       0.11047886 0.051080123 0.09644541 0.041565
0003e0 82 ea 97 3d 1a 3b b9 3d a0 19 5f 3d 38 79 be 3d
       0.07417776 0.09044476 0.054467797 0.093004644
0003f0 dc c9 76 3d 80 1d a1 bd 9c 93 97 bd 20 6b 6a 3c
       0.0602511 -0.07866955 -0.07401201 0.014307767

fc.4.bias f4 [6]
000000 0c 32 89 bd 16 b2 9e bd 76 55 92 3d 08 13 91 bd
       -0.06698999 -0.07748811 0.07145207 -0.07083708
000010 b0 6c b9 3d 00 b4 d9 3a
       0.090539336 0.001660943

fc.0.weight f4 [64, 3]
000000 12 f8 b5 3e d0 1a 0d bf b8 51 ea be 78 84 4c 3e
       0.35540825 -0.5511904 -0.4576547 0.19972408
000010 3e c5 6d be d0 bb e8 be 50 1b 4e bd 72 7a 09 3f
       -0.23219773 -0.4545579 -0.050319016 0.5370246
000020 2c 76 c4 be 5c 25 cb 3e e0 35 19 bd 4c 77 51 be
       -0.38371408 0.3967694 -0.037404895 -0.20455664
000030 90 7c 7a bd 08 4b da bd d8 44 c1 3e 9e 4b 91 3e
       -0.06115395 -0.10658842 0.37747836 0.28378004
000040 40 0f c5 3e 8a 23 d5 be 62 bb bb be c6 0e f8 be
       0.38488197 -0.41628677 -0.366664 -0.4844877
000050 27 5f a3 be 90 06 f0 3e 8b e9 0c bf 6b 5c 87 be
       -0.31908533 0.46880007 -0.5504386 -0.26437697
000060 bf 12 89 be 1c 5e de 3e 6c 61 5e be dc 13 d2 3e
       -0.26772115 0.43431175 -0.21716851 0.41030777
000070 24 22 fa 3e 0e f2 98 be c0 43 13 3c 40 4b 6b bc
       0.48854172 -0.29872173 0.008988321 -0.014361203
000080 66 3d aa 3e ac d2 c2 be 40 9f 44 bc 26 70 31 be
       0.33249968 -0.38051355 -0.012000859 -0.17327937
000090 80 1c bd bb 04 60 e7 3e f4 23 0d 3f d0 0e ef be
       -0.0057712197 0.45190442 0.55132985 -0.4669099
0000a0 80 8c 10 bd e2 dd b4 be e6 fe bc be 00 c6 95 bc
       -0.03529024 -0.35325533 -0.36913222 -0.01828289
0000b0 4d 50 0d bf f6 c7 c6 be 22 62 f0 be e4 0a 16 3e
       -0.55200654 -0.38824433 -0.4694987 0.14652592
0000c0 3e 18 13 3f f6 3c 0c bf 5c 9d f9 3e 58 5f ad be
       0.57458866 -0.5478052 0.48752868 -0.33861804
0000d0 26 d9 07 3f 18 5e 67 be b6 29 c4 3e d9 a6 07 bf
       0.5306572 -0.22594488 0.38313073 -0.52988964
0000e0 00 13 ee 3e 62 2e d1 3e 9c 8d f2 3e ba 0c af 3e
       0.4649887 0.408557 0.47373664 0.34189397
0000f0 b4 f0 e3 3e 5e bc 3b be cc 0c cc 3e f0 ba 1c be
       0.4451958 -0.18333575 0.39853513 -0.15305686
000100 14 6f 0b be 76 54 c7 be 40 0c 58 3d 7e ca 9b 3e
       -0.13616592 -0.38931626 0.052746058 0.30427927
000110 86 98 b9 3e d8 9f ba bd f0 9c bc 3e 41 65 c0 be
       0.3624918 -0.09112519 0.36838484 -0.3757725
000120 f0 5f e9 3d c0 14 7a be 1b 0f 9d be e0 40 97 3c
       0.11395252 -0.24421978 -0.30675587 0.018463552
000130 58 0f 9d bd 14 d8 29 3e a0 e4 cb 3d 96 48 c4 be
       -0.07668942 0.16586334 0.09955716 -0.3833663
000140 60 14 d1 be b9 77 81 be 4c 2d ee 3e d6 f3 06 3f
       -0.40835857 -0.25286654 0.46518934 0.52715814
000150 88 49 0f 3f 8e 5f 7d be 84 36 fb 3e ba 84 08 3f
       0.55971575 -0.24743482 0.4906503 0.53327525
000160 34 7d 03 bf f8 97 b0 bd 38 16 ce 3d 90 55 b5 3e
       -0.5136292 -0.08622736 0.10062832 0.35416842
000170 a0 9a 30 3e 6c ca a5 bd 00 dc 67 3b 52 5a d6 3e
       0.17246485 -0.080952495 0.0035378933 0.41865784
000180 82 ba bd be 8a be 28 be e0 2b cd 3e 74 e9 ec be
       -0.37056357 -0.16478935 0.40072536 -0.4627186
000190 64 32 c0 be f2 65 81 3e a8 b5 8b 3e 5e 4c 77 be
       -0.37538445 0.2527309 0.2728703 -0.24150226
0001a0 80 4d e7 3e ff 9b 11 bf a4 d8 08 3e d0 24 d6 be
       0.45176315 -0.56878656 0.13363892 -0.4182496
0001b0 b0 bb de be 9e 48 dd be 26 1d dc be da 6b c6 3e
       -0.4350257 -0.43219465 -0.42990988 0.3875416
0001c0 92 e5 b2 be 00 57 48 be 58 2b 97 bd 4c 16 3e 3e
       -0.34940773 -0.19564438 -0.07381314 0.18563193
0001d0 66 bf ed be 52 f7 01 3f 10 b8 47 bd 78 4d 13 3f
       -0.46435088 0.50768006 -0.04875952 0.5754008
0001e0 c8 51 84 bd 7c 55 2d 3e 50 60 d2 bd 80 aa 95 bb
       -0.06460911 0.16927141 -0.102722764 -0.0045674443
0001f0 ee ca 96 be 76 be 01 3f 54 0e 5f 3e c8 71 45 3e
       -0.29451698 0.50681245 0.2178281 0.19281685
000200 c8 25 fa 3d 90 ca cb 3d 08 03 85 3d da 24 a9 be
       0.122142375 0.09950745 0.06494719 -0.33035928
000210 c8 5a e8 3d ce 01 02 3f 02 de 05 bf 58 d9 c6 3d
       0.1134544 0.50784004 -0.5229188 0.09709424
000220 e2 a4 cd be 84 17 02 bf 4c d0 61 be b0 8e 88 3e
       -0.40164858 -0.5081713 -0.22052115 0.26671362
000230 d0 55 19 bd 34 22 4c 3e e0 e0 0b 3d 64 75 23 3e
       -0.037435353 0.19934922 0.034150004 0.1596275
000240 08 d1 b4 3e f8 25 d1 3e 50 a8 0d 3e 5e c9 10 3f
       0.35315728 0.4084928 0.13833737 0.5655726
000250 60 99 91 3e 0c 76 ca 3e e0 4b 25 3e f6 93 a1 be
       0.28437328 0.39543188 0.16142225 -0.31558198
000260 34 04 01 bf bd a2 f9 be ec 40 ba 3e e4 d1 ad 3e
       -0.5039704 -0.48756972 0.36377656 0.33949196
000270 6c 87 0a 3e 89 36 e9 be 20 11 af 3d 6b c9 d1 be
       0.13528222 -0.4554942 0.08548188 -0.40973982
000280 a8 d6 58 3e cc b2 40 3e 90 90 0d 3d 00 24 ac be
       0.21175635 0.18818206 0.034561694 -0.33621216
000290 ee 30 fd be 80 57 f8 3c a8 28 8b be 00 e2 1c 3c
       -0.49451393 0.03031516 -0.27179456 0.009575367
0002a0 16 7b 8a 3e b2 1a ce be 08 78 86 3d 9e ac 3f be
       0.27047032 -0.40254742 0.06565863 -0.18718192
0002b0 ca c8 17 be 60 9c 99 bd c8 93 ea bd 10 fe 9a bd
       -0.14822689 -0.07500529 -0.11453968 -0.0756799
0002c0 7a 74 12 3f 00 71 e8 3e 12 de d5 be 80 3c df 3c
       0.5720898 0.45398712 -0.4177099 0.027250528
0002d0 f9 b9 e8 be c8 85 e0 be d8 a1 3f 3e e0 a8 a9 3c
       -0.45454386 -0.43852067 0.18714082 0.020710409
0002e0 dc 57 10 be a5 a8 10 bf b6 cf 71 be 59 65 03 bf
       -0.14096016 -0.5650733 -0.23614392 -0.5132652
0002f0 bc 1a 89 3e 3c 00 4e 3e 56 12 d2 3e 98 e3 b4 3e
       0.2677821 0.20117277 0.41029614 0.3532989

fc.0.bias f4 [64]
000000 2a b0 b3 be c0 5d 0f bc b1 5f ac be b8 89 f1 3d
       -0.3509534 -0.008750379 -0.33666757 0.11793846
000010 c2 dc 0b bf a0 48 aa 3c 5c 0e 60 3e 24 b2 52 3e
       -0.54633725 0.020786583 0.21880478 0.20575768
000020 9e db 12 3f ed dd a0 be 1d 45 f2 be 4c 87 aa 3e
       0.5736636 -0.31419316 -0.47318354 0.33306348
000030 88 d1 51 be 7a 67 37 be e2 b6 0f bf 96 82 ac be
       -0.20490086 -0.17910567 -0.5613843 -0.3369338
000040 de 61 1d be 80 bb d4 3b 58 83 a7 3d e8 8d 03 3f
       -0.15369365 0.0064920783 0.08179349 0.51388407
000050 08 0e ad 3d e8 c9 b7 be 09 c6 08 bf ae 97 47 be
       0.08449942 -0.3589623 -0.5342718 -0.19491455
000060 44 c5 e2 be 2f 8b ad be 6c 08 a6 bd 92 93 8c 3e
       -0.44291127 -0.3389525 -0.08107075 0.27456337
000070 55 3e 86 be 00 f4 bc 3e 74 0b ac be 70 0c 0d 3f
       -0.2621943 0.36904907 -0.33602488 0.55097103
000080 8a 27 0a be 5e 62 13 3f a0 a8 a3 3c 50 c1 39 3d
       -0.13491645 0.5757197 0.019977868 0.045350373
000090 a8 ed 6f be 62 2d b9 be 7e 84 0c bf 30 a0 79 3e
       -0.23430502 -0.36167437 -0.5488967 0.24377513
0000a0 67 0c a0 be 6a 88 d7 3e 08 7b 37 be d2 d9 f8 be
       -0.31259462 0.42096263 -0.17918026 -0.48603684
0000b0 fc 1f b9 be 80 12 f7 bb 78 f0 0e bf ec fd 11 3f
       -0.36157215 -0.007540047 -0.55835676 0.5702808
0000c0 b4 3e 06 be 79 43 13 bf c0 ed d1 bc de 08 c8 be
       -0.13109857 -0.5752483 -0.025626063 -0.39069265
0000d0 94 95 67 3e e8 4b dd be 1c 94 3b 3e ea 00 cf be
       0.22615653 -0.43221974 0.18318218 -0.40430385
0000e0 14 18 8f 3e 9a 19 80 3e 30 24 4b 3e a0 fa db 3e
       0.27948058 0.25019532 0.19838023 0.4296465
0000f0 a4 10 f2 3e 00 dc a6 3a 5c 20 e4 3e e0 01 95 3e
       0.4727832 0.001273036 0.44555938 0.29102993

fc.2.weight f4 [64, 64]
000000 a0 31 55 bd 90 ce 77 bc 80 3c 01 3d b2 80 a4 bd
       -0.05204928 -0.015124932 0.031551838 -0.08032359
000010 80 b0 6d bb 5c df 42 bd 0c 14 24 3d 00 f0 51 38
       -0.0036268532 -0.047576293 0.04005818 5.0053e-05
000020 40 fa 31 3b 98 7e ff 3d 40 2d 65 3b cc d7 6c bd
       0.0027157217 0.12475318 0.0034969598 -0.057822987
000030 24 bc 46 bd 18 48 70 bd 5c 0b 8a 3d 00 b4 5a 3a
       -0.04851927 -0.058662504 0.06740448 0.0008342862
000040 24 96 44 3d 80 28 76 bc 1c ef d0 3d d0 8e 86 bc
       0.047994748 -0.015024304 0.102018565 -0.01642552
000050 d4 c4 9d bd e4 d1 1d bd f4 38 3c 3d ac fa d8 3d
       -0.077035576 -0.038530245 0.045952752 0.10594687
000060 38 63 ae 3c e6 b5 c7 bd c0 ce 4b bb cc da 03 3d
       0.021287546 -0.09751491 -0.0031098574 0.032191083
000070 c0 b7 43 3b b8 46 d8 bc 10 a1 bc bc 50 a3 5b 3c
       0.0029864162 -0.026400909 -0.02302602 0.013405636
000080 c8 ec 93 bc 18 a1 2c 3d 50 a6 db 3c 34 4b 70 bd
       -0.018057242 0.04214582 0.026812702 -0.05866547
000090 d0 b1 f4 3c a8 d1 bc bd 6c 82 dc bd 18 d9 b0 3d
       0.029869944 -0.09219676 -0.107670635 0.08635157
0000a0 46 c7 f9 bd 60 ad 0e bd 08 a6 9c 3c c0 8d 4a bc
       -0.121962115 -0.034833312 0.019122139 -0.012362897
0000b0 96 40 a6 bd 58 65 83 3c 86 a7 a1 bd ca 46 9b bd
       -0.081177875 0.016039535 -0.07893281 -0.07581861
0000c0 08 bc 6e 3d 1e bb c0 3d ec 7f e0 3d 6a 89 84 bd
       0.05828479 0.0941069 0.10961899 -0.06471522
0000d0 f8 10 9f bd 00 fd ce ba f4 5e c0 bd 74 df d9 bd
       -0.077669084 -0.0015791953 -0.09393111 -0.106383234
0000e0 d0 35 d8 bd 18 e2 24 bd d4 20 87 3d a8 24 7f bd
       -0.10557139 -0.040254682 0.06598058 -0.062290817
0000f0 14 62 ae 3d a8 b0 96 3d b6 27 a0 3d 40 0c 01 bb
       0.08514801 0.07357913 0.07820074 -0.001969114
000100 92 95 c3 bd 00 46 84 3a c0 83 47 bc 54 8a cc 3d
       -0.09550013 0.0010091662 -0.012177408 0.099873215
000110 cc e7 c7 3d 8e 1a d9 3d 54 33 ba 3d 90 09 6c 3d
       0.097610086 0.10600768 0.09091821 0.057626307
000120 00 f3 32 bc 60 76 d3 3c 98 47 55 3d 50 f7 90 bc
       -0.0109221935 0.025813282 0.05207023 -0.017696053
000130 e2 1b f9 3d f8 d7 92 3c 1e 8d ec bd c8 a4 fd 3c
       0.12163521 0.017925248 -0.115503535 0.030962363
000140 ea a9 fd bd f4 87 56 bd 20 f9 2a bd 64 80 e0 bd
       -0.12385924 -0.05237575 -0.04174149 -0.109619886
000150 68 a3 3a bd 00 a5 03 bb 00 28 9a 3b 9c 6a 9a bd
       -0.045565993 -0.0020087361 0.0047044754 -0.075398654
000160 9c b7 93 3d 7a df 8e 3d 88 7f e4 3d 00 01 2e 3d
       0.07212755 0.069762185 0.11157137 0.042481422
000170 a0 a4 43 3d 60 c2 62 3d 70 f4 31 3d 80 c3 5d bb
       0.04776442 0.05536115 0.043446004 -0.003383845
000180 84 7f 79 3d 04 e9 d8 bd e8 4d 81 bd c0 e3 8c bc
       0.060912624 -0.10591319 -0.063136876 -0.017198443
000190 e0 d5 97 bd c8 3b aa bc 00 d5 af ba 08 c8 0e 3d
       -0.0741384 -0.020780459 -0.0013414919 0.034858733
0001a0 80 e9 38 bd ba 1c e4 3d 10 94 aa bc c4 99 05 bd
       -0.045144558 0.11138292 -0.020822555 -0.032617345
0001b0 c8 7c fc 3c 36 cb e7 bd 2e 05 a6 3d aa 33 94 bd
       0.03082122 -0.11318056 0.08106457 -0.07236417
0001c0 56 8e cc 3d 60 29 85 bc 14 58 1d bd 88 eb 88 3c
       0.09988086 -0.01625508 -0.038414076 0.016713873
0001d0 20 9b cd bb 80 29 c6 3d 80 ec 34 3d 38 e5 f5 3c
       -0.006274596 0.09675884 0.044170856 0.030016527
0001e0 92 37 8a bd fe 62 c5 bd 40 99 9f 3b e4 d4 de 3d
       -0.067488804 -0.09638022 0.0048705637 0.108804494
0001f0 de 8b e2 bd 34 a3 8f bd a0 2b a3 bd b6 cd e4 bd
       -0.11061834 -0.070135504 -0.07967305 -0.11172049
000200 08 c3 d8 bd a4 92 23 3d 14 4e 9c bd f0 8b 78 3c
       -0.10584074 0.03993477 -0.0763208 0.015170082
000210 38 ce 89 3c 90 10 23 bc 0e 93 d3 3d c0 b7 20 bd
       0.016821966 -0.009952679 0.10330783 -0.039237738
000220 cc 6b 5b 3d ba 4d b8 3d 20 30 1d bd b6 1e dc bd
       0.0535696 0.089992 -0.038375974 -0.10748045
000230 1a ca ac 3d e8 f3 69 bd 00 de c6 3c 1e c1 ba bd
       0.08436985 -0.057117373 0.02427578 -0.091188654
000240 6a 3a 8b 3d 88 74 2b 3d 0a 09 df 3d cc b8 9a 3d
       0.06798251 0.04185918 0.10890396 0.075547785
000250 b4 63 cf 3d a8 d1 f2 3c 96 9e 9e 3d cc 1c a2 3d
       0.10126439 0.029640988 0.077450916 0.07915649
000260 00 8e 68 bd f6 a1 83 3d fa f3 fe bd 18 10 db bc
       -0.056776047 0.06427376 -0.124488786 -0.026741073
000270 80 d8 6f bd 38 b3 d0 3c b8 77 b6 3d 04 f4 ce 3d
       -0.05855608 0.025476083 0.08909553 0.10105136
000280 84 50 58 3d 3c 63 0f 3d 26 d6 ea bd 08 11 da bc
       0.05281116 0.035006747 -0.11466627 -0.02661945
000290 a2 7f a0 bd 30 22 59 3c d0 17 a1 bd 3c 4c 85 bd
       -0.07836844 0.01325278 -0.0786587 -0.06508681
0002a0 18 26 97 bc 96 23 e4 3d 2e e1 ab bd c8 a5 90 bd
       -0.018450782 0.111396 -0.08392559 -0.0706287
0002b0 be b8 92 bd 22 ac b3 3d 46 0e d3 bd a8 10 48 bd
       -0.07164143 0.08773066 -0.10305457 -0.04884401
0002c0 62 fa a2 bd a8 87 36 bd 0c 57 c9 3d 00 16 c0 b9
       -0.07957913 -0.044562966 0.09831056 -0.00036637485
0002d0 28 4f 89 3d e0 a3 09 bd 0c 19 80 3d 68 8c 11 3d
       0.06704551 -0.03360355 0.06254777 0.035534292
0002e0 8c 7b 68 bd 98 9d 9e bc 84 d5 b9 3d 48 f8 b1 bd
       -0.05675845 -0.019362256 0.09073928 -0.08689934
0002f0 18 8a 02 bd 38 be ce 3c 1c 4b f0 3d 1a 3a c9 3d
       -0.031869978 0.025237188 0.11733076 0.09825535
000300 e2 d7 f4 3d f8 45 46 3d c4 7d 35 bd 36 2e c5 3d
       0.11955239 0.04840657 -0.044309393 0.09627955
000310 f2 d3 9b bd 50 9f d7 3c 30 a4 8b 3d 82 e2 cb bd
       -0.07608785 0.026321083 0.06818426 -0.09955312
000320 0e 77 8a 3d 3c af 9f 3d d8 0f b3 3c 00 11 71 ba
       0.06760989 0.07797095 0.02185814 -0.00091959536
000330 d8 76 5d bd e4 f5 ef bd 80 82 81 bd 7e 1d e9 bd
       -0.054068416 -0.11716822 -0.06323719 -0.11382578
000340 c4 9f c9 bd 90 44 8f bc 00 a3 4d bc 74 95 57 bd
       -0.09844926 -0.017488748 -0.012551069 -0.052632764
000350 68 50 de 3d 6c 2b 76 3d f2 9a ec bd 00 3b ff bc
       0.1085518 0.060100004 -0.11552991 -0.031156063
000360 20 c5 75 3c 0c 82 2c bd 48 5d 9a bc c0 97 6a 3b
       0.015000612 -0.04211621 -0.018843308 0.0035796016
000370 80 9b 88 3c a2 3c ee bd 74 1a a4 3d e4 f7 7c 3d
       0.01667571 -0.116326585 0.08012858 0.061759844
000380 50 00 5c bd ec 8f f9 3d 14 8b 1d bd 4a 38 b9 3d
       -0.053711236 0.12185654 -0.038462713 0.090439394
000390 78 e3 ba bd b0 fe 9c bc 1e d0 c1 bd a4 58 38 3d
       -0.091254175 -0.019164413 -0.09463523 0.04500641
0003a0 20 8c 77 bc 76 30 aa 3d 9c 6d 8a bd 82 bb af bd
       -0.015109092 0.083100244 -0.067591876 -0.08580686
0003b0 9a db a3 3d b8 c0 a9 bc f4 2d 3e bd 14 62 59 3d
       0.0800087 -0.020721778 -0.046430543 0.05307205
0003c0 90 43 0d bc ee 2d ed bd 18 29 ac bd 2a 48 e4 bd
       -0.008622065 -0.11581026 -0.084062755 -0.11146577
0003d0 c0 ce 26 3c 70 8e 7c 3d dc 13 5c 3d 62 60 a8 bd
       0.010181129 0.061659276 0.053729877 -0.082215086
0003e0 1c cb 06 bd 90 0d 4f 3c 76 e9 a3 bd d2 2e a2 bd
       -0.032908544 0.012637511 -0.080035135 -0.079190865
0003f0 c8 e7 99 bd f8 6c c8 bd 18 1a cd 3d 70 74 5f 3d
       -0.07514912 -0.09786409 0.100147426 0.054554403

fc.2.bias f4 [64]
000000 84 a5 58 3d 16 5d f3 3d 56 80 ee 3d 9a cf ef bd
       0.052892223 0.11882989 0.11645572 -0.11709519
000010 e8 f0 86 3d dc 5b 04 bd a2 f7 bf bd 80 52 bd 3c
       0.06588918 -0.032314166 -0.09373404 0.023110628
000020 70 81 3a bc 2c e2 b1 bd e0 f9 67 3d 16 53 eb bd
       -0.011383399 -0.08685717 0.056634784 -0.11490457
000030 f4 29 c5 bd 08 74 98 3d 58 a5 a8 bc ee 7c 85 bd
       -0.096271425 0.07444006 -0.020586655 -0.06517969
000040 c4 44 6d bd 6a 89 d6 3d 00 c0 a3 b9 20 5e d4 3d
       -0.057926908 0.104754284 -0.00031232834 0.103695154
000050 18 63 13 3d 70 cf 5d bd a0 f7 ab bb fc e4 10 3d
       0.035983175 -0.054152906 -0.005248025 0.035374627
000060 40 41 cb bb 08 fa 90 3d 20 dc 30 bd b0 7c dc 3c
       -0.0062028468 0.0707894 -0.043178678 0.026914924
000070 08 b1 f9 3c 64 9f ee 3d 08 8e 91 bd 6c ed 34 3d
       0.030479923 0.11651495 -0.071071684 0.044171736
000080 b8 5b 83 bc 62 ea cc 3d 40 3c 29 3d 48 c1 4a 3d
       -0.016034946 0.100056425 0.041317225 0.049500734
000090 64 fb 59 3d 78 18 14 3d c0 6e 0f bc f4 c4 9b 3d
       0.05321826 0.036156148 -0.008754432 0.07605925
0000a0 06 4f ca bd 24 35 40 3d a0 f1 be bc 98 ee 1c bd
       -0.09878354 0.04692568 -0.023308575 -0.03831348
0000b0 c0 bf 0a 3d 12 c1 d7 bd a0 16 78 3d a2 94 a4 3d
       0.033874273 -0.10534872 0.060568452 0.08036162
0000c0 b8 1b c1 3d 84 38 32 bd 90 ed c0 bd 40 b3 21 3b
       0.09429115 -0.04351093 -0.094203115 0.0024673492
0000d0 6c fb e6 bd e0 5d cf bb 78 ff e4 bc cc 0c b7 3d
       -0.11278424 -0.0063283294 -0.027953848 0.08937988
0000e0 e4 e3 54 bd f0 a9 3d 3d 08 f1 2c 3d 98 65 a7 3d
       -0.051975146 0.046304643 0.042222053 0.08173674
0000f0 e0 cf 51 bd 58 34 c2 bd 80 6e e4 3a 36 63 fc bd
       -0.051223636 -0.0948264 0.0017427951 -0.123236105

fc.4.weight f4 [6, 64]
000000 84 85 f2 bd 94 5e df bd dc 61 19 3d 18 56 de 3c
       -0.11841872 -0.10906711 0.03744684 0.027140662
000010 c0 3d d3 bc 76 17 fd 3d 46 f2 86 3d 80 5c 9d 3d
       -0.02578628 0.123579904 0.06589179 0.076836586
000020 40 1d b9 3d b4 4e d5 3d 7c a9 b8 3d 04 c9 53 bd
       0.09038782 0.10415402 0.090167016 -0.051705375
000030 8e 0a bb bd 48 c3 d3 3d 2a 53 ec 3d 84 e2 13 3d
       -0.091328725 0.10339981 0.115393 0.036104694
000040 b2 56 9c bd ee 30 90 bd d8 77 59 bd f4 a5 a9 3d
       -0.07633723 -0.070405826 -0.053092808 0.08283606
000050 a4 f0 8d bd 50 99 92 3d 3c 51 17 bd 7e d6 ea 3d
       -0.06930664 0.07158148 -0.036942706 0.114666924
000060 24 3b 79 bd e4 fc 96 3d 30 6c 01 3d fc 9c 8e bd
       -0.060847417 0.07372454 0.031597316 -0.06963536
000070 70 c1 8c 3d fc 5b fa 3d fa cf c1 3d 10 ac fd 3c
       0.06872833 0.12224576 0.094634965 0.030965835
000080 d0 63 da 3d e0 0a 41 bd 38 7b d2 3c bc 8b d4 3d
       0.10663569 -0.04712951 0.02569352 0.10378215
000090 b4 20 cf bd 90 69 f3 3c 86 47 b2 3d 4e c6 b1 3d
       -0.101136595 0.029713422 0.08705048 0.08680402
0000a0 4a a8 a1 3d 40 17 31 3b cc 93 21 3d e4 33 d8 3d
       0.07893427 0.0027021915 0.03944759 0.10556772
0000b0 22 6c 8a 3d 30 06 22 3d 00 f6 0c bc a8 b8 24 3d
       0.06758906 0.039556682 -0.008603573 0.040215164
0000c0 50 5d 63 bd 54 36 b8 3d 78 9c 0e bd ba f5 c1 3d
       -0.05550891 0.08994737 -0.03481719 0.09470697
0000d0 f4 86 b2 3d 1c c2 b1 bd 7c 33 6c bd 08 a6 b5 3c
       0.087171465 -0.086796016 -0.057666287 0.022173896
0000e0 40 a1 db bb ee f2 dc bd 10 56 b8 bd 72 05 81 3d
       -0.006702572 -0.10788523 -0.0900079 0.06299867
0000f0 78 41 cb bc 50 4f 3b bc 78 d8 84 3d 48 21 fc bc
       -0.024811491 -0.011432484 0.06486601 -0.030777588
000100 9a 92 8a bd 38 75 bb bc 98 0c 4b 3d 1c 7e be bd
       -0.06766243 -0.022883043 0.049572557 -0.09301397
000110 24 63 ce bd e4 ae 45 3d de 98 e4 3d f6 f5 bb bd
       -0.10077503 0.04826249 0.111619696 -0.09177773
000120 78 2d 88 3d 90 fb fa 3c 00 f8 81 3b 2a ac f2 3d
       0.066492975 0.030637532 0.0039663315 0.11849244
000130 80 17 22 3c de 15 90 3d 00 5c c4 b9 44 f5 0e 3d
       0.009893298 0.07035421 -0.00037452579 0.034901872
000140 80 d0 c7 bd 08 e4 ec bc e8 3d 88 bc 28 2c 68 3d
       -0.09756565 -0.028917328 -0.016631082 0.056682736
000150 10 4a d2 3c 28 93 ca 3d 50 f1 f8 3c 44 50 c1 3d
       0.025670081 0.09891349 0.030388504 0.094391376
000160 28 60 c1 bd f8 a9 1f bd 74 f7 53 3d fc b3 5d bd
       -0.094421685 -0.038980454 0.05174966 -0.054126725
000170 50 1a 88 bd 2c 32 bb 3d bc 67 56 bd 68 46 f3 bd
       -0.06645644 0.09140429 -0.052345023 -0.11878663
000180 d8 f1 72 3d 48 f9 c4 bd a8 9a f0 bc 5c d8 70 bd
       0.05931267 -0.09617859 -0.02937062 -0.058800086
000190 8c ac 0b 3d 28 c8 df 3c a8 d7 15 bd a8 59 62 bd
       0.0341001 0.027317122 -0.03658262 -0.055261284
0001a0 ae 38 a7 bd c0 0c ac bb c8 19 16 bd c0 bc 21 bc
       -0.08165108 -0.0052505434 -0.03664568 -0.009871662
0001b0 60 f1 ea bd ac 8e a8 3d 30 de dd bd c8 c2 0c 3d
       -0.1147182 0.082303375 -0.108333945 0.034365445
0001c0 b8 54 fb bc 08 72 55 3d a0 7f a6 bd 34 7c e9 3d
       -0.030680045 0.0521107 -0.08129811 0.11400643
0001d0 be 89 c1 3d d8 b5 3c bd 50 a2 fd 3d 6c fe 7d bd
       0.094501 -0.046071857 0.12384474 -0.062010214
0001e0 86 df c1 3d 34 7a c4 3d e8 3f bb 3c 50 ea 8f 3d
       0.09466462 0.09593621 0.022857621 0.070271134
0001f0 be 79 ba bd 80 b6 61 bc c6 5d ae 3d c4 73 ac bd
       -0.09105252 -0.013776422 0.085139796 -0.08420518
000200 50 a2 5e 3d f0 c4 9b 3c 94 81 c3 bd 7c f1 50 bd
       0.054354012 0.019014806 -0.095461994 -0.051011547
000210 f6 e1 b9 3d 40 10 03 3b 66 3a e0 3d ea fc 99 3d
       0.09076302 0.00199987 0.109486386 0.07518943
000220 78 a5 5a 3d 62 99 c0 bd c2 e1 d1 3d 30 83 0f bc
       0.05338046 -0.094042554 0.10248138 -0.008759305
000230 30 eb 04 bc 60 7f 34 bd 90 83 cf bc 64 3c 28 3d
       -0.008112714 -0.044066787 -0.025331289 0.041073218
000240 b6 bc aa 3d 90 66 4d bc 36 68 b3 bd 38 e2 0a bd
       0.08336775 -0.01253666 -0.08760111 -0.033907145
000250 50 83 9d 3c 82 29 dc 3d 84 ee cf bd 00 03 20 3a
       0.019227654 0.107501045 -0.10152915 0.00061039627
000260 28 c9 cf 3d 80 88 c8 3c 90 5c e2 bd 9c b6 bc bd
       0.101457894 0.02447915 -0.11052811 -0.092145175
000270 ca 3b da 3d 40 20 7c bb 48 3c 68 3d 78 08 3f 3d
       0.10655935 -0.003847137 0.056698114 0.046638936
000280 28 0d ee 3d e4 fb 9b bd 64 c1 cd bd 70 92 61 bc
       0.11623603 -0.07616404 -0.10046652 -0.013767824
000290 a6 e9 ae 3d c2 f3 ac 3d 30 55 ef bc 34 cf c9 bd
       0.08540659 0.084449306 -0.029215425 -0.09853974
0002a0 52 96 9b bd 00 ee e0 3a 38 c4 f1 3d 80 f4 8f bb
       -0.07597031 0.0017160773 0.11805004 -0.0043931603
0002b0 54 fa a1 3d 18 8f 75 3d c0 e8 41 bc 52 1c e0 3d
       0.079090744 0.059950918 -0.011835277 0.10942902
0002c0 34 f5 91 3d 30 7b 62 3c a8 ea 56 bd 9a 45 ca 3d
       0.07126847 0.0138233155 -0.05246988 0.09876557
0002d0 bc d5 90 bd 18 c2 5f bd 0e 06 bd bd 00 5d 45 3b
       -0.070720166 -0.05462846 -0.092296705 0.0030115247
0002e0 b8 bc f5 bc b2 11 84 3d 00 ff 3f ba d0 56 ce bc
       -0.029997215 0.064486876 -0.000732407 -0.02518788
0002f0 10 6b 63 3d 3a 40 ea bd 16 2a db bd 0c 9b 83 3d
       0.055522025 -0.114380315 -0.10701387 0.06426057
000300 48 af 9b 3c 20 fe 95 3d 80 f6 0d 3c 58 fc da bd
       0.019004479 0.07323861 0.008664727 -0.10692662
000310 32 8c b6 3d 40 21 cc bd 70 71 02 3d 90 4e 72 bd
       0.08913459 -0.099672794 0.031846464 -0.059156954
000320 00 16 1e 3b e2 43 96 bd 06 7a 94 3d 60 02 62 3d
       0.0024122 -0.07337166 0.072498366 0.055178046
000330 80 02 85 bd 9c e1 54 3d 04 9f 99 bd 82 ad dc bd
       -0.064946175 0.05197297 -0.07501033 -0.107752815
000340 96 f7 b9 bd 2e c6 af 3d c2 6f ac bd c0 75 de 3c
       -0.090804264 0.08582722 -0.084197536 0.027155757
000350 c8 c1 b2 3c f4 26 2b bd 70 8d 2d 3c 08 4e 26 3d
       0.021820918 -0.041785195 0.010592803 0.04060176
000360 98 62 76 bd 70 85 0c bd 3c 73 30 bd ca 81 c5 3d
       -0.06015262 -0.034306943 -0.043078646 0.09643896
000370 28 b4 7d 3d b0 17 99 3c 40 82 5e bb a8 14 42 bd
       0.06193939 0.018688053 -0.0033952147 -0.04738298
000380 90 c5 e2 bc 80 9d 48 3d 50 ad 0e 3c 18 78 0e 3d
       -0.027682096 0.04897833 0.008708313 0.0347825
000390 54 6a 89 bd 40 3c 3e 3b 40 40 0b 3b 88 86 fa 3c
       -0.067097336 0.002902761 0.0021248013 0.030581728
0003a0 a2 40 d9 3d 9e e7 80 bd 5c 82 64 3d 32 ab ce 3d
       0.10608031 -0.062941775 0.055788383 0.10091247
0003b0 c2 61 8c 3d de a0 91 3d 10 19 ad 3d 32 29 97 3d
       0.06854583 0.07110761 0.08452046 0.07380904
0003c0 e8 1f cd bd e4 94 2b bd c0 fa 01 3c 0a 07 ab 3d
       -0.10015851 -0.04189004 0.007933319 0.08350952
0003d0 be 42 e2 3d 64 39 51 3d 2c 85 c5 3d 10 40 2a 3d
       0.11047886 0.051080123 0.09644541 0.041565
0003e0 82 ea 97 3d 1a 3b b9 3d a0 19 5f 3d 38 79 be 3d
       0.07417776 0.09044476 0.054467797 0.093004644
0003f0 dc c9 76 3d 80 1d a1 bd 9c 93 97 bd 20 6b 6a 3c
       0.0602511 -0.07866955 -0.07401201 0.014307767

fc.4.bias f4 [6]
000000 0c 32 89 bd 16 b2 9e bd 76 55 92 3d 08 13 91 bd
       -0.06698999 -0.07748811 0.07145207 -0.07083708
000010 b0 6c b9 3d 00 b4 d9 3a
       0.090539336 0.001660943
