dqn_checkpoint_1obstacle.pth (torch, 43074 bytes, 12 tensors)

fc.0.weight f4 [64, 3]
00000000: a039 dd3e 8ea2 acbe 5310 debe 2893 38be
00000010: 2860 e43d f61d d63e 8427 05bf a6fa 0f3f
00000020: 38ac ee3e ccf6 e1be b7e2 00bf 68d3 cf3e
00000030: 7a04 c63e 0a9b 62be a740 edbe a0fa 853e
00000040: 1c3a 763e 2065 37bd 866c cd3e 0858 c0bd
00000050: f8b8 cebd 105b d83e 78b2 92bd 0246 e8be
00000060: 7202 043f 9828 043e 28ca ddbe da0e cdbe
00000070: 39b7 eabe c0db f8bc 14c6 6d3e 90b0 a23e
00000080: 0c64 cfbe 58c0 d93d f202 ad3e f432 c1be
00000090: f4bf 043e c0a4 813d f891 0e3e e6dc 40be
000000a0: bcd0 193e 500f 3b3d ec06 153e 6547 9bbe
000000b0: d859 c23d 1aa1 0d3f 4066 d3bc d0a8 113e
000000c0: 28fa 08bf 2864 67be d868 f53e 3caf 24be
000000d0: c029 d8bc 64b7 5c3e 48f8 ae3d 5ecc b3be
000000e0: 5a8e 46be 84f7 f53e dad0 26be 1069 b53e
000000f0: 7208 07bf 6269 bfbe 8e7f 40be 3014 1abe
00000100: 3026 08bf 70a9 443e 4299 b2be 464d a3be
00000110: 2078 813d 4011 373e d61b 883e 4a4c 033f
00000120: 307a c63d 00a2 60be 5391 b7be 6ab4 12bf
00000130: ef9a 94be a0a4 593e 4c2f a03e 887f 82bd
00000140: f896 b23e c42e 7d3e 9490 b73e 7027 403e
00000150: e383 b0be 5e0a c2be ca4d b3be 2214 75be
00000160: c0f6 d6bd 2731 b8be 6632 a93e c25f 0ebf
00000170: d8c0 e03e be07 7bbe 6c80 693e 5a31 873e
00000180: 2c7e 603e fa38 063f 98a6 033f 885e bd3e
00000190: b6e1 d2be 9af4 32be 1c72 0d3e 00d4 a8ba
000001a0: 3ac4 0cbf 2016 f1bd 6047 c8be 7095 7b3d
000001b0: 53fd 85be 6cad cb3e c01f e23e b6ab 6abe
000001c0: 1047 6c3d 88f3 ef3e 42c7 2fbe c1e0 8dbe
000001d0: a6bb 0cbf 96f6 8b3e 10d7 b33d 1877 8cbd
000001e0: d817 dbbd 401d b8be 84ab efbd be7b d7be
000001f0: c6ab 8fbe dc6d 4c3e 6a20 03bf c4b5 71be
00000200: 8c17 90be c088 db3c 838e 85be fc90 583e
00000210: d002 8fbd 26a9 83be 9a2b 08bf 6860 c2bd
00000220: 9439 fa3e 7092 1fbd c0c0 5d3d 325c 7ebe
00000230: 07a9 a5be 3c16 103e 14e4 643e c8ba e1be
00000240: a0e9 023d b46d 55be bd20 a6be 80a9 8cbb
00000250: ccfd 15be f548 b6be 64fd b3bd 649d 26be
00000260: 1079 ee3e 795a 8cbe e84d bbbe 0014 3e3d
00000270: eb46 0bbf 542a e8be 8c08 9b3e 206a d83d
00000280: e41e 613e e6f2 0c3f f0fc abbe 5437 cf3e
00000290: 3929 c6be 98cc ddbd 545e 583e 2c5a 463e
000002a0: e2a1 ad3e 83b4 0bbf 94f3 ccbe 4ede b9be
000002b0: 6824 5c3e 2ed8 d2be 60fd 98bc 4073 fdbc
000002c0: 92ac 92be 0aa0 50be 9e87 c03e 50be 8bbd
000002d0: 60b3 4e3e a4e6 c6be b2b2 6cbe e24e 62be
000002e0: 4a24 8f3e f8d6 d63d b4cb cebd 00e3 3f3b
000002f0: ae7d cb3e a4a4 d23e a0ac bfbc 78dc b83d
0.43208027 -0.3371777 -0.4337183 -0.18024886 0.11151153 0.41819733 -0.5201342 0.56241834
0.46615767 -0.44133604 -0.5034594 0.40590978 0.3867529 -0.22129455 -0.46338388 0.26167774
0.24045604 -0.044774175 0.4012186 -0.09391791 -0.10093874 0.42256975 -0.071629465 -0.45365912
0.5156623 0.1290611 -0.43318295 -0.40050393 -0.45842913 -0.030378222 0.23220092 0.31775331
-0.40506017 0.1063239 0.3379131 -0.37734187 0.1296385 0.06330252 0.1392287 -0.18834266
0.15021032 0.0456689 0.14553422 -0.30327907 0.094897926 0.55323946 -0.025805593 0.14224553
-0.5350671 -0.225968 0.47931552 -0.16082472 -0.026387095 0.21554333 0.0854345 -0.35116857
-0.1939024 0.48040402 -0.16290608 0.3543172 -0.5274726 -0.37385088 -0.18798658 -0.15046763
-0.5318327 0.1920526 -0.3488255 -0.31894892 0.0632174 0.17877674 0.26583737 0.5128828
0.09691274 -0.21936798 -0.3585306 -0.5730654 -0.29024455 0.21254206 0.31286085 -0.06371981
0.34880805 0.24724871 0.35852492 0.18765044 -0.34475622 -0.37898535 -0.35020286 -0.23933461
-0.104962826 -0.35975 0.33046263 -0.55614865 0.43897128 -0.24514672 0.22802895 0.2640484
0.21923131 0.5243069 0.51426077 0.36986184 -0.4118783 -0.1747612 0.1381306 -0.0012880564
-0.5498692 -0.11771798 -0.39116955 0.06142181 -0.26169834 0.39780748 0.44164848 -0.22917065
0.057684958 0.46865487 -0.17165855 -0.27710536 -0.5497383 0.27336568 0.08781254 -0.06858653
-0.10697907 -0.35959816 -0.11702636 -0.42086595 -0.2806074 0.19963783 -0.51221335 -0.23604494
-0.28142965 0.026798606 -0.2608529 0.21149057 -0.06982958 -0.25714988 -0.5319153 -0.09491044
0.48872054 -0.038958013 0.0541389 -0.24839857 -0.3235552 0.14070982 0.2235263 -0.44087815
0.031961083 -0.2084263 -0.32446852 -0.004292667 -0.14647597 -0.35602537 -0.08788565 -0.16270977
0.46576738 -0.27412775 -0.36582875 0.046405792 -0.5440509 -0.45344794 0.30279958 0.10567117
0.2198444 0.55058134 -0.33591413 0.404719 -0.38703325 -0.10830039 0.21129733 0.19370335
0.3391257 -0.54572314 -0.40029585 -0.36302418 0.21498263 -0.41180557 -0.018675506 -0.030938745
-0.28647286 -0.2037355 0.37603468 -0.068234086 0.20185614 -0.3884784 -0.23115042 -0.22100404
0.27957374 0.10490221 -0.10097447 0.002927959 0.39744323 0.41141236 -0.023397744 0.09026426

fc.0.bias f4 [64]
00000000: 7ebd 033f a962 eabe d8c8 87be 0a88 00bf
00000010: a07c c03e 60f0 5b3d 60fe 87bc 7e39 fbbe
00000020: 8ebd b13e e40f 9b3e e071 2fbd c8c5 043f
00000030: 3051 1c3d f197 11bf ba13 b1be b484 dbbe
00000040: 304f e33e a879 003f 783d ee3e 5c44 33be
00000050: 282a c83e 48a3 f43e 90d7 243d ce59 0abe
00000060: 12fd 813e 56f5 00bf ac51 1a3e 0647 063f
00000070: 406b a0be 80ab a03c 6077 d33e a8d8 f43d
00000080: f8a7 d4be 5ba5 e1be d6ae 0bbe bc1f fc3e
00000090: d8fb eb3e 6279 c33e 802c bfbe e6e7 063f
000000a0: 8426 61be c03a 94bc 10a8 9f3d b048 253d
000000b0: b6f7 12bf 3c96 5fbe 4ba5 99be fc46 b03e
000000c0: 8062 283d 70c5 bf3e 909a a23e 420a bcbe
000000d0: 85ef 80be 0818 94be 1b37 f7be d8c2 4d3e
000000e0: 0023 ca3d b8fb ad3d 442d 833e d860 183e
000000f0: 0833 663e 1a0d d03e 4801 bd3e 54d2 243e
0.5146102 -0.45778397 -0.2652042 -0.5020758 0.3759508 0.053696036 -0.016600788 -0.490673
0.3471493 0.3028556 -0.04283321 0.5186429 0.038163364 -0.5687247 -0.34585363 -0.42874682
0.44396353 0.5018563 0.46531272 -0.17506546 0.39094663 0.47780824 0.04024464 -0.1351082
0.2538839 -0.5037435 0.15070218 0.52452123 -0.31331825 0.019613028 0.41302013 0.119553864
-0.415344 -0.4407147 -0.13640913 0.4924296 0.4609058 0.38178545 -0.37338638 0.526976
-0.21987349 -0.01809442 0.07795727 0.040352523 -0.57409227 -0.21834654 -0.3000892 0.34429157
0.041109562 0.3745532 0.31758547 -0.36726576 -0.2518274 -0.28924584 -0.4828423 0.20093858
0.09869957 0.08495277 0.25620472 0.14880693 0.22480404 0.40634996 0.3691504 0.16095859

fc.2.weight f4 [64, 64]
00000000: a2b9 a03d 5839 e73d 8e9c d03d 041b cebd
00000010: 605b 3d3d ccfe 6ebd 906f 533d 749e 233d
00000020: 78f6 fb3c 5c35 63bd e042 2fbc 46f0 99bd
00000030: 8037 72bb 0008 33bb ea3f eb3d b068 513c
00000040: 90ea 2bbd 181e ce3d 90f0 c63d 2ac6 89bd
00000050: 0eb3 f43d c895 963d a661 8c3d 003b 863d
00000060: fc3e de3d e8fe 8fbc 008c 033d f622 ebbd
00000070: b0be eebd f03d b8bc 9633 a93d 722a 873d
00000080: 00e5 503d 9041 6cbd 86a3 a9bd 20f1 76bd
00000090: 14a1 ecbd 9052 55bc a0e9 ca3d 3275 963d
000000a0: 9415 b03d dce1 c0bd 802e b7bb 344c 01bd
000000b0: 7010 4fbc f066 47bc 982d 9fbc 3c6d a4bd
000000c0: 7cdc a03d e0d3 e93b 8cdf 503d 5ca7 a6bd
000000d0: 7c18 4abd 7886 7d3d 24ef cabd 24a1 c2bd
000000e0: 0ee4 e83d 50cf c33d c0d0 51bb e89d 51bd
000000f0: a0f8 523c 6adf 83bd 4081 e53b c058 babb
00000100: 2a09 8c3d 58a2 413d b812 953d a09a e5bc
00000110: 6030 c2bb 14f5 d4bd ee80 8e3d 9055 153c
00000120: 58d4 87bd 78f1 9c3d 0e5f eabd c61e f1bd
00000130: 140e 423d 4e1a 8bbd 7c87 76bd a8bb 37bd
00000140: c089 21bc 06f6 d43d c4f2 3cbd 7008 633c
00000150: 0061 7fbd 8054 dbbd 589e 8ebc e85e 92bc
00000160: b0fb f13d 80b1 213d fcc5 423d 9c48 2b3d
00000170: 0089 e4bb 3895 a43c 80c5 553d dc1b 9a3d
00000180: a044 e63d b235 e03d 166a ef3d cc44 ab3d
00000190: 4084 683d a827 c8bc a0f4 c73d 009c ea3b
000001a0: d83f dd3c 3003 623d 4022 55bc 5468 62bd
000001b0: 041c 5a3d e6d1 8e3d c8d2 6a3d fa88 a3bd
000001c0: 88b5 6a3d 1027 ef3c 7c4d c03d a298 d03d
000001d0: 707e 69bc 38e4 fdbc 40a9 d2bc de44 a7bd
000001e0: 722e a73d 7e3a 99bd 904f c13c c051 b6bd
000001f0: b4b0 493d d282 dcbd 2856 82bd 2601 e83d
00000200: 06ea a83d 60e8 34bd 28b0 d83d c4a8 e73d
00000210: e420 d9bd 3aa3 a5bd ee8e d63d de77 ecbd
00000220: 4c31 ec3d 1877 533d 309c c93c a007 b83c
00000230: 0ace fb3d 40a2 50bb 4afd 9bbd 0a54 ca3d
00000240: 703e ef3c 10eb 53bd 1a47 d4bd 2076 2b3d
00000250: 3490 d6bd 7475 6f3d 48b3 b1bd a89a 1f3d
00000260: 3885 ebbd 0c31 303d 54d4 a73d be0d 8f3d
00000270: 2630 90bd 6c72 aebd 9aa3 8abd 8c9d 61bd
00000280: e0ec d7bc 802b a3bd b6db d3bd 16bb a3bd
00000290: f800 7d3d 20b8 d33b 8061 923d 9024 213c
000002a0: 28ca ecbd e8e5 95bc 50b5 9c3d 18b5 5bbd
000002b0: 862f d9bd 80da ab3d 880b d9bc 14ba 46bd
000002c0: d2a2 8c3d c4bb 3f3d dc4f 093d ea07 a4bd
000002d0: a44a 2c3d ce08 cebd 1474 5d3d e4ca 8f3d
000002e0: f202 923d b084 04bd 981a 80bd f0fc 043d
000002f0: f078 0abd 9855 85bd 78ed 1f3d fa86 f1bd
00000300: 7e0a ddbd 04ff be3d 4059 1bbd 787c 3e3d
00000310: 4062 e0bc a815 7b3d 8c08 db3d 3069 c03d
00000320: 602a e03b 1cb5 ef3d b093 7dbd e014 aabd
00000330: d4db 03bd 5cac 3ebd 1c6d 43bd a80e f33c
00000340: c85d b73d 645c 153d 08b9 133d d80b 113d
00000350: 9267 c83d 0654 8fbd 781d bfbc 6030 953b
00000360: c068 d13c 9c31 9ebd a8c4 f9bd f887 e5bc
00000370: f80c 123d 5805 a7bc 2a75 9d3d 0c9c e9bd
00000380: 2e09 c83d 78aa 843d 3ac0 a23d be66 eb3d
00000390: ba6b adbd c86d 77bd e830 843c 925e d43d
000003a0: 0c39 de3d 402a 06bb 3018 c9bd 00cd 94bc
000003b0: 7691 84bd 0492 993d d8b5 813d d03b 883c
000003c0: 7057 51bd ac29 c1bd 20f6 663c c6c0 f0bd
000003d0: 703e 94bc 322e c2bd 5ecb b43d 4018 e7bb
000003e0: ecb4 38bd 6810 86bd d007 0d3d c89f 82bd
000003f0: 44bb 99bd f8c6 cbbc f819 14bd c642 fbbd
0.07847907 0.11290234 0.101861104 -0.100637466 0.04622972 -0.058348462 0.051620066 0.039946035
0.030757174 -0.05547081 -0.010697097 -0.07516532 -0.003695935 -0.0027318 0.114868 0.012781307
-0.041971743 0.10064334 0.097138524 -0.0672725 0.119482145 0.07352787 0.068545625 0.06554222
0.10851857 -0.017577603 0.032115936 -0.11481278 -0.116574645 -0.022490472 0.08261792 0.06599893
0.05099964 -0.057679713 -0.08283143 -0.06028855 -0.11554161 -0.013020173 0.09907842 0.07346572
0.08597866 -0.09418079 -0.00559026 -0.031566814 -0.012638196 -0.012170538 -0.01943092 -0.08028647
0.07854554 0.007135853 0.05099444 -0.0813739 -0.049339756 0.061895818 -0.09908894 -0.095033914
0.11371623 0.09561026 -0.0032015294 -0.05117598 0.01287666 -0.06439097 0.007003933 -0.0056868494
0.068376854 0.047273964 0.07278961 -0.028027833 -0.005926177 -0.103983074 0.06958185 0.009114638
-0.06632298 0.07663244 -0.114439115 -0.11773448 0.047376707 -0.067921266 -0.0601878 -0.044856697
-0.009859502 0.10398488 -0.046129957 0.013856992 -0.062348366 -0.107094765 -0.017409489 -0.01786752
0.11815584 0.039475918 0.047552094 0.041817293 -0.0069743395 0.020090684 0.052190304 0.07524845
0.11243558 0.109477416 0.11690156 0.08362731 0.05676675 -0.024432972 0.097634554 0.00715971
0.027007982 0.05517882 -0.013008654 -0.055275276 0.053249374 0.06973629 0.057329923 -0.079851106
0.057302028 0.029193431 0.09389779 0.101853624 -0.014251336 -0.030992612 -0.02571547 -0.08167432
0.081631556 -0.074818596 0.023597509 -0.08902311 0.049240783 -0.107671395 -0.06364089 0.11328344
0.082477614 -0.044166923 0.10580474 0.11311486 -0.106019765 -0.080877736 0.104764804 -0.115463
0.1153284 0.05162725 0.024610609 0.022464573 0.12295158 -0.003183499 -0.076166704 0.098793104
0.029204577 -0.051737845 -0.10365124 0.0418607 -0.10476723 0.05846162 -0.08676773 0.03896585
-0.11500019 0.043015525 0.08194795 0.06985043 -0.070404336 -0.08517918 -0.06769486 -0.05508189
-0.026358068 -0.07967281 -0.10344641 -0.07994668 0.061768502 0.0064611584 0.07147503 0.009835377
-0.11561996 -0.018298104 0.0765177 -0.0536395 -0.106047675 0.08391285 -0.026494756 -0.0485173
0.06866993 0.046809927 0.033523425 -0.08009322 0.04206337 -0.10060273 0.05406578 0.0702112
0.07129468 -0.032353103 -0.06255072 0.032467782 -0.03380674 -0.06510466 0.039044827 -0.11793323
-0.10793017 0.09325984 -0.037926912 0.04650542 -0.0273906 0.06129995 0.106949896 0.09395063
0.006840989 0.11704466 -0.061908424 -0.08304763 -0.032192066 -0.046551093 -0.047711477 0.029670075
0.08953434 0.036465064 0.03606513 0.035411686 0.097853795 -0.06998448 -0.023329481 0.004552886
0.025562644 -0.07724306 -0.12195712 -0.028018937 0.0356569 -0.02038829 0.07688363 -0.11406717
0.09767376 0.06477827 0.079468206 0.11494206 -0.08467813 -0.06040743 0.016136602 0.103696
0.108507246 -0.002047196 -0.098190665 -0.018164158 -0.06473057 0.074985534 0.06333512 0.016630083
-0.051108778 -0.094317764 0.014096767 -0.117555186 -0.018096179 -0.09481467 0.08827852 -0.0070524514
-0.045094416 -0.06546098 0.03443128 -0.06378132 -0.07506421 -0.02487515 -0.03615758 -0.122685954

fc.2.bias f4 [64]
00000000: d07a 86bc 4064 043d bc72 acbd a07d a7bb
00000010: a81c b83d 5811 d83d 741f 4abd 80b2 77bc
00000020: ec65 29bd ecdf b5bd be9a 99bd 0cdb 41bd
00000030: 8466 573d 4004 ebbb 4ca8 6f3d a4cb edbd
00000040: 0017 b4bc 9c2f 863d baf4 96bd 98f4 b2bc
00000050: 90f4 3a3c ceff be3d 568f 99bd c874 cb3c
00000060: 701f 2ebd 10dc 5f3c 0c5a d8bd 1c71 d2bd
00000070: a04d 68bc 027a ddbd 4ab9 c13d 4461 56bd
00000080: c077 d3bd 0896 abbc 883a 0bbd bebf bb3d
00000090: c066 713d 4050 2d3d 3872 94bc 3844 c53d
000000a0: de44 a6bd 18ad a9bd c0b0 683d 68a1 aabc
000000b0: 9873 703d 9014 27bd b48d c23d a86c ea3c
000000c0: 54cd 9e3d 84f5 e8bd b0ff 0cbd 96da fc3d
000000d0: 6457 773d 8493 d23d 6c8c 0d3d b081 adbc
000000e0: 10e9 5ebd a00d d0bc 24c8 093d a0b8 b73c
000000f0: 5643 aa3d 6c95 ca3d 7075 c3bd 1685 92bd
-0.016415983 0.03232217 -0.08420321 -0.005111411 0.08989841 0.10550183 -0.049346402 -0.015118241
-0.041356966 -0.088806 -0.07500218 -0.04732804 0.052588 -0.0071721375 0.05851011 -0.11611107
-0.021983624 0.065520495 -0.07370897 -0.021845147 0.011410847 0.093261346 -0.07498042 0.02483596
-0.04251045 0.013663307 -0.1056405 -0.1027548 -0.0141786635 -0.10814287 0.09459169 -0.052338853
-0.10325575 -0.020945564 -0.033991367 0.09167431 0.05893588 0.04231286 -0.01812087 0.09632152
-0.08118604 -0.08284968 0.056809187 -0.020828918 0.05870399 -0.040791094 0.09499684 0.028616264
0.07754007 -0.113749534 -0.03442353 0.123463795 0.060386077 0.102820426 0.034557745 -0.021180004
-0.054421484 -0.025397122 0.033638135 0.022426903 0.083136246 0.09891781 -0.09543884 -0.071542904

fc.4.weight f4 [6, 64]
00000000: 901c 46bc 62d5 de3d 9ad6 ee3d 1858 80bc
00000010: 32df aa3d 4074 dc3d c4f7 b83d 8064 ad3c
00000020: 6058 cdbc 8082 36bb 3690 8a3d fc4a 9d3d
00000030: 88c5 873d 0ea5 edbd b8ff 57bd 98a8 833d
00000040: 24f8 40bd e867 80bc a87c b4bd f0f6 afbc
00000050: c4ac a53d 56d9 d63d c0a3 3b3d b065 d9bd
00000060: f8b1 a03c f2e4 ba3d 1006 093c 8430 5cbd
00000070: d64d ba3d b0f1 6ebc c423 d1bd 70f8 e13d
00000080: 60c3 df3d a83f 14bd 1cad 50bd b2e1 a63d
00000090: 0e19 bf3d 98cc fdbc 28e0 dc3d 78a2 8dbc
000000a0: 50ec dd3c dc11 65bd 203f 9b3c c06e a2bb
000000b0: 4479 943d 8043 ad3c 3a50 e13d fc61 823d
000000c0: 0420 e8bd bcb2 edbd 0005 813b 6020 f1bb
000000d0: c081 cbbb c8bd bebd 0054 43bc da42 803d
000000e0: 547b 8f3d e4d8 6bbd b2f2 a03d b44a 763d
000000f0: 5c6b 1bbd 9cdd 90bd 205e 95bc 5003 793d
00000100: ca59 df3d 086f 863c 1af2 c4bd bcac b73d
00000110: 0816 ffbd f408 6b3d 4427 693d d270 ccbd
00000120: 48da 38bd f0bc 1e3c 78d5 2d3d b4b7 bd3d
00000130: 8455 df3d a40b 8abd 9827 343d ae98 b23d
00000140: f479 883d f80c d93d 60cf f53b acf3 2b3d
00000150: 446e 9ebd c01f 513c 08b0 aa3d 2a82 b5bd
00000160: fc8c efbd d686 863d 6619 e2bd 4cad 0d3d
00000170: 92e9 a53d 2c9a f43d 8e19 f03d 7430 23bd
00000180: 3aea a93d 9078 4b3d a87f c03d 0013 ef3a
00000190: 00d0 4fb8 74aa 0ebd 182a d0bc e0b2 9f3b
000001a0: b812 15bd b861 bd3d c86d 91bd d826 363d
000001b0: 44f5 4c3d f003 42bc e41a 9a3d 10d9 3e3d
000001c0: 1c41 8b3d 000c 143d 809f 0c3d 0c92 51bd
000001d0: 3082 6cbd c2eb 90bd 9c8e 6fbd 4635 e5bd
000001e0: 98e2 4e3d 64de f7bd c07b 2d3c 8037 c1bd
000001f0: d87c 2abd 6054 fa3b 6ac5 983d 7852 8a3d
00000200: d66b bbbd f25a bebd d8d5 293d 2eae b13d
00000210: 1c67 e5bd 4068 76bd 1638 ad3d 3a96 b9bd
00000220: 284d b3bc 00d4 ad3a 6403 eebd c8e4 e23d
00000230: 705c e83c 8078 ad3b 848a 9d3d 38cb cd3c
00000240: 302e 68bd 36e6 88bd c0a9 70bb 04f3 b43d
00000250: 607c dd3d 5a39 ce3d b416 38bd 74ba f23d
00000260: 9c63 32bd ae4a d4bd 105d cabd 885c 79bd
00000270: f8b6 e0bc 1e0a eb3d a241 d93d 1e8e f9bd
00000280: c0fd 9d3c fe1e f5bd 4215 8e3d 1083 873d
00000290: d040 7bbc 402c cf3c 1650 9a3d 20b0 7ebc
000002a0: 74ed 5f3d 568b cdbd 287b 6fbd 909c 74bc
000002b0: 1817 aebc 081a 7d3d 00f7 963a e0eb 093c
000002c0: ac0d ecbd 14dd 403d c8c4 a13d 28c9 663d
000002d0: 308d 773c cc36 ba3d ec3f 4f3d b0d4 9d3c
000002e0: c07f b03b 00b1 c93a 80b4 6a3d 4a62 fbbd
000002f0: 407f 573d 80a1 f53b ba96 b7bd 34eb 9ebd
00000300: b0fc 8a3d cc2f 17bd 404b 2b3c 64ed 7e3d
00000310: c88f e3bd 2c6b d93d 706c ab3c 003c 153c
00000320: dca4 823d ba5d c0bd c080 cf3b cc0e 47bd
00000330: fc39 8ebd de4c b63d 18f3 f4bc c2f8 b33d
00000340: e646 c53d d469 4ebd 5811 223d 6c5a 69bd
00000350: 3048 2ebd ee10 f3bd b684 9bbd d2f1 923d
00000360: 8023 9f3b 4013 773d e047 3abd ec97 c43d
00000370: c845 8abc 78e2 f0bd 7808 eb3d de3a babd
00000380: 98d4 c5bd 9a07 95bd f025 c13c d42b ccbd
00000390: a27d 913d 185d 3cbd 5c63 183d 2cb4 7d3d
000003a0: b407 b6bd fee3 bb3d 102d e4bc ec5c 273d
000003b0: 30af b8bd 8ead 9a3d 98b4 61bd 1845 e1bc
000003c0: 1096 7c3c 32e4 983d 72f0 babd e0ba 9d3d
000003d0: cef6 d53d 5222 d83d fa90 9bbd 48dc f83d
000003e0: facd e7bd 400e 113c c4c3 47bd 8e84 ae3d
000003f0: 08d8 883c 18ce 8f3c 1a3c d13d a0ff 04bc
-0.012091771 0.10880543 0.11662026 -0.015667006 0.083433524 0.107643604 0.090316325 0.021166086
-0.025066555 -0.002784878 0.06765787 0.07680318 0.06629473 -0.11603747 -0.052734107 0.06428641
-0.047111645 -0.015674546 -0.08812839 -0.021480054 0.08089593 0.10490672 0.04581046 -0.106150985
0.019616112 0.09125699 0.008363262 -0.053757206 0.09096877 -0.01458399 -0.102119 0.11033714
0.10925937 -0.03619352 -0.05094634 0.08148517 0.09330951 -0.030981347 0.10784942 -0.017289385
0.027090222 -0.055925235 0.018950999 -0.00495705 0.07249692 0.02115035 0.1100163 0.06366345
-0.113342315 -0.116063565 0.0039373636 -0.0073585957 -0.0062105358 -0.09313542 -0.011921883 0.06262751
0.07005945 -0.05757989 0.078587905 0.060129836 -0.037944183 -0.07073519 -0.018233359 0.060794175
0.10905798 0.016410366 -0.0961649 0.08968493 -0.12455374 0.057381585 0.056922212 -0.09982456
-0.045130044 0.009688601 0.042439908 0.09263554 0.10904983 -0.067405015 0.043983072 0.087205276
0.06663886 0.10598177 0.0075015277 0.04198043 -0.07735875 0.012763917 0.083343565 -0.088627174
-0.116968125 0.06568687 -0.110400006 0.034589097 0.081011906 0.119434685 0.11723624 -0.03984113
0.08296628 0.049675524 0.093993485 0.0018239915 -4.954636e-05 -0.034830526 -0.025410697 0.0048736185
-0.036394805 0.09247154 -0.07101017 0.044470638 0.05003859 -0.011841759 0.0752466 0.046593726
0.06799528 0.036144257 0.0343318 -0.05116467 -0.057741344 -0.07076217 -0.058485612 -0.11191802
0.050509065 -0.121029645 0.010588586 -0.09434414 -0.041622967 0.007639453 0.07459529 0.06754011
-0.091514274 -0.0929469 0.041463703 0.086758 -0.11201307 -0.060158014 0.08457963 -0.090618566
-0.021887377 0.0013262033 -0.116217405 0.11078793 0.02836439 0.0052939057 0.076924354 0.025121316
-0.056684673 -0.06684534 -0.0036722273 0.08835414 0.10814738 0.10069533 -0.044943526 0.11851969
-0.043552026 -0.103658065 -0.098810315 -0.06087926 -0.027430996 0.11476539 0.106082216 -0.1218531
0.019286036 -0.11968802 0.06937648 0.06616795 -0.015335277 0.025289655 0.075348064 -0.015544921
0.054669812 -0.10036342 -0.05846706 -0.0149299055 -0.021251246 0.061792403 0.0011517704 0.008418053
-0.11526045 0.047085837 0.07898861 0.05634418 0.015109345 0.09092483 0.05059807 0.019266456
0.0053863227 0.0015387833 0.057301044 -0.122746065 0.05261159 0.007496059 -0.08964296 -0.07759705
0.067864776 -0.036910817 0.010454953 0.062238112 -0.111114085 0.106161445 0.02092573 0.009108543
0.06379101 -0.09392877 0.006332487 -0.048598096 -0.069446534 0.0890138 -0.029901072 0.08787681
0.096326634 -0.050393894 0.03956732 -0.056971 -0.042549312 -0.118684635 -0.07593672 0.0717503
0.004856527 0.060321093 -0.0454787 0.09599289 -0.016878977 -0.117619455 0.11476225 -0.09093259
-0.0965969 -0.072768405 0.02357766 -0.09969297 0.07104041 -0.04598722 0.03720413 0.061939403
-0.08888188 0.091743454 -0.027853519 0.0408601 -0.09017789 0.07552634 -0.05510387 -0.027498767
0.015416637 0.074654 -0.091278926 0.07701659 0.10447465 0.10553421 -0.075960115 0.1215139
-0.11318584 0.008853495 -0.04877068 0.085213766 0.016704574 0.017554328 0.102165416 -0.008117586

fc.4.bias f4 [6]
00000000: f687 f8bd b8f5 a9bc c0c1 e63c 1ed5 e2bd
00000010: 40fd 823d 56f6 8ebd
-0.121353075 -0.02074705 0.02816856 -0.11075805 0.0639596 -0.069805786

fc.0.weight f4 [64, 3]
00000000: a039 dd3e 8ea2 acbe 5310 debe 2893 38be
00000010: 2860 e43d f61d d63e 8427 05bf a6fa 0f3f
00000020: 38ac ee3e ccf6 e1be b7e2 00bf 68d3 cf3e
00000030: 7a04 c63e 0a9b 62be a740 edbe a0fa 853e
00000040: 1c3a 763e 2065 37bd 866c cd3e 0858 c0bd
00000050: f8b8 cebd 105b d83e 78b2 92bd 0246 e8be
00000060: 7202 043f 9828 043e 28ca ddbe da0e cdbe
00000070: 39b7 eabe c0db f8bc 14c6 6d3e 90b0 a23e
00000080: 0c64 cfbe 58c0 d93d f202 ad3e f432 c1be
00000090: f4bf 043e c0a4 813d f891 0e3e e6dc 40be
000000a0: bcd0 193e 500f 3b3d ec06 153e 6547 9bbe
000000b0: d859 c23d 1aa1 0d3f 4066 d3bc d0a8 113e
000000c0: 28fa 08bf 2864 67be d868 f53e 3caf 24be
000000d0: c029 d8bc 64b7 5c3e 48f8 ae3d 5ecc b3be
000000e0: 5a8e 46be 84f7 f53e dad0 26be 1069 b53e
000000f0: 7208 07bf 6269 bfbe 8e7f 40be 3014 1abe
00000100: 3026 08bf 70a9 443e 4299 b2be 464d a3be
00000110: 2078 813d 4011 373e d61b 883e 4a4c 033f
00000120: 307a c63d 00a2 60be 5391 b7be 6ab4 12bf
00000130: ef9a 94be a0a4 593e 4c2f a03e 887f 82bd
00000140: f896 b23e c42e 7d3e 9490 b73e 7027 403e
00000150: e383 b0be 5e0a c2be ca4d b3be 2214 75be
00000160: c0f6 d6bd 2731 b8be 6632 a93e c25f 0ebf
00000170: d8c0 e03e be07 7bbe 6c80 693e 5a31 873e
00000180: 2c7e 603e fa38 063f 98a6 033f 885e bd3e
00000190: b6e1 d2be 9af4 32be 1c72 0d3e 00d4 a8ba
000001a0: 3ac4 0cbf 2016 f1bd 6047 c8be 7095 7b3d
000001b0: 53fd 85be 6cad cb3e c01f e23e b6ab 6abe
000001c0: 1047 6c3d 88f3 ef3e 42c7 2fbe c1e0 8dbe
000001d0: a6bb 0cbf 96f6 8b3e 10d7 b33d 1877 8cbd
000001e0: d817 dbbd 401d b8be 84ab efbd be7b d7be
000001f0: c6ab 8fbe dc6d 4c3e 6a20 03bf c4b5 71be
00000200: 8c17 90be c088 db3c 838e 85be fc90 583e
00000210: d002 8fbd 26a9 83be 9a2b 08bf 6860 c2bd
00000220: 9439 fa3e 7092 1fbd c0c0 5d3d 325c 7ebe
00000230: 07a9 a5be 3c16 103e 14e4 643e c8ba e1be
00000240: a0e9 023d b46d 55be bd20 a6be 80a9 8cbb
00000250: ccfd 15be f548 b6be 64fd b3bd 649d 26be
00000260: 1079 ee3e 795a 8cbe e84d bbbe 0014 3e3d
00000270: eb46 0bbf 542a e8be 8c08 9b3e 206a d83d
00000280: e41e 613e e6f2 0c3f f0fc abbe 5437 cf3e
00000290: 3929 c6be 98cc ddbd 545e 583e 2c5a 463e
000002a0: e2a1 ad3e 83b4 0bbf 94f3 ccbe 4ede b9be
000002b0: 6824 5c3e 2ed8 d2be 60fd 98bc 4073 fdbc
000002c0: 92ac 92be 0aa0 50be 9e87 c03e 50be 8bbd
000002d0: 60b3 4e3e a4e6 c6be b2b2 6cbe e24e 62be
000002e0: 4a24 8f3e f8d6 d63d b4cb cebd 00e3 3f3b
000002f0: ae7d cb3e a4a4 d23e a0ac bfbc 78dc b83d
0.43208027 -0.3371777 -0.4337183 -0.18024886 0.11151153 0.41819733 -0.5201342 0.56241834
0.46615767 -0.44133604 -0.5034594 0.40590978 0.3867529 -0.22129455 -0.46338388 0.26167774
0.24045604 -0.044774175 0.4012186 -0.09391791 -0.10093874 0.42256975 -0.071629465 -0.45365912
0.5156623 0.1290611 -0.43318295 -0.40050393 -0.45842913 -0.030378222 0.23220092 0.31775331
-0.40506017 0.1063239 0.3379131 -0.37734187 0.1296385 0.06330252 0.1392287 -0.18834266
0.15021032 0.0456689 0.14553422 -0.30327907 0.094897926 0.55323946 -0.025805593 0.14224553
-0.5350671 -0.225968 0.47931552 -0.16082472 -0.026387095 0.21554333 0.0854345 -0.35116857
-0.1939024 0.48040402 -0.16290608 0.3543172 -0.5274726 -0.37385088 -0.18798658 -0.15046763
-0.5318327 0.1920526 -0.3488255 -0.31894892 0.0632174 0.17877674 0.26583737 0.5128828
0.09691274 -0.21936798 -0.3585306 -0.5730654 -0.29024455 0.21254206 0.31286085 -0.06371981
0.34880805 0.24724871 0.35852492 0.18765044 -0.34475622 -0.37898535 -0.35020286 -0.23933461
-0.104962826 -0.35975 0.33046263 -0.55614865 0.43897128 -0.24514672 0.22802895 0.2640484
0.21923131 0.5243069 0.51426077 0.36986184 -0.4118783 -0.1747612 0.1381306 -0.0012880564
-0.5498692 -0.11771798 -0.39116955 0.06142181 -0.26169834 0.39780748 0.44164848 -0.22917065
0.057684958 0.46865487 -0.17165855 -0.27710536 -0.5497383 0.27336568 0.08781254 -0.06858653
-0.10697907 -0.35959816 -0.11702636 -0.42086595 -0.2806074 0.19963783 -0.51221335 -0.23604494
-0.28142965 0.026798606 -0.2608529 0.21149057 -0.06982958 -0.25714988 -0.5319153 -0.09491044
0.48872054 -0.038958013 0.0541389 -0.24839857 -0.3235552 0.14070982 0.2235263 -0.44087815
0.031961083 -0.2084263 -0.32446852 -0.004292667 -0.14647597 -0.35602537 -0.08788565 -0.16270977
0.46576738 -0.27412775 -0.36582875 0.046405792 -0.5440509 -0.45344794 0.30279958 0.10567117
0.2198444 0.55058134 -0.33591413 0.404719 -0.38703325 -0.10830039 0.21129733 0.19370335
0.3391257 -0.54572314 -0.40029585 -0.36302418 0.21498263 -0.41180557 -0.018675506 -0.030938745
-0.28647286 -0.2037355 0.37603468 -0.068234086 0.20185614 -0.3884784 -0.23115042 -0.22100404
0.27957374 0.10490221 -0.10097447 0.002927959 0.39744323 0.41141236 -0.023397744 0.09026426

fc.0.bias f4 [64]
00000000: 7ebd 033f a962 eabe d8c8 87be 0a88 00bf
00000010: a07c c03e 60f0 5b3d 60fe 87bc 7e39 fbbe
00000020: 8ebd b13e e40f 9b3e e071 2fbd c8c5 043f
00000030: 3051 1c3d f197 11bf ba13 b1be b484 dbbe
00000040: 304f e33e a879 003f 783d ee3e 5c44 33be
00000050: 282a c83e 48a3 f43e 90d7 243d ce59 0abe
00000060: 12fd 813e 56f5 00bf ac51 1a3e 0647 063f
00000070: 406b a0be 80ab a03c 6077 d33e a8d8 f43d
00000080: f8a7 d4be 5ba5 e1be d6ae 0bbe bc1f fc3e
00000090: d8fb eb3e 6279 c33e 802c bfbe e6e7 063f
000000a0: 8426 61be c03a 94bc 10a8 9f3d b048 253d
000000b0: b6f7 12bf 3c96 5fbe 4ba5 99be fc46 b03e
000000c0: 8062 283d 70c5 bf3e 909a a23e 420a bcbe
000000d0: 85ef 80be 0818 94be 1b37 f7be d8c2 4d3e
000000e0: 0023 ca3d b8fb ad3d 442d 833e d860 183e
000000f0: 0833 663e 1a0d d03e 4801 bd3e 54d2 243e
0.5146102 -0.45778397 -0.2652042 -0.5020758 0.3759508 0.053696036 -0.016600788 -0.490673
0.3471493 0.3028556 -0.04283321 0.5186429 0.038163364 -0.5687247 -0.34585363 -0.42874682
0.44396353 0.5018563 0.46531272 -0.17506546 0.39094663 0.47780824 0.04024464 -0.1351082
0.2538839 -0.5037435 0.15070218 0.52452123 -0.31331825 0.019613028 0.41302013 0.119553864
-0.415344 -0.4407147 -0.13640913 0.4924296 0.4609058 0.38178545 -0.37338638 0.526976
-0.21987349 -0.01809442 0.07795727 0.040352523 -0.57409227 -0.21834654 -0.3000892 0.34429157
0.041109562 0.3745532 0.31758547 -0.36726576 -0.2518274 -0.28924584 -0.4828423 0.20093858
0.09869957 0.08495277 0.25620472 0.14880693 0.22480404 0.40634996 0.3691504 0.16095859

fc.2.weight f4 [64, 64]
00000000: a2b9 a03d 5839 e73d 8e9c d03d 041b cebd
00000010: 605b 3d3d ccfe 6ebd 906f 533d 749e 233d
00000020: 78f6 fb3c 5c35 63bd e042 2fbc 46f0 99bd
00000030: 8037 72bb 0008 33bb ea3f eb3d b068 513c
00000040: 90ea 2bbd 181e ce3d 90f0 c63d 2ac6 89bd
00000050: 0eb3 f43d c895 963d a661 8c3d 003b 863d
00000060: fc3e de3d e8fe 8fbc 008c 033d f622 ebbd
00000070: b0be eebd f03d b8bc 9633 a93d 722a 873d
00000080: 00e5 503d 9041 6cbd 86a3 a9bd 20f1 76bd
00000090: 14a1 ecbd 9052 55bc a0e9 ca3d 3275 963d
000000a0: 9415 b03d dce1 c0bd 802e b7bb 344c 01bd
000000b0: 7010 4fbc f066 47bc 982d 9fbc 3c6d a4bd
000000c0: 7cdc a03d e0d3 e93b 8cdf 503d 5ca7 a6bd
000000d0: 7c18 4abd 7886 7d3d 24ef cabd 24a1 c2bd
000000e0: 0ee4 e83d 50cf c33d c0d0 51bb e89d 51bd
000000f0: a0f8 523c 6adf 83bd 4081 e53b c058 babb
00000100: 2a09 8c3d 58a2 413d b812 953d a09a e5bc
00000110: 6030 c2bb 14f5 d4bd ee80 8e3d 9055 153c
00000120: 58d4 87bd 78f1 9c3d 0e5f eabd c61e f1bd
00000130: 140e 423d 4e1a 8bbd 7c87 76bd a8bb 37bd
00000140: c089 21bc 06f6 d43d c4f2 3cbd 7008 633c
00000150: 0061 7fbd 8054 dbbd 589e 8ebc e85e 92bc
00000160: b0fb f13d 80b1 213d fcc5 423d 9c48 2b3d
00000170: 0089 e4bb 3895 a43c 80c5 553d dc1b 9a3d
00000180: a044 e63d b235 e03d 166a ef3d cc44 ab3d
00000190: 4084 683d a827 c8bc a0f4 c73d 009c ea3b
000001a0: d83f dd3c 3003 623d 4022 55bc 5468 62bd
000001b0: 041c 5a3d e6d1 8e3d c8d2 6a3d fa88 a3bd
000001c0: 88b5 6a3d 1027 ef3c 7c4d c03d a298 d03d
000001d0: 707e 69bc 38e4 fdbc 40a9 d2bc de44 a7bd
000001e0: 722e a73d 7e3a 99bd 904f c13c c051 b6bd
000001f0: b4b0 493d d282 dcbd 2856 82bd 2601 e83d
00000200: 06ea a83d 60e8 34bd 28b0 d83d c4a8 e73d
00000210: e420 d9bd 3aa3 a5bd ee8e d63d de77 ecbd
00000220: 4c31 ec3d 1877 533d 309c c93c a007 b83c
00000230: 0ace fb3d 40a2 50bb 4afd 9bbd 0a54 ca3d
00000240: 703e ef3c 10eb 53bd 1a47 d4bd 2076 2b3d
00000250: 3490 d6bd 7475 6f3d 48b3 b1bd a89a 1f3d
00000260: 3885 ebbd 0c31 303d 54d4 a73d be0d 8f3d
00000270: 2630 90bd 6c72 aebd 9aa3 8abd 8c9d 61bd
00000280: e0ec d7bc 802b a3bd b6db d3bd 16bb a3bd
00000290: f800 7d3d 20b8 d33b 8061 923d 9024 213c
000002a0: 28ca ecbd e8e5 95bc 50b5 9c3d 18b5 5bbd
000002b0: 862f d9bd 80da ab3d 880b d9bc 14ba 46bd
000002c0: d2a2 8c3d c4bb 3f3d dc4f 093d ea07 a4bd
000002d0: a44a 2c3d ce08 cebd 1474 5d3d e4ca 8f3d
000002e0: f202 923d b084 04bd 981a 80bd f0fc 043d
000002f0: f078 0abd 9855 85bd 78ed 1f3d fa86 f1bd
00000300: 7e0a ddbd 04ff be3d 4059 1bbd 787c 3e3d
00000310: 4062 e0bc a815 7b3d 8c08 db3d 3069 c03d
00000320: 602a e03b 1cb5 ef3d b093 7dbd e014 aabd
00000330: d4db 03bd 5cac 3ebd 1c6d 43bd a80e f33c
00000340: c85d b73d 645c 153d 08b9 133d d80b 113d
00000350: 9267 c83d 0654 8fbd 781d bfbc 6030 953b
00000360: c068 d13c 9c31 9ebd a8c4 f9bd f887 e5bc
00000370: f80c 123d 5805 a7bc 2a75 9d3d 0c9c e9bd
00000380: 2e09 c83d 78aa 843d 3ac0 a23d be66 eb3d
00000390: ba6b adbd c86d 77bd e830 843c 925e d43d
000003a0: 0c39 de3d 402a 06bb 3018 c9bd 00cd 94bc
000003b0: 7691 84bd 0492 993d d8b5 813d d03b 883c
000003c0: 7057 51bd ac29 c1bd 20f6 663c c6c0 f0bd
000003d0: 703e 94bc 322e c2bd 5ecb b43d 4018 e7bb
000003e0: ecb4 38bd 6810 86bd d007 0d3d c89f 82bd
000003f0: 44bb 99bd f8c6 cbbc f819 14bd c642 fbbd
0.07847907 0.11290234 0.101861104 -0.100637466 0.04622972 -0.058348462 0.051620066 0.039946035
0.030757174 -0.05547081 -0.010697097 -0.07516532 -0.003695935 -0.0027318 0.114868 0.012781307
-0.041971743 0.10064334 0.097138524 -0.0672725 0.119482145 0.07352787 0.068545625 0.06554222
0.10851857 -0.017577603 0.032115936 -0.11481278 -0.116574645 -0.022490472 0.08261792 0.06599893
0.05099964 -0.057679713 -0.08283143 -0.06028855 -0.11554161 -0.013020173 0.09907842 0.07346572
0.08597866 -0.09418079 -0.00559026 -0.031566814 -0.012638196 -0.012170538 -0.01943092 -0.08028647
0.07854554 0.007135853 0.05099444 -0.0813739 -0.049339756 0.061895818 -0.09908894 -0.095033914
0.11371623 0.09561026 -0.0032015294 -0.05117598 0.01287666 -0.06439097 0.007003933 -0.0056868494
0.068376854 0.047273964 0.07278961 -0.028027833 -0.005926177 -0.103983074 0.06958185 0.009114638
-0.06632298 0.07663244 -0.114439115 -0.11773448 0.047376707 -0.067921266 -0.0601878 -0.044856697
-0.009859502 0.10398488 -0.046129957 0.013856992 -0.062348366 -0.107094765 -0.017409489 -0.01786752
0.11815584 0.039475918 0.047552094 0.041817293 -0.0069743395 0.020090684 0.052190304 0.07524845
0.11243558 0.109477416 0.11690156 0.08362731 0.05676675 -0.024432972 0.097634554 0.00715971
0.027007982 0.05517882 -0.013008654 -0.055275276 0.053249374 0.06973629 0.057329923 -0.079851106
0.057302028 0.029193431 0.09389779 0.101853624 -0.014251336 -0.030992612 -0.02571547 -0.08167432
0.081631556 -0.074818596 0.023597509 -0.08902311 0.049240783 -0.107671395 -0.06364089 0.11328344
0.082477614 -0.044166923 0.10580474 0.11311486 -0.106019765 -0.080877736 0.104764804 -0.115463
0.1153284 0.05162725 0.024610609 0.022464573 0.12295158 -0.003183499 -0.076166704 0.098793104
0.029204577 -0.051737845 -0.10365124 0.0418607 -0.10476723 0.05846162 -0.08676773 0.03896585
-0.11500019 0.043015525 0.08194795 0.06985043 -0.070404336 -0.08517918 -0.06769486 -0.05508189
-0.026358068 -0.07967281 -0.10344641 -0.07994668 0.061768502 0.0064611584 0.07147503 0.009835377
-0.11561996 -0.018298104 0.0765177 -0.0536395 -0.106047675 0.08391285 -0.026494756 -0.0485173
0.06866993 0.046809927 0.033523425 -0.08009322 0.04206337 -0.10060273 0.05406578 0.0702112
0.07129468 -0.032353103 -0.06255072 0.032467782 -0.03380674 -0.06510466 0.039044827 -0.11793323
-0.10793017 0.09325984 -0.037926912 0.04650542 -0.0273906 0.06129995 0.106949896 0.09395063
0.006840989 0.11704466 -0.061908424 -0.08304763 -0.032192066 -0.046551093 -0.047711477 0.029670075
0.08953434 0.036465064 0.03606513 0.035411686 0.097853795 -0.06998448 -0.023329481 0.004552886
0.025562644 -0.07724306 -0.12195712 -0.028018937 0.0356569 -0.02038829 0.07688363 -0.11406717
0.09767376 0.06477827 0.079468206 0.11494206 -0.08467813 -0.06040743 0.016136602 0.103696
0.108507246 -0.002047196 -0.098190665 -0.018164158 -0.06473057 0.074985534 0.06333512 0.016630083
-0.051108778 -0.094317764 0.014096767 -0.117555186 -0.018096179 -0.09481467 0.08827852 -0.0070524514
-0.045094416 -0.06546098 0.03443128 -0.06378132 -0.07506421 -0.02487515 -0.03615758 -0.122685954

fc.2.bias f4 [64]
00000000: d07a 86bc 4064 043d bc72 acbd a07d a7bb
00000010: a81c b83d 5811 d83d 741f 4abd 80b2 77bc
00000020: ec65 29bd ecdf b5bd be9a 99bd 0cdb 41bd
00000030: 8466 573d 4004 ebbb 4ca8 6f3d a4cb edbd
00000040: 0017 b4bc 9c2f 863d baf4 96bd 98f4 b2bc
00000050: 90f4 3a3c ceff be3d 568f 99bd c874 cb3c
00000060: 701f 2ebd 10dc 5f3c 0c5a d8bd 1c71 d2bd
00000070: a04d 68bc 027a ddbd 4ab9 c13d 4461 56bd
00000080: c077 d3bd 0896 abbc 883a 0bbd bebf bb3d
00000090: c066 713d 4050 2d3d 3872 94bc 3844 c53d
000000a0: de44 a6bd 18ad a9bd c0b0 683d 68a1 aabc
000000b0: 9873 703d 9014 27bd b48d c23d a86c ea3c
000000c0: 54cd 9e3d 84f5 e8bd b0ff 0cbd 96da fc3d
000000d0: 6457 773d 8493 d23d 6c8c 0d3d b081 adbc
000000e0: 10e9 5ebd a00d d0bc 24c8 093d a0b8 b73c
000000f0: 5643 aa3d 6c95 ca3d 7075 c3bd 1685 92bd
-0.016415983 0.03232217 -0.08420321 -0.005111411 0.08989841 0.10550183 -0.049346402 -0.015118241
-0.041356966 -0.088806 -0.07500218 -0.04732804 0.052588 -0.0071721375 0.05851011 -0.11611107
-0.021983624 0.065520495 -0.07370897 -0.021845147 0.011410847 0.093261346 -0.07498042 0.02483596
-0.04251045 0.013663307 -0.1056405 -0.1027548 -0.0141786635 -0.10814287 0.09459169 -0.052338853
-0.10325575 -0.020945564 -0.033991367 0.09167431 0.05893588 0.04231286 -0.01812087 0.09632152
-0.08118604 -0.08284968 0.056809187 -0.020828918 0.05870399 -0.040791094 0.09499684 0.028616264
0.07754007 -0.113749534 -0.03442353 0.123463795 0.060386077 0.102820426 0.034557745 -0.021180004
-0.054421484 -0.025397122 0.033638135 0.022426903 0.083136246 0.09891781 -0.09543884 -0.071542904

fc.4.weight f4 [6, 64]
00000000: 901c 46bc 62d5 de3d 9ad6 ee3d 1858 80bc
00000010: 32df aa3d 4074 dc3d c4f7 b83d 8064 ad3c
00000020: 6058 cdbc 8082 36bb 3690 8a3d fc4a 9d3d
00000030: 88c5 873d 0ea5 edbd b8ff 57bd 98a8 833d
00000040: 24f8 40bd e867 80bc a87c b4bd f0f6 afbc
00000050: c4ac a53d 56d9 d63d c0a3 3b3d b065 d9bd
00000060: f8b1 a03c f2e4 ba3d 1006 093c 8430 5cbd
00000070: d64d ba3d b0f1 6ebc c423 d1bd 70f8 e13d
00000080: 60c3 df3d a83f 14bd 1cad 50bd b2e1 a63d
00000090: 0e19 bf3d 98cc fdbc 28e0 dc3d 78a2 8dbc
000000a0: 50ec dd3c dc11 65bd 203f 9b3c c06e a2bb
000000b0: 4479 943d 8043 ad3c 3a50 e13d fc61 823d
000000c0: 0420 e8bd bcb2 edbd 0005 813b 6020 f1bb
000000d0: c081 cbbb c8bd bebd 0054 43bc da42 803d
000000e0: 547b 8f3d e4d8 6bbd b2f2 a03d b44a 763d
000000f0: 5c6b 1bbd 9cdd 90bd 205e 95bc 5003 793d
00000100: ca59 df3d 086f 863c 1af2 c4bd bcac b73d
00000110: 0816 ffbd f408 6b3d 4427 693d d270 ccbd
00000120: 48da 38bd f0bc 1e3c 78d5 2d3d b4b7 bd3d
00000130: 8455 df3d a40b 8abd 9827 343d ae98 b23d
00000140: f479 883d f80c d93d 60cf f53b acf3 2b3d
00000150: 446e 9ebd c01f 513c 08b0 aa3d 2a82 b5bd
00000160: fc8c efbd d686 863d 6619 e2bd 4cad 0d3d
00000170: 92e9 a53d 2c9a f43d 8e19 f03d 7430 23bd
00000180: 3aea a93d 9078 4b3d a87f c03d 0013 ef3a
00000190: 00d0 4fb8 74aa 0ebd 182a d0bc e0b2 9f3b
000001a0: b812 15bd b861 bd3d c86d 91bd d826 363d
000001b0: 44f5 4c3d f003 42bc e41a 9a3d 10d9 3e3d
000001c0: 1c41 8b3d 000c 143d 809f 0c3d 0c92 51bd
000001d0: 3082 6cbd c2eb 90bd 9c8e 6fbd 4635 e5bd
000001e0: 98e2 4e3d 64de f7bd c07b 2d3c 8037 c1bd
000001f0: d87c 2abd 6054 fa3b 6ac5 983d 7852 8a3d
00000200: d66b bbbd f25a bebd d8d5 293d 2eae b13d
00000210: 1c67 e5bd 4068 76bd 1638 ad3d 3a96 b9bd
00000220: 284d b3bc 00d4 ad3a 6403 eebd c8e4 e23d
00000230: 705c e83c 8078 ad3b 848a 9d3d 38cb cd3c
00000240: 302e 68bd 36e6 88bd c0a9 70bb 04f3 b43d
00000250: 607c dd3d 5a39 ce3d b416 38bd 74ba f23d
00000260: 9c63 32bd ae4a d4bd 105d cabd 885c 79bd
00000270: f8b6 e0bc 1e0a eb3d a241 d93d 1e8e f9bd
00000280: c0fd 9d3c fe1e f5bd 4215 8e3d 1083 873d
00000290: d040 7bbc 402c cf3c 1650 9a3d 20b0 7ebc
000002a0: 74ed 5f3d 568b cdbd 287b 6fbd 909c 74bc
000002b0: 1817 aebc 081a 7d3d 00f7 963a e0eb 093c
000002c0: ac0d ecbd 14dd 403d c8c4 a13d 28c9 663d
000002d0: 308d 773c cc36 ba3d ec3f 4f3d b0d4 9d3c
000002e0: c07f b03b 00b1 c93a 80b4 6a3d 4a62 fbbd
000002f0: 407f 573d 80a1 f53b ba96 b7bd 34eb 9ebd
00000300: b0fc 8a3d cc2f 17bd 404b 2b3c 64ed 7e3d
00000310: c88f e3bd 2c6b d93d 706c ab3c 003c 153c
00000320: dca4 823d ba5d c0bd c080 cf3b cc0e 47bd
00000330: fc39 8ebd de4c b63d 18f3 f4bc c2f8 b33d
00000340: e646 c53d d469 4ebd 5811 223d 6c5a 69bd
00000350: 3048 2ebd ee10 f3bd b684 9bbd d2f1 923d
00000360: 8023 9f3b 4013 773d e047 3abd ec97 c43d
00000370: c845 8abc 78e2 f0bd 7808 eb3d de3a babd
00000380: 98d4 c5bd 9a07 95bd f025 c13c d42b ccbd
00000390: a27d 913d 185d 3cbd 5c63 183d 2cb4 7d3d
000003a0: b407 b6bd fee3 bb3d 102d e4bc ec5c 273d
000003b0: 30af b8bd 8ead 9a3d 98b4 61bd 1845 e1bc
000003c0: 1096 7c3c 32e4 983d 72f0 babd e0ba 9d3d
000003d0: cef6 d53d 5222 d83d fa90 9bbd 48dc f83d
000003e0: facd e7bd 400e 113c c4c3 47bd 8e84 ae3d
000003f0: 08d8 883c 18ce 8f3c 1a3c d13d a0ff 04bc
-0.012091771 0.10880543 0.11662026 -0.015667006 0.083433524 0.107643604 0.090316325 0.021166086
-0.025066555 -0.002784878 0.06765787 0.07680318 0.06629473 -0.11603747 -0.052734107 0.06428641
-0.047111645 -0.015674546 -0.08812839 -0.021480054 0.08089593 0.10490672 0.04581046 -0.106150985
0.019616112 0.09125699 0.008363262 -0.053757206 0.09096877 -0.01458399 -0.102119 0.11033714
0.10925937 -0.03619352 -0.05094634 0.08148517 0.09330951 -0.030981347 0.10784942 -0.017289385
0.027090222 -0.055925235 0.018950999 -0.00495705 0.07249692 0.02115035 0.1100163 0.06366345
-0.113342315 -0.116063565 0.0039373636 -0.0073585957 -0.0062105358 -0.09313542 -0.011921883 0.06262751
0.07005945 -0.05757989 0.078587905 0.060129836 -0.037944183 -0.07073519 -0.018233359 0.060794175
0.10905798 0.016410366 -0.0961649 0.08968493 -0.12455374 0.057381585 0.056922212 -0.09982456
-0.045130044 0.009688601 0.042439908 0.09263554 0.10904983 -0.067405015 0.043983072 0.087205276
0.06663886 0.10598177 0.0075015277 0.04198043 -0.07735875 0.012763917 0.083343565 -0.088627174
-0.116968125 0.06568687 -0.110400006 0.034589097 0.081011906 0.119434685 0.11723624 -0.03984113
0.08296628 0.049675524 0.093993485 0.0018239915 -4.954636e-05 -0.034830526 -0.025410697 0.0048736185
-0.036394805 0.09247154 -0.07101017 0.044470638 0.05003859 -0.011841759 0.0752466 0.046593726
0.06799528 0.036144257 0.0343318 -0.05116467 -0.057741344 -0.07076217 -0.058485612 -0.11191802
0.050509065 -0.121029645 0.010588586 -0.09434414 -0.041622967 0.007639453 0.07459529 0.06754011
-0.091514274 -0.0929469 0.041463703 0.086758 -0.11201307 -0.060158014 0.08457963 -0.090618566
-0.021887377 0.0013262033 -0.116217405 0.11078793 0.02836439 0.0052939057 0.076924354 0.025121316
-0.056684673 -0.06684534 -0.0036722273 0.08835414 0.10814738 0.10069533 -0.044943526 0.11851969
-0.043552026 -0.103658065 -0.098810315 -0.06087926 -0.027430996 0.11476539 0.106082216 -0.1218531
0.019286036 -0.11968802 0.06937648 0.06616795 -0.015335277 0.025289655 0.075348064 -0.015544921
0.054669812 -0.10036342 -0.05846706 -0.0149299055 -0.021251246 0.061792403 0.0011517704 0.008418053
-0.11526045 0.047085837 0.07898861 0.05634418 0.015109345 0.09092483 0.05059807 0.019266456
0.0053863227 0.0015387833 0.057301044 -0.122746065 0.05261159 0.007496059 -0.08964296 -0.07759705
0.067864776 -0.036910817 0.010454953 0.062238112 -0.111114085 0.106161445 0.02092573 0.009108543
0.06379101 -0.09392877 0.006332487 -0.048598096 -0.069446534 0.0890138 -0.029901072 0.08787681
0.096326634 -0.050393894 0.03956732 -0.056971 -0.042549312 -0.118684635 -0.07593672 0.0717503
0.004856527 0.060321093 -0.0454787 0.09599289 -0.016878977 -0.117619455 0.11476225 -0.09093259
-0.0965969 -0.072768405 0.02357766 -0.09969297 0.07104041 -0.04598722 0.03720413 0.061939403
-0.08888188 0.091743454 -0.027853519 0.0408601 -0.09017789 0.07552634 -0.05510387 -0.027498767
0.015416637 0.074654 -0.091278926 0.07701659 0.10447465 0.10553421 -0.075960115 0.1215139
-0.11318584 0.008853495 -0.04877068 0.085213766 0.016704574 0.017554328 0.102165416 -0.008117586

fc.4.bias f4 [6]
00000000: f687 f8bd b8f5 a9bc c0c1 e63c 1ed5 e2bd
00000010: 40fd 823d 56f6 8ebd
-0.121353075 -0.02074705 0.02816856 -0.11075805 0.0639596 -0.069805786
