dqn_checkpoint_multi_obstacle.pth (torch, 43154 bytes, 12 tensors)

fc.0.weight f4 [64, 3]
000000 9c 2d fd 3e 40 cc 86 3e ea 1a b2 3e 34 25 ef 3e
       0.4944886 0.26327705 0.3478616 0.4670807
000010 88 31 d5 3d 6e a9 85 3e 08 78 fc 3e af 43 02 bf
       0.10409838 0.26105827 0.49310327 -0.50884527
000020 2a 99 ab be f4 c9 ae be be 36 9b be b0 45 e5 3d
       -0.33515292 -0.34138453 -0.30315202 0.111949325
000030 4c 60 ed be 76 16 fb be ba b2 fc be 20 fc 88 bd
       -0.4636253 -0.49040574 -0.49355108 -0.06688714
000040 aa df 5c be 99 4e 95 be 88 0e 57 be 0a 2d 09 be
       -0.21569696 -0.29161528 -0.21001637 -0.13396087
000050 ee 19 6a be e8 78 9f bd 78 73 05 3f 38 12 55 3e
       -0.22861454 -0.07786733 0.52129316 0.20807731
000060 0a f0 d1 be 50 76 8b 3e 30 af 69 3e 80 1f f3 3d
       -0.41003448 0.27238703 0.22820735 0.118712425
000070 4a dc ce be 40 50 94 3c 0c d7 81 3e 80 de d0 bb
       -0.40402442 0.018104672 0.2535938 -0.0063741803
000080 96 a0 b7 3e c8 2c f6 bd 4e 5c 32 be 4c bb 6d 3e
       0.35864705 -0.1202026 -0.17418024 0.2321598
000090 94 d3 8a be 74 90 36 3e 00 ca b8 3a 99 87 d9 be
       -0.27114546 0.17828542 0.0014098287 -0.42486265
0000a0 fc f4 6e be 3e 43 ce 3e b8 35 97 bd 80 e3 36 3e
       -0.23335642 0.40285677 -0.07383293 0.17860222
0000b0 dc b2 cd bd c8 0c 44 3e a6 8c a7 3e b4 a8 da 3e
       -0.1004388 0.191455 0.32724494 0.42706835
0000c0 62 2e 88 3e 02 c9 36 be d0 f3 fd 3d c8 7e bc be
       0.26597887 -0.17850116 0.12400019 -0.36815476
0000d0 6e 9e b3 be f4 9f fa 3e 32 6b d5 3e 74 d6 21 be
       -0.3508181 0.4895016 0.41683346 -0.15804464
0000e0 e4 00 45 3e ba 82 74 be c8 04 e1 3e ec 81 44 3e
       0.19238621 -0.23877993 0.4394896 0.19190186
0000f0 2e 4e b5 be 4a 6b 81 be 8d cc 09 bf ac cb f2 3e
       -0.3541121 -0.25277168 -0.53827745 0.47421014
000100 96 7f 41 be bd ba 9a be 3b ac f0 be 8f 69 03 bf
       -0.18896326 -0.30220595 -0.470064 -0.51332945
000110 60 9c 17 be 54 da e6 bd f2 37 e9 be 14 02 01 be
       -0.14805746 -0.112721115 -0.45550495 -0.12598449
000120 58 01 b5 3e af 4e f2 be bc 25 c6 be 36 6a ab 3e
       0.35352588 -0.47325656 -0.38700664 0.3347947
000130 f4 35 77 3e c6 0e ae 3e bf de ae be 60 93 d8 bd
       0.24141675 0.33995646 -0.34154317 -0.105749846
000140 e0 c8 0a bf 28 e6 0c bf ac 2b cc be 80 89 ec bc
       -0.5421276 -0.5503869 -0.3987707 -0.028874159
000150 50 7e b5 3d 40 4c 03 3f 9a 25 b0 be 6a 60 c3 3e
       0.08861983 0.51288223 -0.34403688 0.38159496
000160 08 e5 e2 3e e2 a6 05 3f d0 6c 91 bd 52 02 8d 3e
       0.44315362 0.5220777 -0.071008325 0.27540833
000170 b0 ea af 3e 20 01 0e 3e c0 6a f2 3e 14 b4 dd 3e
       0.3435874 0.13867617 0.4734707 0.4330145
000180 ea 8f d3 3e bc 6c 1f 3e 48 d3 f1 bd 40 ec 04 3d
       0.41320735 0.15568823 -0.11807877 0.032451868
000190 48 b9 c6 3d 5c 5a 68 be 0c 64 8e 3e 6c 66 d3 3e
       0.09703308 -0.2269072 0.27810705 0.4128908
0001a0 9e 0f a7 3e 68 ef 7c 3e d4 7d 8f 3e aa 57 a4 3e
       0.32629102 0.24700701 0.28025687 0.32098132
0001b0 40 67 f5 bc 42 81 66 be c0 71 79 3c 44 dc 09 3f
       -0.02995646 -0.22510245 0.015224874 0.53851724
0001c0 00 ca 3b 3c 3e 28 bb be 40 4c e2 3c d4 5f e6 bd
       0.011461735 -0.3655414 0.02762425 -0.112487465
0001d0 dc 54 3b be 04 eb 01 bf e9 dd 07 bf 45 b8 91 be
       -0.1829409 -0.5074923 -0.53072983 -0.284609
0001e0 40 b8 ae 3e ca c8 cf 3e e4 b6 7d 3e 88 6e 04 bf
       0.34124947 0.40582877 0.24776798 -0.5173116
0001f0 41 91 94 be aa a7 0b 3f ec 31 dc bd a0 74 ab bc
       -0.2901707 0.5455271 -0.10751709 -0.020929635
000200 8c 64 fd 3e 72 e2 ee be cc 97 fa 3e e8 3e 04 3e
       0.49490774 -0.4665714 0.48943937 0.12914622
000210 a2 a7 da be f8 7b ca be 2c 4c c6 be 64 fe bf 3e
       -0.4270602 -0.39547706 -0.3872999 0.37498772
000220 d8 08 be be c4 24 f9 be 1a c9 ac be 4b 7f ab be
       -0.37116122 -0.48660862 -0.33747178 -0.33495554
000230 0c 2b 00 3e 7e 90 0a 3f da 59 d0 3e c4 ca c0 3e
       0.12516421 0.5412673 0.4069355 0.37654698
000240 cf 17 c1 be b0 ec c3 3e f0 2e ec 3e 75 33 a3 be
       -0.37713477 0.38266516 0.4612956 -0.31875196
000250 b8 af bd 3e e2 b9 7a be 20 0a 0c 3f fc 34 4b 3e
       0.37048125 -0.24484971 0.5470295 0.1984443
000260 70 db 3d bd 22 82 bb 3e 94 c8 00 3f b0 b3 24 bd
       -0.04635185 0.3662272 0.5030606 -0.040210426
000270 90 90 8b be 4d e1 11 bf b2 ce 9a 3e be 2a a7 3e
       -0.2725873 -0.56984407 0.3023582 0.32649797
000280 19 06 a6 be 4c d2 11 3f d8 68 19 3e 6c fc 5a be
       -0.32426527 0.5696151 0.14981401 -0.21385354
000290 b2 5a c6 be 00 64 44 3e 5a 3b af 3e 28 b6 52 be
       -0.3874107 0.19178772 0.3422497 -0.205773
0002a0 d8 85 00 3e a8 c8 c0 be 98 e3 c6 3e 60 65 29 3e
       0.12551057 -0.3765309 0.38845515 0.16542578
0002b0 e0 51 37 3e 8c fd c7 be 14 75 05 3f 64 81 e9 3e
       0.17902327 -0.39060628 0.5213177 0.4560653
0002c0 20 43 85 3d ac 10 99 3e 60 63 08 3f eb f5 c2 be
       0.06506944 0.29895532 0.53276634 -0.38078246
0002d0 4f dc 93 be d6 e3 8f 3e ce 11 aa be 1c 6d 3e be
       -0.2887902 0.28103513 -0.3321671 -0.1859631
0002e0 79 17 95 be b2 c8 0e be ac 6c e6 3e 08 7b 80 3e
       -0.2911947 -0.13943747 0.45004785 0.25093865
0002f0 40 c7 06 bc ba d5 86 3e 08 3c f0 3d 10 ea 35 be
       -0.008226216 0.26334935 0.117302 -0.17765069

fc.0.bias f4 [64]
000000 20 78 3c bd f8 04 c4 be ac 4b e0 3e a8 59 e2 bd
       -0.046012998 -0.3828504 0.43807733 -0.11052257
000010 aa 23 c1 3e 52 0c 43 be 84 c8 76 3e 53 95 8b be
       0.37722522 -0.19047669 0.24099928 -0.27262363
000020 54 ef cb be 99 3b aa be 98 9f 8a 3e e8 81 86 bd
       -0.3983103 -0.33248594 0.27074885 -0.065677464
000030 b8 e5 ea be 41 4f ea be f8 be 72 be a0 2d 86 3d
       -0.45878386 -0.4576359 -0.23705661 0.06551671
000040 da 0d b8 be fa 83 c3 3e cb b0 09 bf 68 d2 38 3e
       -0.35948068 0.38186628 -0.5378539 0.18049014
000050 a4 0e 07 3f 2c 42 ea bd a0 44 30 bd 50 2a a3 bd
       0.52756715 -0.114384025 -0.043034196 -0.07967055
000060 ea 7b 15 be 18 75 9c 3e 34 e7 de bd 00 79 33 3e
       -0.1459805 0.30558085 -0.10883942 0.17526627
000070 30 5d 5d 3e 40 db 3d 3e dc d6 ac bd 8b 26 eb be
       0.2161758 0.18540668 -0.08439419 -0.45927843
000080 22 c1 20 be 10 01 b4 bd 9c c0 07 bf 9c b0 48 3e
       -0.15698674 -0.08789265 -0.53028274 0.19598621
000090 cc 8e a8 3e f6 0f a0 3e 88 28 ae be 96 d3 1d be
       0.32921445 0.31262177 -0.34015298 -0.15412745
0000a0 7c 2c 73 3e b0 8b 58 3e b8 50 ba be cc c2 e6 be
       0.23747438 0.21147037 -0.3638971 -0.45070493
0000b0 50 dd cd 3d 0c 23 ca 3e 09 6a 09 bf e4 22 f2 bd
       0.10051978 0.39479864 -0.5367742 -0.11823061
0000c0 50 51 4d 3e 44 a2 9a be 4f 67 0f bf 14 1c ac be
       0.2005055 -0.30201924 -0.5601701 -0.33615172
0000d0 3a 2d 7a be 90 4c bb 3e 3c 64 13 3e e2 67 f8 be
       -0.24431315 0.3658185 0.14393705 -0.48516756
0000e0 92 58 32 be 4c 1a d7 be c6 49 9b 3e cc 8a ec bd
       -0.174166 -0.4201225 0.30329722 -0.11549911
0000f0 58 3a 24 3e c0 c3 0e 3f 88 48 6a 3e 62 03 07 3f
       0.16037881 0.5576744 0.22879231 0.52739537

fc.2.weight f4 [64, 64]
000000 88 9f 45 3d 84 2f b1 3d c6 07 85 3d 7e e3 f2 bd
       0.048247844 0.08651641 0.06495623 -0.11859797
000010 c0 31 a9 bd 54 1a c4 bd f6 5d f3 3d 58 d1 4c 3d
       -0.08261442 -0.09575334 0.11883156 0.050004333
000020 20 3f cc 3c 80 31 fe 3c aa aa d0 3d 28 33 dd 3d
       0.024932444 0.031029463 0.101888016 0.10800773
000030 8e d3 90 3d e0 05 7b 3d 18 a3 e0 bd a8 fc c5 3d
       0.07071601 0.0612849 -0.10968608 0.09667331
000040 0e fa c6 3d 80 62 41 bb a4 62 dc bd e2 57 c2 3d
       0.09715663 -0.0029508173 -0.10761002 0.094894186
000050 60 11 d2 3c f8 48 c2 3c d0 11 45 bc b8 7d c2 3d
       0.02564305 0.023716435 -0.012028173 0.09496635
000060 f8 21 5f 3d 00 46 91 b9 6c 56 b3 3d c4 b5 1f 3d
       0.054475754 -0.0002770871 0.08756718 0.038991705
000070 80 1b 58 bd 9e 3e d6 bd 64 0a 73 bd 22 9c df bd
       -0.0527606 -0.10461162 -0.05933608 -0.10918452
000080 70 3e e4 3d b8 92 a8 bc d4 45 66 bd de aa 94 3d
       0.111447215 -0.020577773 -0.056218937 0.07259153
000090 00 a8 cc 3b 42 71 dc bd be b6 b9 bd b0 db c6 3d
       0.006245613 -0.1076379 -0.090680584 0.09709871
0000a0 dc 3f 48 3d 40 e1 72 3c 20 15 e0 bb a0 2e 58 bd
       0.048889026 0.014824212 -0.006838456 -0.05277884
0000b0 84 65 88 bd e4 47 de 3d 56 a3 d1 bd 88 15 fb bc
       -0.066599876 0.10853556 -0.10236232 -0.030649915
0000c0 50 c2 cb bc c6 3c d6 bd 44 ca 7a bd da 92 b4 3d
       -0.024872929 -0.1046081 -0.06122805 0.08817072
0000d0 ec ae da 3d 66 d2 a5 bd 98 8f 8c bd 2e 5a 94 bd
       0.10677895 -0.08096771 -0.06863326 -0.07243763
0000e0 f0 18 da 3d ba 0f ee 3d ec f6 35 bd e8 47 32 3d
       0.10649288 0.11624093 -0.044424936 0.043525606
0000f0 70 09 bb 3c 90 92 8b bc 5c 21 94 bd ac 2b 47 3d
       0.022831649 -0.01703766 -0.07232925 0.048625633
000100 60 83 ec bc 54 c0 d7 3d 20 1b cc bb 62 e9 f1 3d
       -0.028871238 0.105347306 -0.0062288195 0.11812092
000110 60 fc fc 3c f6 04 a5 bd 32 4f d6 bd cc b1 b5 3d
       0.03088206 -0.08057587 -0.10464324 0.08871803
000120 a4 53 06 3d 80 82 91 bd e8 cd ab 3c 0c 44 8a 3d
       0.03279461 -0.07104969 0.020972207 0.0675126
000130 20 3d 89 3b 80 97 cf 3a 58 15 18 bd e0 9e 7f bd
       0.004188195 0.0015837997 -0.03712973 -0.062407374
000140 24 71 96 3d c0 c0 ad 3b 3c 3f 3a bd 6a 56 fd bd
       0.073457986 0.0053025186 -0.04547046 -0.12369998
000150 70 cc 22 3d 1c 8d 61 bd c0 75 e9 bb 38 ab 92 bc
       0.039745748 -0.055066213 -0.0071246326 -0.01790391
000160 6c b3 28 3d 88 e8 dc 3d c8 8a 7d 3d c0 14 07 bb
       0.041186735 0.10786539 0.06189993 -0.0020611733
000170 00 74 81 39 b0 82 6c 3d 5a fb cb bd a0 38 9a 3c
       0.00024691224 0.05774182 -0.09960051 0.018825829
000180 48 2b fc bc 84 89 62 bd 90 49 59 bd 90 fd 3d bd
       -0.030782357 -0.055306926 -0.05304867 -0.046384394
000190 80 b4 34 bd 20 c7 2e bd 3e cb f7 bd e0 ef 42 bc
       -0.04411745 -0.04267037 -0.12099312 -0.011898011
0001a0 94 a6 a4 bd b8 26 13 bd 38 05 c7 3c 54 6a e1 bd
       -0.08039585 -0.035925597 0.02429448 -0.110066086
0001b0 1e 24 cc bd a0 40 d4 3b c8 f0 9b bc ec a9 d0 3d
       -0.09967826 0.0064774305 -0.019035712 0.1018866
0001c0 38 2f 0a bd 5a f3 f8 bd 42 17 df bd cc 0f 7f 3d
       -0.033736438 -0.121557906 -0.10893108 0.062270924
0001d0 68 35 a6 3c 20 db 71 3c 66 b9 f1 bd 00 7a 56 3d
       0.020289138 0.014761716 -0.1180294 0.052362442
0001e0 a0 1f d9 3c a8 19 2a bd 00 a7 e6 ba 50 4c 09 bc
       0.026504338 -0.041528374 -0.0017597377 -0.008380011
0001f0 b2 35 e9 3d 6a 89 d6 bd e8 9a f4 3d ac 52 21 3d
       0.11387195 -0.104754284 0.119436085 0.039385483
000200 84 01 8b 3d e0 2b b6 3c 66 66 cc 3d 94 56 2c 3d
       0.067873985 0.022237718 0.099804685 0.042074755
000210 68 00 b5 3c 28 ab d5 bc 18 31 bc 3d 00 f8 9b 3b
       0.02209492 -0.02608259 0.091890514 0.0047597885
000220 d8 1a 82 3c 78 23 b9 3c 22 15 ac bd 60 c6 ed 3d
       0.01588194 0.02259992 -0.08402468 0.11610103
000230 a4 bf ae 3d b8 ab ca bd 98 bc 34 bd 38 7f a6 3d
       0.08532646 -0.09896034 -0.04412517 0.08129734
000240 f8 61 a4 3d 60 a3 43 3c da 83 d4 3d d0 87 08 bd
       0.080264986 0.011940807 0.10376711 -0.033332646
000250 80 27 66 3d 74 31 ed 3d e8 99 5a bd 5c c4 70 bd
       0.056190014 0.11581698 -0.053369433 -0.058781013
000260 f4 2f 17 bd 34 a1 32 3d 58 8a df 3d 98 c5 fe bd
       -0.036910966 0.043610767 0.10915059 -0.12440032
000270 30 a9 4b 3c a4 1b 49 3d 94 27 bc bd 8c 37 2f bd
       0.012430474 0.049098626 -0.091872364 -0.042777583
000280 c0 50 5c 3c 3a 95 91 3d 2a 11 89 3d e0 73 e5 3c
       0.013446987 0.07108541 0.06692727 0.028009355
000290 cc a2 87 3d 34 b0 cf 3d 80 0c a2 bc 62 01 e7 bd
       0.06622848 0.1014103 -0.019781351 -0.112795606
0002a0 d8 00 af bc 08 ed ed 3c 38 b7 59 bd e8 ed fa 3c
       -0.021362707 0.02904369 -0.053153247 0.03063102
0002b0 a8 f1 8d 3d fa 18 ac 3d 9a 85 9e 3d 60 a4 f6 bc
       0.06930858 0.084032014 0.07740326 -0.030107677
0002c0 42 bc d4 3d bc cb 87 bd ca 22 ac bd c4 48 b4 3d
       0.1038747 -0.06630656 -0.08405073 0.088029414
0002d0 d2 c2 ad 3d 64 a8 e2 bd 80 76 d7 bd e2 fb aa 3d
       0.08484425 -0.11067274 -0.10520649 0.08348824
0002e0 78 ed 55 3d 14 c4 4b 3d 5c 52 8e bd 30 04 90 3d
       0.05222842 0.04974754 -0.069493026 0.07032049
0002f0 ec 68 e9 bd c2 29 da bd c0 e1 5a bd 88 2d cc bc
       -0.113969654 -0.10652496 -0.05343795 -0.024924055
000300 c2 b4 f3 3d ea e3 e8 3d ea cf b8 bd 58 be d0 3d
       0.11899711 0.11371596 -0.090240315 0.10192555
000310 ea 10 a7 bd 00 cd 6d bd 44 ce 59 3d e0 79 36 bd
       -0.08157523 -0.05805683 0.053175226 -0.044549823
000320 ac 11 27 bd f0 a3 84 bc d0 90 a3 bc 54 d5 40 3d
       -0.040788338 -0.016191453 -0.019966513 0.047078446
000330 c0 d8 c7 3c 9c 80 75 bd 00 c0 08 39 60 8b 91 bb
       0.024395347 -0.059937105 0.00013041496 -0.0044416636
000340 70 d0 6c 3c 50 c6 42 bd 2e 3e 97 3d 30 27 ef bc
       0.014453992 -0.047552407 0.07384907 -0.02919349
000350 20 5b fe bd 58 48 83 3c 80 27 0c bd 00 9d ed bc
       -0.124197245 0.016025707 -0.034217358 -0.029005527
000360 b8 d5 b2 bd c8 59 7d 3d 06 67 ef 3d 50 d6 4a 3d
       -0.0873217 0.0618532 0.11689572 0.04952079
000370 e0 5e a1 bb 88 b2 82 bc 90 18 09 bc 40 cf 93 bc
       -0.00492464 -0.015954271 -0.008367673 -0.01804316
000380 bc 74 99 3d 8e 7b a2 3d 84 8b 40 3d f4 95 3e 3d
       0.074929684 0.079337224 0.047008052 0.046529725
000390 7e bd 82 3d 40 38 72 3c c0 2b 51 bb 40 a8 69 3c
       0.06383799 0.014783919 -0.0031916946 0.014261305
0003a0 b8 22 83 3c e0 14 88 3d de 3c dc 3d 3e 5d 85 3d
       0.016007766 0.066446066 0.10753797 0.06511925
0003b0 20 24 e0 3b 30 4d 01 bc 80 38 e2 bb 28 e8 ce 3c
       0.006840244 -0.007891938 -0.006903708 0.025257185
0003c0 62 4b b8 3d c8 20 31 3d 2e 7d ce 3d 60 9d 70 bd
       0.08998753 0.043244153 0.1008247 -0.058743834
0003d0 80 cb 82 bc d8 73 7b 3d e4 57 9d 3d b6 0f dc 3d
       -0.015966177 0.061389774 0.076827794 0.10745184
0003e0 3c 2b f3 3d 3c 97 db 3d e8 18 07 3d 20 41 30 bc
       0.11873481 0.10722205 0.032982737 -0.0107577145
0003f0 b2 16 8f bd 10 bf 58 bd 8c 9b 2b bd 0e ae 93 bd
       -0.06986751 -0.052916586 -0.041896388 -0.07210933

fc.2.bias f4 [64]
000000 14 dd ed bd 28 36 b4 3c 44 a8 93 3d 54 f4 a5 bd
       -0.11614433 0.02199848 0.072098285 -0.081032425
000010 1c 62 6e bd 60 fa c1 bc e8 b2 76 bd 60 6f 1f 3d
       -0.058199033 -0.023678958 -0.060229212 0.038924575
000020 3e 80 a9 3d bc a0 07 bd 20 fa 95 bd 4a b0 c0 bd
       0.082764134 -0.033112273 -0.07323098 -0.094086245
000030 90 86 d7 bc a6 27 80 3d 7c bc 03 bd 38 cf cf bd
       -0.026309282 0.06257562 -0.032162175 -0.10146946
000040 54 14 f4 bd 78 78 f7 3c 44 f2 43 bd 8c 9d 15 bd
       -0.1191794 0.030208811 -0.047838464 -0.0365272
000050 00 30 b0 3a 00 ca 46 3d 8a c3 ca 3d b0 60 dd bd
       0.001344204 0.048532486 0.09900577 -0.10809457
000060 a2 48 89 bd 60 74 a7 3b 80 24 8b 3b 8c c3 ee bd
       -0.06703307 0.0051103085 0.0042462945 -0.11658391
000070 2a d2 c3 bd 48 99 d3 bd c4 fd ee bd b6 0e 9f 3d
       -0.0956157 -0.103319705 -0.11669496 0.07766478
000080 30 0a 46 bd c0 e8 79 3b d4 ca 2d 3d 86 d8 eb 3d
       -0.04834956 0.0038133115 0.04242976 0.11515908
000090 14 00 d3 3d 82 60 ba bd 86 39 81 bd 5c 2a 46 3d
       0.10302749 -0.09100439 -0.063098 0.04838024
0000a0 20 c9 7a 3c e2 32 9f bd e2 e8 9d bd 96 cb 8b 3d
       0.015306741 -0.07773377 -0.077104345 0.0682594
0000b0 c4 50 33 3d 10 e5 90 3d b6 22 8a bd fc 42 ef bd
       0.043778196 0.0707494 -0.06744902 -0.11682698
0000c0 de eb 95 3d a0 ef e7 3d 6c 2e a1 bd 84 ed 60 3d
       0.07320379 0.11325002 -0.078701824 0.054914013
0000d0 28 44 3f 3d 7e 44 cc bd 3c 07 0b bd 5e 23 ca bd
       0.04669586 -0.09974001 -0.033942446 -0.09870027
0000e0 98 b5 ef bd fc 69 83 3d dc d7 a4 bd b0 81 82 3c
       -0.11704558 0.06416699 -0.080489844 0.01593098
0000f0 d4 be fd bd 18 78 e6 bd f0 48 8c 3d 38 2d b6 bd
       -0.12389913 -0.11253375 0.06849849 -0.088953435

fc.4.weight f4 [6, 64]
000000 00 18 ef 3d 34 a1 c3 bd 94 4b eb bd 06 25 d8 bd
       0.116744995 -0.095522314 -0.11489025 -0.10553937
000010 bc 89 d9 3d fa 25 a8 3d 06 42 a2 3d d6 d2 d7 bd
       0.10621974 0.082103685 0.07922749 -0.10538261
000020 c2 e8 c6 3d a8 34 c8 bc 84 97 50 bd c0 7e 41 bb
       0.09712364 -0.024439171 -0.050925747 -0.0029525012
000030 e8 ca 8c 3d a4 71 01 bd b0 ef 08 3d 82 38 f8 bd
       0.06874639 -0.031602517 0.03343171 -0.12120153
000040 26 4b eb 3d 4e 2b 90 bd c8 e5 90 bd fc ac 4e 3d
       0.11488943 -0.0703951 -0.07075077 0.05045794
000050 0e ea fe bd 0c a3 e4 bd e0 f4 26 3d cc 60 0f 3d
       -0.12446986 -0.11163911 0.040760875 0.035004422
000060 9c 11 fe 3d c0 97 2d 3b 14 e7 bc 3d e8 10 e2 3c
       0.124057025 0.0026488155 0.09223762 0.027595952
000070 58 f3 4b 3d 10 9b 1b 3d 62 68 8d bd 58 27 84 bc
       0.049792618 0.037989676 -0.06904675 -0.016132042
000080 d4 53 2b 3d 5a 86 da bd 48 95 9e 3d 64 95 be 3d
       0.04182799 -0.10670157 0.07743317 0.09305838
000090 a8 a0 e2 bd 10 55 6d 3c 4c 45 94 bd 72 2f b5 bd
       -0.11065799 0.0144856125 -0.0723978 -0.0884694
0000a0 a4 4c 13 bd 00 50 c3 38 e0 b9 4c 3c f2 11 e1 3d
       -0.035961762 9.313226e-05 0.012495488 0.10989751
0000b0 e8 4e 86 3d 80 18 8d 3d f6 41 ae bd 2e 66 ba 3d
       0.06558019 0.06889439 -0.08508675 0.091015205
0000c0 16 50 b6 3d 18 b9 f5 3c 4a 6a 80 3d 40 6b a4 3c
       0.08901994 0.029995486 0.06270273 0.020070672
0000d0 10 26 b2 3c be b0 e2 bd 98 29 0f bd ac 0d bd 3d
       0.021746665 -0.11068867 -0.034951776 0.09231123
0000e0 1c e1 f8 3d 28 7d 83 3c 34 42 23 bd b8 31 62 3d
       0.12152311 0.01605089 -0.039858058 0.055223197
0000f0 3c e5 bf bd 24 29 a3 3d d0 2a 92 bc 02 cc 89 bd
       -0.09369895 0.07966831 -0.01784268 -0.067283645
000100 20 ec 77 bc 90 9c ba 3c 60 10 93 bc bc 76 a7 bd
       -0.01513198 0.022779733 -0.017952144 -0.08176944
000110 0c 61 25 bd 2e 32 99 bd ae ef ac bd b0 df e6 bc
       -0.040375754 -0.07480274 -0.08444153 -0.028182834
000120 8e a5 f8 3d f0 ef c7 3d 98 a4 55 3d 1e 41 de bd
       0.12140952 0.09762561 0.052158922 -0.10852264
000130 84 5e 95 bd 38 5d e9 3d d0 ca aa 3d 4e 6e d1 3d
       -0.07293418 0.11394733 0.08339465 0.10226117
000140 ae 14 c6 3d 5a 9d ab bd ba ec 8f bd bc 85 59 bd
       0.09671913 -0.08379622 -0.07027574 -0.053106055
000150 d8 8c 1e 3d 50 17 62 bc e8 06 f0 bd 14 bf de 3d
       0.038708538 -0.013799503 -0.11720067 0.10876289
000160 50 98 3a bc 00 cb 58 ba 58 04 87 bc b0 f0 8b bc
       -0.011388853 -0.00082699955 -0.016481563 -0.017082542
000170 a8 1b b0 3c 34 53 fc 3d 54 f3 cc bd 80 65 73 3b
       0.021497563 0.12320557 -0.10007349 0.0037139356
000180 1a 65 ce bd cc e0 be bd 24 fe 10 bd c4 98 73 bd
       -0.10077877 -0.0932022 -0.035398617 -0.05947186
000190 88 34 4b 3d 94 5f 31 bd 00 c8 f4 bd 30 46 68 bc
       0.049610645 -0.04330404 -0.119522095 -0.01417689
0001a0 46 3d d8 3d 1e 21 a6 3d 50 be d4 bc 70 27 83 bc
       0.10558562 0.08111785 -0.025969654 -0.016010016
0001b0 4a c4 b9 3d 06 43 99 bd 08 45 c8 3d ba de bc bd
       0.09070642 -0.07483487 0.09778792 -0.09222169
0001c0 04 02 00 bd 1c 89 77 3d 3c 26 db bd 00 b6 52 3c
       -0.031251922 0.060433492 -0.10700652 0.012860775
0001d0 20 36 fd bd 8c d7 4c bd f8 7c f7 bc 40 63 b8 3c
       -0.12363839 -0.05001025 -0.030210957 0.022508264
0001e0 10 42 22 3d a0 41 a5 bc ae 82 84 3d 96 52 ca bd
       0.039613783 -0.020172894 0.06470238 -0.09879033
0001f0 7a 95 b7 bd 8c 03 d1 bd 4c 59 29 bd 00 c6 d9 39
       -0.08964057 -0.10205755 -0.041344926 0.00041536987
000200 10 8a 04 3d 28 a5 e5 3c 94 3f 61 3d 80 4e 8d ba
       0.03235823 0.028032854 0.054992273 -0.0010780841
000210 10 62 52 3d 40 d3 08 bc e8 2d 7e 3d 32 a4 8e bd
       0.05136305 -0.008351147 0.0620555 -0.069649115
000220 88 4f 16 3d e8 bf 0e 3d cc 9c da bd 08 e4 a4 3c
       0.03669694 0.034850985 -0.10674438 0.020128265
000230 1e b8 e0 3d 06 71 83 3d b0 31 61 bd fa fb b2 3d
       0.109726176 0.06418042 -0.054979026 0.08739467
000240 1a 7d f8 bd f0 4a 6e 3d 72 62 f2 3d 0c f5 79 3d
       -0.12133236 0.058176935 0.11835183 0.06102471
000250 80 4a 9a 3b 14 bd 23 3d 14 d0 9b bd 00 cc 6e b9
       0.004708588 0.03997524 -0.07608047 -0.00022773445
000260 40 b0 ff 3b 88 c3 5d bd 60 07 80 3d 78 18 21 bd
       0.007802993 -0.05414155 0.06251407 -0.039329976
000270 98 1c ec bc f0 50 3c 3d 20 d1 67 bc e0 4c bf bc
       -0.028822228 0.045975626 -0.01414898 -0.023352087
000280 ac a3 cf 3d c4 33 71 3d 64 dd 41 3d 60 07 f7 3b
       0.1013864 0.05888726 0.047330275 0.007538721
000290 20 6e a6 bd f6 fe c3 3d c8 f3 81 3c 68 b4 5b 3d
       -0.081264734 0.09570114 0.015863314 0.053638846
0002a0 62 c5 ef 3d 04 cf b5 3d 12 ad f0 3d 80 bb 35 bd
       0.1170757 0.08877376 0.117517605 -0.044368267
0002b0 f8 3f 9e 3c 16 ef cc bd 00 09 ad ba d8 fe 98 bd
       0.019317612 -0.100065395 -0.0013201535 -0.074704826
0002c0 80 73 ec 3a a8 f3 42 3d 60 64 3b bd 10 50 08 bd
       0.0018039793 0.04759565 -0.045750022 -0.03327948
0002d0 02 76 b0 3d 40 c1 92 bb f0 33 be 3d 3c 82 21 bd
       0.08616258 -0.0044786036 0.0928725 -0.03943084
0002e0 4e db cf bd e0 08 84 3b ca 04 d4 bd e0 ff e0 3c
       -0.10149251 0.0040293783 -0.10352476 0.02746576
0002f0 3c 7f 35 bd 26 f7 ee bd e2 96 b3 3d 50 f9 12 3c
       -0.044310793 -0.116682336 0.08769013 0.008970574
000300 fe ab f8 3d 3e 6d a9 bd 92 51 cd 3d a0 42 eb 3c
       0.1214218 -0.082727894 0.10025324 0.028718293
000310 b8 78 04 3d ce 60 b8 3d a0 92 bc bc fc a9 d9 3d
       0.03234169 0.09002839 -0.023019135 0.10628125
000320 dc 1b 03 3d 70 4f f7 bc 08 15 22 3d 60 d8 37 bc
       0.03200899 -0.030189246 0.03957084 -0.011221021
000330 a8 84 f3 bc 58 4e e4 bc ca 19 81 3d 16 3f a8 3d
       -0.029726341 -0.027869388 0.06303747 0.08215158
000340 e4 69 97 bd f4 6c ae 3d 3c 37 a3 3d e0 9a a4 3d
       -0.07393244 0.08516875 0.079695195 0.080373526
000350 14 c9 10 3d ee c7 f9 bd 80 ca 51 bd 84 73 7d bd
       0.035348013 -0.12196337 -0.05121851 -0.061877742
000360 c0 14 e0 3b ca 33 9e bd 8a 94 c2 3d 24 fc ad 3d
       0.006838411 -0.07724722 0.09500988 0.08495358
000370 80 bb 89 3a 80 75 cb bc 24 03 84 3d 38 dc 89 3c
       0.001050815 -0.024836302 0.064459115 0.016828641
000380 66 0f f0 3d 6c 1c 45 3d 62 11 e9 bd 0e 06 f5 bd
       0.11721687 0.04812281 -0.11380269 -0.119640455
000390 08 6e ce bd 98 e4 05 bd 88 f7 fa 3c 90 df d6 bc
       -0.100795805 -0.032688707 0.03063561 -0.02622965
0003a0 2a 8b fc 3d 04 62 11 3d 48 83 4e bd 56 0b e6 bd
       0.12331231 0.035493866 -0.05041817 -0.11232631
0003b0 e2 50 bc 3d 82 d6 eb 3d 74 35 fd 3d 36 fc b9 3d
       0.09195115 0.115155235 0.12363711 0.090813085
0003c0 b0 9f cf 3d ce 24 ee bd 94 6e e9 bd a2 ec d2 bd
       0.1013788 -0.11628114 -0.11398044 -0.102990404
0003d0 7c 70 95 bd 80 05 fc 3b 74 89 13 3d 00 6c fd 3c
       -0.07296845 0.0076910853 0.036019757 0.030935287
0003e0 30 2c 4a bd d0 b1 13 3c 60 5f 0e bc be 53 a4 bd
       -0.049358547 0.009014562 -0.008689731 -0.08023785
0003f0 e8 eb 66 bd 3e 6b eb 3d 22 c4 f3 bd b4 fd fc bd
       -0.05637732 0.11495064 -0.11902644 -0.123530775

fc.4.bias f4 [6]
000000 38 23 8a bc 00 b2 7c 3a a8 69 3d 3d fe 42 ae 3d
       -0.016862497 0.0009639561 0.04624334 0.085088715
000010 a0 96 6c bd 4e e7 b1 bd
       -0.057760835 -0.08686696

fc.0.weight f4 [64, 3]
000000 9c 2d fd 3e 40 cc 86 3e ea 1a b2 3e 34 25 ef 3e
       0.4944886 0.26327705 0.3478616 0.4670807
000010 88 31 d5 3d 6e a9 85 3e 08 78 fc 3e af 43 02 bf
       0.10409838 0.26105827 0.49310327 -0.50884527
000020 2a 99 ab be f4 c9 ae be be 36 9b be b0 45 e5 3d
       -0.33515292 -0.34138453 -0.30315202 0.111949325
000030 4c 60 ed be 76 16 fb be ba b2 fc be 20 fc 88 bd
       -0.4636253 -0.49040574 -0.49355108 -0.06688714
000040 aa df 5c be 99 4e 95 be 88 0e 57 be 0a 2d 09 be
       -0.21569696 -0.29161528 -0.21001637 -0.13396087
000050 ee 19 6a be e8 78 9f bd 78 73 05 3f 38 12 55 3e
       -0.22861454 -0.07786733 0.52129316 0.20807731
000060 0a f0 d1 be 50 76 8b 3e 30 af 69 3e 80 1f f3 3d
       -0.41003448 0.27238703 0.22820735 0.118712425
000070 4a dc ce be 40 50 94 3c 0c d7 81 3e 80 de d0 bb
       -0.40402442 0.018104672 0.2535938 -0.0063741803
000080 96 a0 b7 3e c8 2c f6 bd 4e 5c 32 be 4c bb 6d 3e
       0.35864705 -0.1202026 -0.17418024 0.2321598
000090 94 d3 8a be 74 90 36 3e 00 ca b8 3a 99 87 d9 be
       -0.27114546 0.17828542 0.0014098287 -0.42486265
0000a0 fc f4 6e be 3e 43 ce 3e b8 35 97 bd 80 e3 36 3e
       -0.23335642 0.40285677 -0.07383293 0.17860222
0000b0 dc b2 cd bd c8 0c 44 3e a6 8c a7 3e b4 a8 da 3e
       -0.1004388 0.191455 0.32724494 0.42706835
0000c0 62 2e 88 3e 02 c9 36 be d0 f3 fd 3d c8 7e bc be
       0.26597887 -0.17850116 0.12400019 -0.36815476
0000d0 6e 9e b3 be f4 9f fa 3e 32 6b d5 3e 74 d6 21 be
       -0.3508181 0.4895016 0.41683346 -0.15804464
0000e0 e4 00 45 3e ba 82 74 be c8 04 e1 3e ec 81 44 3e
       0.19238621 -0.23877993 0.4394896 0.19190186
0000f0 2e 4e b5 be 4a 6b 81 be 8d cc 09 bf ac cb f2 3e
       -0.3541121 -0.25277168 -0.53827745 0.47421014
000100 96 7f 41 be bd ba 9a be 3b ac f0 be 8f 69 03 bf
       -0.18896326 -0.30220595 -0.470064 -0.51332945
000110 60 9c 17 be 54 da e6 bd f2 37 e9 be 14 02 01 be
       -0.14805746 -0.112721115 -0.45550495 -0.12598449
000120 58 01 b5 3e af 4e f2 be bc 25 c6 be 36 6a ab 3e
       0.35352588 -0.47325656 -0.38700664 0.3347947
000130 f4 35 77 3e c6 0e ae 3e bf de ae be 60 93 d8 bd
       0.24141675 0.33995646 -0.34154317 -0.105749846
000140 e0 c8 0a bf 28 e6 0c bf ac 2b cc be 80 89 ec bc
       -0.5421276 -0.5503869 -0.3987707 -0.028874159
000150 50 7e b5 3d 40 4c 03 3f 9a 25 b0 be 6a 60 c3 3e
       0.08861983 0.51288223 -0.34403688 0.38159496
000160 08 e5 e2 3e e2 a6 05 3f d0 6c 91 bd 52 02 8d 3e
       0.44315362 0.5220777 -0.071008325 0.27540833
000170 b0 ea af 3e 20 01 0e 3e c0 6a f2 3e 14 b4 dd 3e
       0.3435874 0.13867617 0.4734707 0.4330145
000180 ea 8f d3 3e bc 6c 1f 3e 48 d3 f1 bd 40 ec 04 3d
       0.41320735 0.15568823 -0.11807877 0.032451868
000190 48 b9 c6 3d 5c 5a 68 be 0c 64 8e 3e 6c 66 d3 3e
       0.09703308 -0.2269072 0.27810705 0.4128908
0001a0 9e 0f a7 3e 68 ef 7c 3e d4 7d 8f 3e aa 57 a4 3e
       0.32629102 0.24700701 0.28025687 0.32098132
0001b0 40 67 f5 bc 42 81 66 be c0 71 79 3c 44 dc 09 3f
       -0.02995646 -0.22510245 0.015224874 0.53851724
0001c0 00 ca 3b 3c 3e 28 bb be 40 4c e2 3c d4 5f e6 bd
       0.011461735 -0.3655414 0.02762425 -0.112487465
0001d0 dc 54 3b be 04 eb 01 bf e9 dd 07 bf 45 b8 91 be
       -0.1829409 -0.5074923 -0.53072983 -0.284609
0001e0 40 b8 ae 3e ca c8 cf 3e e4 b6 7d 3e 88 6e 04 bf
       0.34124947 0.40582877 0.24776798 -0.5173116
0001f0 41 91 94 be aa a7 0b 3f ec 31 dc bd a0 74 ab bc
       -0.2901707 0.5455271 -0.10751709 -0.020929635
000200 8c 64 fd 3e 72 e2 ee be cc 97 fa 3e e8 3e 04 3e
       0.49490774 -0.4665714 0.48943937 0.12914622
000210 a2 a7 da be f8 7b ca be 2c 4c c6 be 64 fe bf 3e
       -0.4270602 -0.39547706 -0.3872999 0.37498772
000220 d8 08 be be c4 24 f9 be 1a c9 ac be 4b 7f ab be
       -0.37116122 -0.48660862 -0.33747178 -0.33495554
000230 0c 2b 00 3e 7e 90 0a 3f da 59 d0 3e c4 ca c0 3e
       0.12516421 0.5412673 0.4069355 0.37654698
000240 cf 17 c1 be b0 ec c3 3e f0 2e ec 3e 75 33 a3 be
       -0.37713477 0.38266516 0.4612956 -0.31875196
000250 b8 af bd 3e e2 b9 7a be 20 0a 0c 3f fc 34 4b 3e
       0.37048125 -0.24484971 0.5470295 0.1984443
000260 70 db 3d bd 22 82 bb 3e 94 c8 00 3f b0 b3 24 bd
       -0.04635185 0.3662272 0.5030606 -0.040210426
000270 90 90 8b be 4d e1 11 bf b2 ce 9a 3e be 2a a7 3e
       -0.2725873 -0.56984407 0.3023582 0.32649797
000280 19 06 a6 be 4c d2 11 3f d8 68 19 3e 6c fc 5a be
       -0.32426527 0.5696151 0.14981401 -0.21385354
000290 b2 5a c6 be 00 64 44 3e 5a 3b af 3e 28 b6 52 be
       -0.3874107 0.19178772 0.3422497 -0.205773
0002a0 d8 85 00 3e a8 c8 c0 be 98 e3 c6 3e 60 65 29 3e
       0.12551057 -0.3765309 0.38845515 0.16542578
0002b0 e0 51 37 3e 8c fd c7 be 14 75 05 3f 64 81 e9 3e
       0.17902327 -0.39060628 0.5213177 0.4560653
0002c0 20 43 85 3d ac 10 99 3e 60 63 08 3f eb f5 c2 be
       0.06506944 0.29895532 0.53276634 -0.38078246
0002d0 4f dc 93 be d6 e3 8f 3e ce 11 aa be 1c 6d 3e be
       -0.2887902 0.28103513 -0.3321671 -0.1859631
0002e0 79 17 95 be b2 c8 0e be ac 6c e6 3e 08 7b 80 3e
       -0.2911947 -0.13943747 0.45004785 0.25093865
0002f0 40 c7 06 bc ba d5 86 3e 08 3c f0 3d 10 ea 35 be
       -0.008226216 0.26334935 0.117302 -0.17765069

fc.0.bias f4 [64]
000000 20 78 3c bd f8 04 c4 be ac 4b e0 3e a8 59 e2 bd
       -0.046012998 -0.3828504 0.43807733 -0.11052257
000010 aa 23 c1 3e 52 0c 43 be 84 c8 76 3e 53 95 8b be
       0.37722522 -0.19047669 0.24099928 -0.27262363
000020 54 ef cb be 99 3b aa be 98 9f 8a 3e e8 81 86 bd
       -0.3983103 -0.33248594 0.27074885 -0.065677464
000030 b8 e5 ea be 41 4f ea be f8 be 72 be a0 2d 86 3d
       -0.45878386 -0.4576359 -0.23705661 0.06551671
000040 da 0d b8 be fa 83 c3 3e cb b0 09 bf 68 d2 38 3e
       -0.35948068 0.38186628 -0.5378539 0.18049014
000050 a4 0e 07 3f 2c 42 ea bd a0 44 30 bd 50 2a a3 bd
       0.52756715 -0.114384025 -0.043034196 -0.07967055
000060 ea 7b 15 be 18 75 9c 3e 34 e7 de bd 00 79 33 3e
       -0.1459805 0.30558085 -0.10883942 0.17526627
000070 30 5d 5d 3e 40 db 3d 3e dc d6 ac bd 8b 26 eb be
       0.2161758 0.18540668 -0.08439419 -0.45927843
000080 22 c1 20 be 10 01 b4 bd 9c c0 07 bf 9c b0 48 3e
       -0.15698674 -0.08789265 -0.53028274 0.19598621
000090 cc 8e a8 3e f6 0f a0 3e 88 28 ae be 96 d3 1d be
       0.32921445 0.31262177 -0.34015298 -0.15412745
0000a0 7c 2c 73 3e b0 8b 58 3e b8 50 ba be cc c2 e6 be
       0.23747438 0.21147037 -0.3638971 -0.45070493
0000b0 50 dd cd 3d 0c 23 ca 3e 09 6a 09 bf e4 22 f2 bd
       0.10051978 0.39479864 -0.5367742 -0.11823061
0000c0 50 51 4d 3e 44 a2 9a be 4f 67 0f bf 14 1c ac be
       0.2005055 -0.30201924 -0.5601701 -0.33615172
0000d0 3a 2d 7a be 90 4c bb 3e 3c 64 13 3e e2 67 f8 be
       -0.24431315 0.3658185 0.14393705 -0.48516756
0000e0 92 58 32 be 4c 1a d7 be c6 49 9b 3e cc 8a ec bd
       -0.174166 -0.4201225 0.30329722 -0.11549911
0000f0 58 3a 24 3e c0 c3 0e 3f 88 48 6a 3e 62 03 07 3f
       0.16037881 0.5576744 0.22879231 0.52739537

fc.2.weight f4 [64, 64]
000000 88 9f 45 3d 84 2f b1 3d c6 07 85 3d 7e e3 f2 bd
       0.048247844 0.08651641 0.06495623 -0.11859797
000010 c0 31 a9 bd 54 1a c4 bd f6 5d f3 3d 58 d1 4c 3d
       -0.08261442 -0.09575334 0.11883156 0.050004333
000020 20 3f cc 3c 80 31 fe 3c aa aa d0 3d 28 33 dd 3d
       0.024932444 0.031029463 0.101888016 0.10800773
000030 8e d3 90 3d e0 05 7b 3d 18 a3 e0 bd a8 fc c5 3d
       0.07071601 0.0612849 -0.10968608 0.09667331
000040 0e fa c6 3d 80 62 41 bb a4 62 dc bd e2 57 c2 3d
       0.09715663 -0.0029508173 -0.10761002 0.094894186
000050 60 11 d2 3c f8 48 c2 3c d0 11 45 bc b8 7d c2 3d
       0.02564305 0.023716435 -0.012028173 0.09496635
000060 f8 21 5f 3d 00 46 91 b9 6c 56 b3 3d c4 b5 1f 3d
       0.054475754 -0.0002770871 0.08756718 0.038991705
000070 80 1b 58 bd 9e 3e d6 bd 64 0a 73 bd 22 9c df bd
       -0.0527606 -0.10461162 -0.05933608 -0.10918452
000080 70 3e e4 3d b8 92 a8 bc d4 45 66 bd de aa 94 3d
       0.111447215 -0.020577773 -0.056218937 0.07259153
000090 00 a8 cc 3b 42 71 dc bd be b6 b9 bd b0 db c6 3d
       0.006245613 -0.1076379 -0.090680584 0.09709871
0000a0 dc 3f 48 3d 40 e1 72 3c 20 15 e0 bb a0 2e 58 bd
       0.048889026 0.014824212 -0.006838456 -0.05277884
0000b0 84 65 88 bd e4 47 de 3d 56 a3 d1 bd 88 15 fb bc
       -0.066599876 0.10853556 -0.10236232 -0.030649915
0000c0 50 c2 cb bc c6 3c d6 bd 44 ca 7a bd da 92 b4 3d
       -0.024872929 -0.1046081 -0.06122805 0.08817072
0000d0 ec ae da 3d 66 d2 a5 bd 98 8f 8c bd 2e 5a 94 bd
       0.10677895 -0.08096771 -0.06863326 -0.07243763
0000e0 f0 18 da 3d ba 0f ee 3d ec f6 35 bd e8 47 32 3d
       0.10649288 0.11624093 -0.044424936 0.043525606
0000f0 70 09 bb 3c 90 92 8b bc 5c 21 94 bd ac 2b 47 3d
       0.022831649 -0.01703766 -0.07232925 0.048625633
000100 60 83 ec bc 54 c0 d7 3d 20 1b cc bb 62 e9 f1 3d
       -0.028871238 0.105347306 -0.0062288195 0.11812092
000110 60 fc fc 3c f6 04 a5 bd 32 4f d6 bd cc b1 b5 3d
       0.03088206 -0.08057587 -0.10464324 0.08871803
000120 a4 53 06 3d 80 82 91 bd e8 cd ab 3c 0c 44 8a 3d
       0.03279461 -0.07104969 0.020972207 0.0675126
000130 20 3d 89 3b 80 97 cf 3a 58 15 18 bd e0 9e 7f bd
       0.004188195 0.0015837997 -0.03712973 -0.062407374
000140 24 71 96 3d c0 c0 ad 3b 3c 3f 3a bd 6a 56 fd bd
       0.073457986 0.0053025186 -0.04547046 -0.12369998
000150 70 cc 22 3d 1c 8d 61 bd c0 75 e9 bb 38 ab 92 bc
       0.039745748 -0.055066213 -0.0071246326 -0.01790391
000160 6c b3 28 3d 88 e8 dc 3d c8 8a 7d 3d c0 14 07 bb
       0.041186735 0.10786539 0.06189993 -0.0020611733
000170 00 74 81 39 b0 82 6c 3d 5a fb cb bd a0 38 9a 3c
       0.00024691224 0.05774182 -0.09960051 0.018825829
000180 48 2b fc bc 84 89 62 bd 90 49 59 bd 90 fd 3d bd
       -0.030782357 -0.055306926 -0.05304867 -0.046384394
000190 80 b4 34 bd 20 c7 2e bd 3e cb f7 bd e0 ef 42 bc
       -0.04411745 -0.04267037 -0.12099312 -0.011898011
0001a0 94 a6 a4 bd b8 26 13 bd 38 05 c7 3c 54 6a e1 bd
       -0.08039585 -0.035925597 0.02429448 -0.110066086
0001b0 1e 24 cc bd a0 40 d4 3b c8 f0 9b bc ec a9 d0 3d
       -0.09967826 0.0064774305 -0.019035712 0.1018866
0001c0 38 2f 0a bd 5a f3 f8 bd 42 17 df bd cc 0f 7f 3d
       -0.033736438 -0.121557906 -0.10893108 0.062270924
0001d0 68 35 a6 3c 20 db 71 3c 66 b9 f1 bd 00 7a 56 3d
       0.020289138 0.014761716 -0.1180294 0.052362442
0001e0 a0 1f d9 3c a8 19 2a bd 00 a7 e6 ba 50 4c 09 bc
       0.026504338 -0.041528374 -0.0017597377 -0.008380011
0001f0 b2 35 e9 3d 6a 89 d6 bd e8 9a f4 3d ac 52 21 3d
       0.11387195 -0.104754284 0.119436085 0.039385483
000200 84 01 8b 3d e0 2b b6 3c 66 66 cc 3d 94 56 2c 3d
       0.067873985 0.022237718 0.099804685 0.042074755
000210 68 00 b5 3c 28 ab d5 bc 18 31 bc 3d 00 f8 9b 3b
       0.02209492 -0.02608259 0.091890514 0.0047597885
000220 d8 1a 82 3c 78 23 b9 3c 22 15 ac bd 60 c6 ed 3d
       0.01588194 0.02259992 -0.08402468 0.11610103
000230 a4 bf ae 3d b8 ab ca bd 98 bc 34 bd 38 7f a6 3d
       0.08532646 -0.09896034 -0.04412517 0.08129734
000240 f8 61 a4 3d 60 a3 43 3c da 83 d4 3d d0 87 08 bd
       0.080264986 0.011940807 0.10376711 -0.033332646
000250 80 27 66 3d 74 31 ed 3d e8 99 5a bd 5c c4 70 bd
       0.056190014 0.11581698 -0.053369433 -0.058781013
000260 f4 2f 17 bd 34 a1 32 3d 58 8a df 3d 98 c5 fe bd
       -0.036910966 0.043610767 0.10915059 -0.12440032
000270 30 a9 4b 3c a4 1b 49 3d 94 27 bc bd 8c 37 2f bd
       0.012430474 0.049098626 -0.091872364 -0.042777583
000280 c0 50 5c 3c 3a 95 91 3d 2a 11 89 3d e0 73 e5 3c
       0.013446987 0.07108541 0.06692727 0.028009355
000290 cc a2 87 3d 34 b0 cf 3d 80 0c a2 bc 62 01 e7 bd
       0.06622848 0.1014103 -0.019781351 -0.112795606
0002a0 d8 00 af bc 08 ed ed 3c 38 b7 59 bd e8 ed fa 3c
       -0.021362707 0.02904369 -0.053153247 0.03063102
0002b0 a8 f1 8d 3d fa 18 ac 3d 9a 85 9e 3d 60 a4 f6 bc
       0.06930858 0.084032014 0.07740326 -0.030107677
0002c0 42 bc d4 3d bc cb 87 bd ca 22 ac bd c4 48 b4 3d
       0.1038747 -0.06630656 -0.08405073 0.088029414
0002d0 d2 c2 ad 3d 64 a8 e2 bd 80 76 d7 bd e2 fb aa 3d
       0.08484425 -0.11067274 -0.10520649 0.08348824
0002e0 78 ed 55 3d 14 c4 4b 3d 5c 52 8e bd 30 04 90 3d
       0.05222842 0.04974754 -0.069493026 0.07032049
0002f0 ec 68 e9 bd c2 29 da bd c0 e1 5a bd 88 2d cc bc
       -0.113969654 -0.10652496 -0.05343795 -0.024924055
000300 c2 b4 f3 3d ea e3 e8 3d ea cf b8 bd 58 be d0 3d
       0.11899711 0.11371596 -0.090240315 0.10192555
000310 ea 10 a7 bd 00 cd 6d bd 44 ce 59 3d e0 79 36 bd
       -0.08157523 -0.05805683 0.053175226 -0.044549823
000320 ac 11 27 bd f0 a3 84 bc d0 90 a3 bc 54 d5 40 3d
       -0.040788338 -0.016191453 -0.019966513 0.047078446
000330 c0 d8 c7 3c 9c 80 75 bd 00 c0 08 39 60 8b 91 bb
       0.024395347 -0.059937105 0.00013041496 -0.0044416636
000340 70 d0 6c 3c 50 c6 42 bd 2e 3e 97 3d 30 27 ef bc
       0.014453992 -0.047552407 0.07384907 -0.02919349
000350 20 5b fe bd 58 48 83 3c 80 27 0c bd 00 9d ed bc
       -0.124197245 0.016025707 -0.034217358 -0.029005527
000360 b8 d5 b2 bd c8 59 7d 3d 06 67 ef 3d 50 d6 4a 3d
       -0.0873217 0.0618532 0.11689572 0.04952079
000370 e0 5e a1 bb 88 b2 82 bc 90 18 09 bc 40 cf 93 bc
       -0.00492464 -0.015954271 -0.008367673 -0.01804316
000380 bc 74 99 3d 8e 7b a2 3d 84 8b 40 3d f4 95 3e 3d
       0.074929684 0.079337224 0.047008052 0.046529725
000390 7e bd 82 3d 40 38 72 3c c0 2b 51 bb 40 a8 69 3c
       0.06383799 0.014783919 -0.0031916946 0.014261305
0003a0 b8 22 83 3c e0 14 88 3d de 3c dc 3d 3e 5d 85 3d
       0.016007766 0.066446066 0.10753797 0.06511925
0003b0 20 24 e0 3b 30 4d 01 bc 80 38 e2 bb 28 e8 ce 3c
       0.006840244 -0.007891938 -0.006903708 0.025257185
0003c0 62 4b b8 3d c8 20 31 3d 2e 7d ce 3d 60 9d 70 bd
       0.08998753 0.043244153 0.1008247 -0.058743834
0003d0 80 cb 82 bc d8 73 7b 3d e4 57 9d 3d b6 0f dc 3d
       -0.015966177 0.061389774 0.076827794 0.10745184
0003e0 3c 2b f3 3d 3c 97 db 3d e8 18 07 3d 20 41 30 bc
       0.11873481 0.10722205 0.032982737 -0.0107577145
0003f0 b2 16 8f bd 10 bf 58 bd 8c 9b 2b bd 0e ae 93 bd
       -0.06986751 -0.052916586 -0.041896388 -0.07210933

fc.2.bias f4 [64]
000000 14 dd ed bd 28 36 b4 3c 44 a8 93 3d 54 f4 a5 bd
       -0.11614433 0.02199848 0.072098285 -0.081032425
000010 1c 62 6e bd 60 fa c1 bc e8 b2 76 bd 60 6f 1f 3d
       -0.058199033 -0.023678958 -0.060229212 0.038924575
000020 3e 80 a9 3d bc a0 07 bd 20 fa 95 bd 4a b0 c0 bd
       0.082764134 -0.033112273 -0.07323098 -0.094086245
000030 90 86 d7 bc a6 27 80 3d 7c bc 03 bd 38 cf cf bd
       -0.026309282 0.06257562 -0.032162175 -0.10146946
000040 54 14 f4 bd 78 78 f7 3c 44 f2 43 bd 8c 9d 15 bd
       -0.1191794 0.030208811 -0.047838464 -0.0365272
000050 00 30 b0 3a 00 ca 46 3d 8a c3 ca 3d b0 60 dd bd
       0.001344204 0.048532486 0.09900577 -0.10809457
000060 a2 48 89 bd 60 74 a7 3b 80 24 8b 3b 8c c3 ee bd
       -0.06703307 0.0051103085 0.0042462945 -0.11658391
000070 2a d2 c3 bd 48 99 d3 bd c4 fd ee bd b6 0e 9f 3d
       -0.0956157 -0.103319705 -0.11669496 0.07766478
000080 30 0a 46 bd c0 e8 79 3b d4 ca 2d 3d 86 d8 eb 3d
       -0.04834956 0.0038133115 0.04242976 0.11515908
000090 14 00 d3 3d 82 60 ba bd 86 39 81 bd 5c 2a 46 3d
       0.10302749 -0.09100439 -0.063098 0.04838024
0000a0 20 c9 7a 3c e2 32 9f bd e2 e8 9d bd 96 cb 8b 3d
       0.015306741 -0.07773377 -0.077104345 0.0682594
0000b0 c4 50 33 3d 10 e5 90 3d b6 22 8a bd fc 42 ef bd
       0.043778196 0.0707494 -0.06744902 -0.11682698
0000c0 de eb 95 3d a0 ef e7 3d 6c 2e a1 bd 84 ed 60 3d
       0.07320379 0.11325002 -0.078701824 0.054914013
0000d0 28 44 3f 3d 7e 44 cc bd 3c 07 0b bd 5e 23 ca bd
       0.04669586 -0.09974001 -0.033942446 -0.09870027
0000e0 98 b5 ef bd fc 69 83 3d dc d7 a4 bd b0 81 82 3c
       -0.11704558 0.06416699 -0.080489844 0.01593098
0000f0 d4 be fd bd 18 78 e6 bd f0 48 8c 3d 38 2d b6 bd
       -0.12389913 -0.11253375 0.06849849 -0.088953435

fc.4.weight f4 [6, 64]
000000 00 18 ef 3d 34 a1 c3 bd 94 4b eb bd 06 25 d8 bd
       0.116744995 -0.095522314 -0.11489025 -0.10553937
000010 bc 89 d9 3d fa 25 a8 3d 06 42 a2 3d d6 d2 d7 bd
       0.10621974 0.082103685 0.07922749 -0.10538261
000020 c2 e8 c6 3d a8 34 c8 bc 84 97 50 bd c0 7e 41 bb
       0.09712364 -0.024439171 -0.050925747 -0.0029525012
000030 e8 ca 8c 3d a4 71 01 bd b0 ef 08 3d 82 38 f8 bd
       0.06874639 -0.031602517 0.03343171 -0.12120153
000040 26 4b eb 3d 4e 2b 90 bd c8 e5 90 bd fc ac 4e 3d
       0.11488943 -0.0703951 -0.07075077 0.05045794
000050 0e ea fe bd 0c a3 e4 bd e0 f4 26 3d cc 60 0f 3d
       -0.12446986 -0.11163911 0.040760875 0.035004422
000060 9c 11 fe 3d c0 97 2d 3b 14 e7 bc 3d e8 10 e2 3c
       0.124057025 0.0026488155 0.09223762 0.027595952
000070 58 f3 4b 3d 10 9b 1b 3d 62 68 8d bd 58 27 84 bc
       0.049792618 0.037989676 -0.06904675 -0.016132042
000080 d4 53 2b 3d 5a 86 da bd 48 95 9e 3d 64 95 be 3d
       0.04182799 -0.10670157 0.07743317 0.09305838
000090 a8 a0 e2 bd 10 55 6d 3c 4c 45 94 bd 72 2f b5 bd
       -0.11065799 0.0144856125 -0.0723978 -0.0884694
0000a0 a4 4c 13 bd 00 50 c3 38 e0 b9 4c 3c f2 11 e1 3d
       -0.035961762 9.313226e-05 0.012495488 0.10989751
0000b0 e8 4e 86 3d 80 18 8d 3d f6 41 ae bd 2e 66 ba 3d
       0.06558019 0.06889439 -0.08508675 0.091015205
0000c0 16 50 b6 3d 18 b9 f5 3c 4a 6a 80 3d 40 6b a4 3c
       0.08901994 0.029995486 0.06270273 0.020070672
0000d0 10 26 b2 3c be b0 e2 bd 98 29 0f bd ac 0d bd 3d
       0.021746665 -0.11068867 -0.034951776 0.09231123
0000e0 1c e1 f8 3d 28 7d 83 3c 34 42 23 bd b8 31 62 3d
       0.12152311 0.01605089 -0.039858058 0.055223197
0000f0 3c e5 bf bd 24 29 a3 3d d0 2a 92 bc 02 cc 89 bd
       -0.09369895 0.07966831 -0.01784268 -0.067283645
000100 20 ec 77 bc 90 9c ba 3c 60 10 93 bc bc 76 a7 bd
       -0.01513198 0.022779733 -0.017952144 -0.08176944
000110 0c 61 25 bd 2e 32 99 bd ae ef ac bd b0 df e6 bc
       -0.040375754 -0.07480274 -0.08444153 -0.028182834
000120 8e a5 f8 3d f0 ef c7 3d 98 a4 55 3d 1e 41 de bd
       0.12140952 0.09762561 0.052158922 -0.10852264
000130 84 5e 95 bd 38 5d e9 3d d0 ca aa 3d 4e 6e d1 3d
       -0.07293418 0.11394733 0.08339465 0.10226117
000140 ae 14 c6 3d 5a 9d ab bd ba ec 8f bd bc 85 59 bd
       0.09671913 -0.08379622 -0.07027574 -0.053106055
000150 d8 8c 1e 3d 50 17 62 bc e8 06 f0 bd 14 bf de 3d
       0.038708538 -0.013799503 -0.11720067 0.10876289
000160 50 98 3a bc 00 cb 58 ba 58 04 87 bc b0 f0 8b bc
       -0.011388853 -0.00082699955 -0.016481563 -0.017082542
000170 a8 1b b0 3c 34 53 fc 3d 54 f3 cc bd 80 65 73 3b
       0.021497563 0.12320557 -0.10007349 0.0037139356
000180 1a 65 ce bd cc e0 be bd 24 fe 10 bd c4 98 73 bd
       -0.10077877 -0.0932022 -0.035398617 -0.05947186
000190 88 34 4b 3d 94 5f 31 bd 00 c8 f4 bd 30 46 68 bc
       0.049610645 -0.04330404 -0.119522095 -0.01417689
0001a0 46 3d d8 3d 1e 21 a6 3d 50 be d4 bc 70 27 83 bc
       0.10558562 0.08111785 -0.025969654 -0.016010016
0001b0 4a c4 b9 3d 06 43 99 bd 08 45 c8 3d ba de bc bd
       0.09070642 -0.07483487 0.09778792 -0.09222169
0001c0 04 02 00 bd 1c 89 77 3d 3c 26 db bd 00 b6 52 3c
       -0.031251922 0.060433492 -0.10700652 0.012860775
0001d0 20 36 fd bd 8c d7 4c bd f8 7c f7 bc 40 63 b8 3c
       -0.12363839 -0.05001025 -0.030210957 0.022508264
0001e0 10 42 22 3d a0 41 a5 bc ae 82 84 3d 96 52 ca bd
       0.039613783 -0.020172894 0.06470238 -0.09879033
0001f0 7a 95 b7 bd 8c 03 d1 bd 4c 59 29 bd 00 c6 d9 39
       -0.08964057 -0.10205755 -0.041344926 0.00041536987
000200 10 8a 04 3d 28 a5 e5 3c 94 3f 61 3d 80 4e 8d ba
       0.03235823 0.028032854 0.054992273 -0.0010780841
000210 10 62 52 3d 40 d3 08 bc e8 2d 7e 3d 32 a4 8e bd
       0.05136305 -0.008351147 0.0620555 -0.069649115
000220 88 4f 16 3d e8 bf 0e 3d cc 9c da bd 08 e4 a4 3c
       0.03669694 0.034850985 -0.10674438 0.020128265
000230 1e b8 e0 3d 06 71 83 3d b0 31 61 bd fa fb b2 3d
       0.109726176 0.06418042 -0.054979026 0.08739467
000240 1a 7d f8 bd f0 4a 6e 3d 72 62 f2 3d 0c f5 79 3d
       -0.12133236 0.058176935 0.11835183 0.06102471
000250 80 4a 9a 3b 14 bd 23 3d 14 d0 9b bd 00 cc 6e b9
       0.004708588 0.03997524 -0.07608047 -0.00022773445
000260 40 b0 ff 3b 88 c3 5d bd 60 07 80 3d 78 18 21 bd
       0.007802993 -0.05414155 0.06251407 -0.039329976
000270 98 1c ec bc f0 50 3c 3d 20 d1 67 bc e0 4c bf bc
       -0.028822228 0.045975626 -0.01414898 -0.023352087
000280 ac a3 cf 3d c4 33 71 3d 64 dd 41 3d 60 07 f7 3b
       0.1013864 0.05888726 0.047330275 0.007538721
000290 20 6e a6 bd f6 fe c3 3d c8 f3 81 3c 68 b4 5b 3d
       -0.081264734 0.09570114 0.015863314 0.053638846
0002a0 62 c5 ef 3d 04 cf b5 3d 12 ad f0 3d 80 bb 35 bd
       0.1170757 0.08877376 0.117517605 -0.044368267
0002b0 f8 3f 9e 3c 16 ef cc bd 00 09 ad ba d8 fe 98 bd
       0.019317612 -0.100065395 -0.0013201535 -0.074704826
0002c0 80 73 ec 3a a8 f3 42 3d 60 64 3b bd 10 50 08 bd
       0.0018039793 0.04759565 -0.045750022 -0.03327948
0002d0 02 76 b0 3d 40 c1 92 bb f0 33 be 3d 3c 82 21 bd
       0.08616258 -0.0044786036 0.0928725 -0.03943084
0002e0 4e db cf bd e0 08 84 3b ca 04 d4 bd e0 ff e0 3c
       -0.10149251 0.0040293783 -0.10352476 0.02746576
0002f0 3c 7f 35 bd 26 f7 ee bd e2 96 b3 3d 50 f9 12 3c
       -0.044310793 -0.116682336 0.08769013 0.008970574
000300 fe ab f8 3d 3e 6d a9 bd 92 51 cd 3d a0 42 eb 3c
       0.1214218 -0.082727894 0.10025324 0.028718293
000310 b8 78 04 3d ce 60 b8 3d a0 92 bc bc fc a9 d9 3d
       0.03234169 0.09002839 -0.023019135 0.10628125
000320 dc 1b 03 3d 70 4f f7 bc 08 15 22 3d 60 d8 37 bc
       0.03200899 -0.030189246 0.03957084 -0.011221021
000330 a8 84 f3 bc 58 4e e4 bc ca 19 81 3d 16 3f a8 3d
       -0.029726341 -0.027869388 0.06303747 0.08215158
000340 e4 69 97 bd f4 6c ae 3d 3c 37 a3 3d e0 9a a4 3d
       -0.07393244 0.08516875 0.079695195 0.080373526
000350 14 c9 10 3d ee c7 f9 bd 80 ca 51 bd 84 73 7d bd
       0.035348013 -0.12196337 -0.05121851 -0.061877742
000360 c0 14 e0 3b ca 33 9e bd 8a 94 c2 3d 24 fc ad 3d
       0.006838411 -0.07724722 0.09500988 0.08495358
000370 80 bb 89 3a 80 75 cb bc 24 03 84 3d 38 dc 89 3c
       0.001050815 -0.024836302 0.064459115 0.016828641
000380 66 0f f0 3d 6c 1c 45 3d 62 11 e9 bd 0e 06 f5 bd
       0.11721687 0.04812281 -0.11380269 -0.119640455
000390 08 6e ce bd 98 e4 05 bd 88 f7 fa 3c 90 df d6 bc
       -0.100795805 -0.032688707 0.03063561 -0.02622965
0003a0 2a 8b fc 3d 04 62 11 3d 48 83 4e bd 56 0b e6 bd
       0.12331231 0.035493866 -0.05041817 -0.11232631
0003b0 e2 50 bc 3d 82 d6 eb 3d 74 35 fd 3d 36 fc b9 3d
       0.09195115 0.115155235 0.12363711 0.090813085
0003c0 b0 9f cf 3d ce 24 ee bd 94 6e e9 bd a2 ec d2 bd
       0.1013788 -0.11628114 -0.11398044 -0.102990404
0003d0 7c 70 95 bd 80 05 fc 3b 74 89 13 3d 00 6c fd 3c
       -0.07296845 0.0076910853 0.036019757 0.030935287
0003e0 30 2c 4a bd d0 b1 13 3c 60 5f 0e bc be 53 a4 bd
       -0.049358547 0.009014562 -0.008689731 -0.08023785
0003f0 e8 eb 66 bd 3e 6b eb 3d 22 c4 f3 bd b4 fd fc bd
       -0.05637732 0.11495064 -0.11902644 -0.123530775

fc.4.bias f4 [6]
000000 38 23 8a bc 00 b2 7c 3a a8 69 3d 3d fe 42 ae 3d
       -0.016862497 0.0009639561 0.04624334 0.085088715
000010 a0 96 6c bd 4e e7 b1 bd
       -0.057760835 -0.08686696
