dqn_checkpoint_1obstacle.pth (torch, 43074 bytes, 12 tensors)

fc.0.weight f4 [64, 3]
-0.33481362 -0.5084182 0.29696786 0.06939918 -0.24107659 0.005889237 -0.075274944 -0.022491992
-0.2665262 0.36132646 0.24010473 -0.0006483793 0.07259679 0.38450247 -0.24919105 0.09696722
-0.45940426 -0.42152494 0.12916291 -0.3722844 -0.2109423 0.25234395 -0.52975595 -0.19080967
0.29786718 -0.36011663 0.15463185 0.5681219 -0.25178513 -0.12008965 -0.14984134 -0.3524993
-0.13705939 -0.5335051 0.47485924 -0.3667473 0.21333498 -0.2996592 0.23674881 -0.40597108
0.03992921 -0.5740195 -0.37339625 0.43375266 -0.22711352 -0.49122208 0.44701838 0.22353387
-0.09869385 -0.10490033 -0.36468494 -0.06833261 -0.3626823 -0.48488092 0.576051 -0.48264387
-0.29456562 0.3439924 0.1471557 0.5360849 -0.23360083 0.15365702 0.2343685 0.14708447
0.48922455 0.4401102 -0.33962977 0.19389689 0.029108584 0.13723671 0.29572076 0.08605063
-0.28139877 0.3390776 0.40353477 0.17102796 0.112258315 0.2683882 -0.29752335 0.275941
0.034031034 -0.4003386 -0.3118705 -0.15855733 -0.5290806 0.17199421 -0.08803305 -0.5317508
0.2043249 -0.04773885 0.10524261 -0.4678303 0.15162355 0.23358059 0.5337602 0.48192358
-0.094640315 -0.1783945 -0.22338703 -0.448012 0.36454457 -0.32517958 0.12483287 0.017579257
-0.13295272 0.5285673 -0.542309 -0.003080368 0.38010585 0.37838924 -0.465583 -0.012064815
0.02724588 0.047605276 -0.0068882704 -0.5454139 0.41187543 -0.29324013 0.34172505 0.40121627
0.06336653 0.17567605 -0.46957234 -0.28947198 -0.29911816 -0.42669177 -0.5711577 -0.043650806
0.036767304 -0.35541034 0.29570228 -0.2111873 -0.25886336 0.21445966 0.4969163 0.52087
-0.31652573 -0.47923324 0.17079765 0.13979352 0.43183184 0.2928815 -0.46144783 -0.078235626
-0.015304863 0.17317933 0.47454965 0.20841104 -0.5038412 -0.55965054 0.14987308 -0.24172118
0.35215145 -0.43252987 0.1706276 0.5491891 -0.16185963 -0.010361075 0.10963535 0.3845623
0.15727788 0.49752295 -0.12869531 -0.3904969 0.36346227 -0.14587697 -0.08018488 -0.16208464
0.1934793 -0.45270327 0.44270706 0.2800725 -0.16775435 -0.43371677 -0.4938161 0.54887414
-0.14006019 0.31851488 0.46086574 -0.41294104 0.29783237 -0.13704702 -0.15504467 -0.35410148
-0.52774626 0.2592699 0.3418662 0.385952 0.5566673 -0.2424325 -0.19774115 -0.23818561
00000000: b16c abbe b227 02bf 2c0c 983e 2821 8e3d
00000010: c8dc 76be 80fa c03b c029 9abd 2041 b8bc
00000020: 1f76 88be c8ff b83e 04de 753e 00f8 29ba
00000030: a0ad 943d 82dd c43e f02b 7fbe c096 c63d
00000040: 0937 ebbe 1ed2 d7be 4843 043e 109c bebe
00000050: 4201 58be 3a33 813e 169e 07bf 9c63 43be
00000060: 0c82 983e 3561 b8be d057 1e3e 7070 113f
00000070: fbe9 80be 90f1 f5bd 0270 19be ca7a b4be
00000080: 4c59 0cbe ca93 08bf c020 f33e 4dc6 bbbe
00000090: 7c74 5a3e ee6c 99be 486e 723e 71db cfbe
000000a0: d08c 233d f1f2 12bf cb2d bfbe d414 de3e
000000b0: 7290 68be 7681 fbbe 98df e43e 10e6 643e
000000c0: 0020 cabd fcd5 d6bd fcb7 babe f8f1 8bbd
000000d0: 7fb1 b9be 5042 f8be 1478 133f 191d f7be
000000e0: 4ed1 96be c61f b03e fcaf 163e dc3c 093f
000000f0: 0e35 6fbe 4458 1d3e 4cfe 6f3e 509d 163e
00000100: a47b fa3e 2056 e13e f4e3 adbe e88c 463e
00000110: 2075 ee3c c887 0c3e b668 973e 503b b03d
00000120: 8013 90be 949b ad3e 1c9c ce3e f421 2f3e
00000130: b0e7 e53d 2e6a 893e fb54 98be 2448 8d3e
00000140: 2064 0b3d 2ef9 ccbe 7dad 9fbe da5c 22be
00000150: d471 07bf 401f 303e ac4a b4bd d220 08bf
00000160: 8c3a 513e d089 43bd 7089 d73d 7487 efbe
00000170: 3443 1b3e c02f 6f3e 82a4 083f b0be f63e
00000180: c8d2 c1bd 0cad 36be 92bf 64be d461 e5be
00000190: 96a5 ba3e f07d a6be 60a8 ff3d 6002 903c
000001a0: c224 08be 3050 073f c3d4 0abf 00e0 49bb
000001b0: 3c9d c23e 3cbc c13e e560 eebe 80ab 45bc
000001c0: c032 df3c c0fd 423d 00b7 e1bb 3fa0 0bbf
000001d0: 56e1 d23e 9223 96be 96f6 ae3e 386c cd3e
000001e0: 50c6 813d 6ce4 333e c96b f0be ac35 94be
000001f0: 0426 99be 5877 dabe 6437 12bf 30cb 32bd
00000200: 5099 163d 58f8 b5be 4a66 973e 7c41 58be
00000210: bd89 84be 509b 5b3e d06b fe3e bc57 053f
00000220: a90f a2be 0f5e f5be 94e5 2e3e 0826 0f3e
00000230: 1019 dd3e 90f4 953e e442 ecbe 003a a0bd
00000240: 40c1 7abc ec55 313e 2cf8 f23e b469 553e
00000250: bdfb 00bf 4245 0fbf 5478 193e c285 77be
00000260: 324d b43e 8e74 ddbe 00b9 2e3e a897 0c3f
00000270: 88be 25be 80c1 29bc 8088 e03d 5ae5 c43e
00000280: 740d 213e 54bb fe3e b4c8 03be 36ef c7be
00000290: ba17 ba3e c660 15be f837 a4bd 84f9 25be
000002a0: 701f 463e b9c8 e7be 80aa e23e aa65 8f3e
000002b0: ccc7 2bbe 2010 debe 77d5 fcbe 0483 0c3f
000002c0: f06b 0fbe 6214 a33e 98f6 eb3e 026d d3be
000002d0: 7c7d 983e 0e56 0cbe 08c4 1ebe ca4c b5be
000002e0: 611a 07bf 06bf 843e 1609 af3e 809b c53e
000002f0: c081 0e3f 3a40 78be a87c 4abe eee6 73be

fc.0.bias f4 [64]
0.49670923 0.52047014 -0.08183566 0.12849623 0.447219 0.31796157 -0.27022687 -0.44098765
0.39157492 0.22410887 -0.0808931 -0.52582115 0.44032001 -0.5176021 -0.25609803 -0.4097823
0.4177642 -0.13864604 0.1866563 -0.4694004 0.27610558 0.272704 0.12048817 0.47280335
0.26119435 0.15937304 0.006508827 -0.035608888 0.23940778 -0.20112282 0.36745942 0.53543913
0.020135164 0.4200564 0.4524641 -0.41075623 0.032449603 -0.5285291 0.42572582 0.084917426
-0.46622774 0.3733396 0.082871795 -0.41904056 0.13016939 0.06710768 -0.18221995 -0.18348819
0.31731373 -0.05464661 -0.5248928 0.36651284 -0.5521393 -0.15217802 0.5638839 -0.09033838
-0.14383087 0.23630661 0.23828757 -0.3323013 0.4153645 0.3062706 -0.12376541 -0.55666345
00000000: ac50 fe3e 883d 053f 7499 a7bd 8494 033e
00000010: e4f9 e43e dccb a23e 2d5b 8abe 22c9 e1be
00000020: 827c c83e cc7c 653e 48ab a5bd 379c 06bf
00000030: a071 e13e 9281 04bf 481f 83be fcce d1be
00000040: 30e5 d53e 3af9 0dbe d422 3f3e 4055 f0be
00000050: b65d 8d3e dc9f 8b3e 80c2 f63d 4813 f23e
00000060: 44bb 853e b032 233e 0048 d53b a0da 11bd
00000070: 5027 753e 24f3 4dbe a423 bc3e 8a12 093f
00000080: 80f2 a43c a211 d73e 60a9 e73e a44e d2be
00000090: e0e9 043d af4d 07bf bcf8 d93e 30e9 ad3d
000000a0: 67b5 eebe 5e26 bf3e b0b8 a93d 7c8c d6be
000000b0: 204b 053e c06f 893d de97 3abe 54e4 3bbe
000000c0: f276 a23e 20d5 5fbd 605f 06bf 92a7 bb3e
000000d0: 0059 0dbf 8ed4 1bbe b25a 103f 5403 b9bd
000000e0: 6648 13be 5cfa 713e a801 743e 6523 aabe
000000f0: a8aa d43e 80cf 9c3e b878 fdbd 7f81 0ebf

fc.2.weight f4 [64, 64]
-0.03027144 0.046135247 0.07866675 -0.100383714 0.07562965 -0.122439906 0.042417288 -0.016057894
0.09203668 0.037846163 0.061974496 0.026213586 -0.09109005 -0.08911727 -0.047923446 -0.015808195
-0.038615808 -0.104506746 0.07711108 -0.08832426 0.040486053 -0.109128594 -0.0011974424 0.04543321
-0.117590964 -0.050991982 -0.09427449 -0.06659424 -0.06441264 -0.010597467 0.10082811 0.060096055
0.08913617 0.05678536 0.030032516 0.013425112 -0.04536508 -0.11606242 -0.05668336 -0.061347723
0.06839922 0.0589357 -0.006497115 0.027185574 -0.109902024 -0.06625906 0.010161668 -0.09290594
-0.11811133 0.0024164617 -0.048579603 0.030890107 0.039916024 -0.07563271 0.085728705 0.015447095
0.10677411 0.060179844 0.06640765 -0.05186379 0.0496338 -0.116602674 -0.108566955 0.054215595
-0.027607337 0.084066406 -0.020353422 -0.09567514 0.11878684 0.026912317 -0.03376469 -0.011991918
-0.01792942 -0.037941173 -0.014335066 -0.12394515 -0.06654821 0.05587414 -0.050216705 -0.08550827
-0.0015539229 -0.076316 0.05330479 -0.01530236 0.061986804 -0.11376713 0.030845568 0.017292008
0.1181484 0.0855197 0.10750076 -0.022406831 0.11549926 -0.045522958 -0.11965081 -0.06251331
-0.06694482 0.0074038953 0.029221252 0.014076561 -0.035897374 -0.033429638 0.115392864 0.09260385
0.0829228 0.0951173 -0.075710416 -0.091618225 0.08116664 -0.07519184 0.06904572 -0.001675114
0.015141696 -0.103560135 -0.0149549395 -0.120440036 -0.006693989 -0.02514495 -0.078163594 -0.020341933
0.08549243 0.10930449 0.011159912 -0.098072916 -0.025103107 -0.106439844 0.09556636 -0.03967318
-0.0809291 -0.006807938 0.07467258 -0.011627629 0.033743694 -0.11114985 0.09687683 0.067102045
-0.11486836 -0.12275295 -0.059747726 -0.09455828 0.06382279 -0.027483568 -0.059687838 -0.037478685
-0.070488155 -0.1159427 0.10199945 0.074518725 0.079309046 -0.010097772 0.08334857 0.09772782
0.05700746 -0.08982766 -0.10556942 0.10521841 -0.010872126 -0.031435028 0.034989268 -0.07277183
-0.055647895 0.06315063 0.11728576 0.10931049 0.106754705 0.004934475 0.0075658113 0.07270563
0.03415799 0.049941674 -0.008282483 0.084391385 0.07233228 0.046605036 -0.023607165 -0.04836774
-0.04236722 -0.057185113 0.12323721 -0.0048301965 -0.036352262 0.004854709 0.12339769 0.10302566
-0.031579256 0.07899997 -0.018142566 0.07595076 0.124752074 -0.10903394 -0.06830306 0.1027378
-0.06799246 -0.11871916 -0.082445264 0.039223045 -0.035620883 -0.06430337 0.046017453 0.033055484
0.009521976 0.063011095 0.034470975 0.07328586 -0.1033756 0.08268306 0.070855126 0.075500116
0.12409809 0.050706267 -0.012090623 0.07904352 -0.08829296 0.11153546 -0.077962086 -0.06584163
0.06300503 -0.037977174 -0.119243085 0.051913127 -0.122596875 -0.09122643 -0.06812346 -0.10284603
-0.0004541129 0.07012558 0.06702323 0.10354848 0.030237824 0.10430777 -0.06556478 0.06497258
-0.012348741 -0.07481371 0.06436019 0.030370161 0.054261565 -0.08018032 0.01595074 0.021013215
0.058377847 0.03053099 0.0015998483 0.052780464 -0.12057921 -0.02019374 0.11061749 0.11015019
-0.035618246 0.015733838 0.06890671 -0.098615706 0.022540733 0.054065302 0.05324529 0.024278462
00000000: d0fb f7bc 50f8 3c3d 081c a13d fa95 cdbd
00000010: b8e3 9a3d c6c1 fabd c0bd 2d3d d88b 83bc
00000020: ba7d bc3d 9404 1b3d f8d8 7d3d e0bd d63c
00000030: 6c8d babd 1e83 b6bd 604b 44bd 3080 81bc
00000040: 9c2b 1ebd a207 d6bd 6aec 9d3d 5ae3 b4bd
00000050: b4d4 253d d07e dfbd 80f3 9cba 2c18 3a3d
00000060: 88d3 f0bd f8dc 50bd fc12 c1bd 9062 88bd
00000070: c6ea 83bd 00a1 2dbc f87e ce3d 4827 763d
00000080: 068d b63d c497 683d c006 f63c 00f5 5b3c
00000090: bcd0 39bd 22b2 edbd d02c 68bd c047 7bbd
000000a0: e414 8c3d 9066 713d c0e5 d4bb 48b4 de3c
000000b0: 5014 e1bd d4b2 87bd 207d 263c 7845 bebd
000000c0: 5ae4 f1bd 805d 1e3b 68fb 46bd 400d fd3c
000000d0: fc7e 233d 52e5 9abd 8892 af3d d015 7d3c
000000e0: 62ac da3d 247f 763d bc00 883d 206f 54bd
000000f0: d04c 4b3d 62cd eebd 5a58 debd 2c11 5e3d
00000100: c828 e2bc 022b ac3d 38bc a6bc 54f1 c3bd
00000110: 8446 f33d 3877 dc3c d84c 0abd c079 44bc
00000120: b8e0 92bc 3468 1bbd a0dd 6abc f4d6 fdbd
00000130: 6e4a 88bd 48dc 643d 08b0 4dbd f61e afbd
00000140: 00ad cbba 904b 9cbd 2056 5a3d c0b6 7abc
00000150: e0e5 7d3d befe e8bd d8af fc3c f8a7 8d3c
00000160: caf7 f13d f424 af3d 5c29 dc3d 888e b7bc
00000170: e08a ec3d 4876 3abd 7c0b f5bd fa06 80bd
00000180: 5e1a 89bd 609c f23b 6861 ef3c 60a1 663c
00000190: 2009 13bd 84ed 08bd 1853 ec3d 16a7 bd3d
000001a0: 6ed3 a93d dccc c23d 100e 9bbd 56a2 bbbd
000001b0: b23a a63d 2efe 99bd d867 8d3d 808f dbba
000001c0: e014 783c 5617 d4bd 9005 75bc 44a9 f6bd
000001d0: 4059 dbbb c8fc cdbc 3c14 a0bd 20a4 a6bc
000001e0: a816 af3d 08db df3d 10d8 363c 74da c8bd
000001f0: 08a5 cdbc 22fd d9bd 4cb8 c33d 5880 22bd
00000200: 28be a5bd 2015 dfbb f0ed 983d d081 3ebc
00000210: d436 0a3d 88a2 e3bd 5c67 c63d cc6c 893d
00000220: 1a40 ebbd e665 fbbd 08ba 74bd c6a7 c1bd
00000230: 86b5 823d 3825 e1bc 3c7b 74bd 4083 19bd
00000240: 185c 90bd 5e73 edbd 16e5 d03d 469d 983d
00000250: c86c a23d 2071 25bc a8b2 aa3d 8625 c83d
00000260: a880 693d 90f7 b7bd c834 d8bd c07c d73d
00000270: 0021 32bc 04c2 00bd e850 0f3d 6609 95bd
00000280: 0cef 63bd 1e55 813d 8433 f03d 2ede df3d
00000290: 36a2 da3d 60b1 a13b a0ea f73b b0e6 943d
000002a0: 40e9 0b3d a48f 4c3d 40b3 07bc 64d5 ac3d
000002b0: f222 943d ece4 3e3d d063 c1bc 401d 46bd
000002c0: 4089 2dbd f03a 6abd ca63 fc3d a046 9ebb
000002d0: 1ce6 14bd 4014 9f3b eeb7 fc3d 1eff d23d
000002e0: 4059 01bd bcca a13d b89f 94bc 128c 9b3d
000002f0: 047e ff3d 304d dfbd 7ae2 8bbd 3268 d23d
00000300: a23f 8bbd 0823 f3bd 10d9 a8bd 58a8 203d
00000310: 34e7 11bd 7cb1 83bd cc7c 3c3d 3065 073d
00000320: 1002 1c3c f60b 813d 7031 0d3d e616 963d
00000330: 96b6 d3bd bc55 a93d 7e1c 913d ce9f 9a3d
00000340: 2427 fe3d 60b1 4f3d c017 46bc 92e1 a13d
00000350: f0d2 b4bd b46c e43d 96aa 9fbd fad7 86bd
00000360: c808 813d f48d 1bbd b835 f4bd dca2 543d
00000370: 1214 fbbd ecd4 babd 5084 8bbd f0a0 d2bd
00000380: 0016 eeb9 009e 8f3d 7a43 893d 3a11 d43d
00000390: 50b5 f73c 509f d53d d446 86bd 5810 853d
000003a0: 6052 4abc ee37 99bd 46cf 833d d8ca f83c
000003b0: 6041 5e3d 9435 a4bd 20ab 823c e823 ac3c
000003c0: 9c1d 6f3d 201c fa3c 00b2 d13a 5430 583d
000003d0: 3cf2 f6bd 586d a5bc 6c8b e23d 6c96 e13d
000003e0: 70e4 11bd 40e4 803c f61e 8d3d 08f7 c9bd
000003f0: 58a7 b83c 9473 5d3d bc17 5a3d a0e3 c63c

fc.2.bias f4 [64]
0.059293658 -0.005508676 0.05563806 0.08054593 -0.0058569014 -0.0076019466 -0.0449332 0.08585045
0.096999586 -0.005342439 -0.04169427 -0.0716086 0.019482076 -0.00045108795 0.0012022555 0.11191881
-0.025633708 -0.034762368 0.021131292 0.095860645 0.07318339 0.023112401 -0.015202239 -0.005982518
0.092812926 -0.020750836 0.043696567 -0.015763998 -0.039900243 -0.12409744 -0.032765806 -0.11757201
0.12326743 -0.10803793 -0.10004419 0.04768166 0.05954419 -0.015088037 0.024150386 0.08770694
-0.06922273 -0.03491454 0.030502811 0.02498877 0.022205293 0.046250194 0.118399024 0.06377521
0.026058987 -0.11098686 -0.07040775 -0.013853475 0.016822755 -0.059416994 0.07599501 -0.088366866
-0.05741544 -0.05004482 -0.002721116 0.0380176 0.08285038 -0.034856975 0.06322567 0.11253971
00000000: e8dd 723d 2082 b4bb bce4 633d 44f5 a43d
00000010: 40eb bfbb c019 f9bb e00b 38bd 5cd2 af3d
00000020: b8a7 c63d a00f afbb 9cc7 2abd 88a7 92bd
00000030: e098 9f3c 0080 ecb9 0095 9d3a b035 e53d
00000040: c8fd d1bc fc62 0ebd 881b ad3c 9652 c43d
00000050: 2ce1 953d 3856 bd3c d012 79bc 0009 c4bb
00000060: b414 be3d a8fd a9bc 2cfb 323d 8023 81bc
00000070: 706e 23bd cc26 febd 7035 06bd 98c9 f0bd
00000080: a273 fc3d fe42 ddbd f8e3 ccbd d84d 433d
00000090: 9ce4 733d d033 77bc 08d7 c53c b29f b33d
000000a0: a6c4 8dbd 8c02 0fbd 08e1 f93c 40b5 cc3c
000000b0: e0e7 b53c d870 3d3d 307b f23d 949c 823d
000000c0: a879 d53c 144d e3bd f031 90bd b0f9 62bc
000000d0: e0cf 893c 3c5f 73bd 46a3 9b3d b0f9 b4bd
000000e0: 742c 6bbd ccfb 4cbd c054 32bb 58b8 1b3d
000000f0: 76ad a93d 30c6 0ebd 767c 813d 387b e63d

fc.4.weight f4 [6, 64]
0.0633132 -0.07021734 -0.1122808 -0.053536892 -0.106450304 0.03868121 -0.09026007 0.12241143
0.012373596 0.014254183 -0.06272295 -0.10659394 0.07871275 -0.089978695 0.047518045 -0.028790593
-0.019101664 0.09433578 0.11628777 0.019963995 -0.044504642 -0.08716732 0.07130778 0.03229496
0.08989981 0.10493924 0.11834569 0.04077883 0.055655524 0.04097429 -0.114620104 0.077912405
0.08493768 0.04991415 -0.102582484 -0.009903535 0.0018223524 -0.031563923 0.056811035 -0.035108462
-0.06616683 0.11175059 0.035222575 0.03615512 0.09682174 0.0045393705 -0.06586179 -0.09921828
0.08215155 -0.010180458 0.10644831 0.116391495 -0.010077611 -0.11169344 0.12330827 0.087417886
-0.07395737 0.052060768 0.12031545 -0.10919173 0.01091741 -0.025524616 -0.04097262 -0.010122851
-0.0675738 -0.10619043 -0.009025276 0.07712704 0.04709345 -0.05553949 -0.029478148 -0.071547255
-0.06920026 -0.095812544 -0.0971335 0.054473862 0.114372745 -0.075796366 -0.10051432 0.11342046
-0.0816631 0.039348096 -0.0469092 0.049246594 -0.016475111 -0.033988938 -0.007698208 0.1115714
0.10001837 -0.0710275 0.052072167 0.06301427 -0.06847657 0.08893894 0.09958248 0.072537065
-0.08554618 -0.11202885 -0.05588889 0.039729193 0.11612138 0.03823152 0.022127435 -0.042792752
-0.10899007 0.087753356 -0.03866698 -0.09351058 -0.016566798 -0.04410526 0.11385709 -0.089519516
0.050288856 0.101921156 -0.023431152 0.118297264 0.06332165 -0.018368825 0.101749465 -0.09806955
0.101514876 0.10593158 0.034622088 0.008668944 -0.05477406 -0.023324132 0.0038542747 0.049795642
-0.06278686 -0.06392029 0.04253213 0.004233077 0.03101118 -0.08967675 -0.03868729 -0.1158337
0.09945521 0.023169473 -0.033079073 0.06173992 -0.12186113 0.1084812 -0.100578055 0.0015326589
-0.0057510585 -0.045432 -0.006741032 0.1112854 0.10004653 -0.044641912 0.03605205 -0.0047826916
0.12180255 0.104192704 -0.11732808 -0.09274706 0.09523459 -0.026081473 -0.008919135 -0.005169809
-0.058137134 -0.017572284 -0.03259921 -0.10977706 0.08282028 -0.11877942 -0.08498676 0.04723823
0.06738283 0.11767538 0.12480904 0.0518696 -0.038991675 0.015842557 0.1036028 -0.07292274
-0.032822385 -0.027482554 0.028275445 0.029567778 -0.105288744 0.08000003 -0.04322791 0.086017475
-0.051682293 -0.052563146 0.0043547302 0.09134193 -0.09745623 0.070535734 0.04560131 0.11986953
0.040757284 0.044619292 -0.07960664 -0.0010643154 -0.060355946 0.118603215 0.04106924 -0.09757659
0.005936146 0.05005178 -0.032615438 -0.023487747 0.01594986 0.0021882504 -0.08898659 0.08884555
0.00936763 0.11502291 -0.034379125 0.030210122 -0.115686655 0.053700775 -0.027081832 0.082449704
-0.11923775 0.04301174 0.03840138 0.053047866 0.0571063 -0.024382085 0.079608545 0.030125037
0.0673026 0.043424964 -0.07527812 0.013931811 0.028414264 0.12120123 -0.107215464 -0.0986705
-0.050382867 -0.06038566 -0.0017676502 0.045669198 -0.07874963 0.048525527 0.10861908 0.009604678
-0.119130895 -0.08680071 0.049892113 -0.028899431 -0.06788571 -0.04349649 0.10641226 0.07910308
0.06571734 0.031821504 0.1077224 0.05434756 -0.06261423 -0.06715897 -0.043872908 0.019986182
00000000: 5aaa 813d 1cce 8fbd 7af3 e5bd 8049 5bbd
00000010: 9e02 dabd 3070 1e3d 46da b8bd d8b2 fa3d
00000020: a0ba 4a3c 608a 693c e474 80bd ec4d dabd
00000030: 2634 a13d c046 b8bd 48a2 423d 40da ebbc
00000040: 187b 9cbc 1e33 c13d 4828 ee3d 888b a33c
00000050: 804a 36bd c884 b2bd d009 923d b847 043d
00000060: 641d b83d 62ea d63d 3a5f f23d b407 273d
00000070: 0cf7 633d a8d4 273d f2bd eabd 8a90 9f3d
00000080: cef3 ad3d c872 4c3d c416 d2bd 7042 22bc
00000090: 00dc ee3a 2c49 01bd b0b2 683d e4cd 0fbd
000000a0: 7a82 87bd 7edd e43d 8c45 103d 6417 143d
000000b0: 7a4a c63d 00bf 943b 8ce2 86bd f432 cbbd
000000c0: 123f a83d f0cb 26bc 9201 da3d aa5e ee3d
000000d0: 901c 25bc 88bf e4bd 0c89 fc3d 2608 b33d
000000e0: f676 97bd ac3d 553d f267 f63d ea9f dfbd
000000f0: f0de 323c 0019 d1bc e8d2 27bd 50da 25bc
00000100: 2264 8abd 5e7a d9bd c0de 13bc c8f4 9d3d
00000110: 10e5 403d 607d 63bd 287c f1bc 5e87 92bd
00000120: deb8 8dbd 5e39 c4bd eeed c6bd fc1f 5f3d
00000130: 423c ea3d 203b 9bbd 74da cdbd fc48 e83d
00000140: fc3e a7bd 782b 213d dc23 40bd ccb6 493d
00000150: d0f6 86bc fc37 0bbd 4041 fcbb 8c7f e43d
00000160: 6ed6 cc3d de76 91bd a049 553d a00d 813d
00000170: 723d 8cbd 9e25 b63d e6f1 cb3d 508e 943d
00000180: d632 afbd 626f e5bd c0eb 64bd 14bb 223d
00000190: 0cd1 ed3d a898 1c3d 9844 b53c 7447 2fbd
000001a0: 3036 dfbd 08b8 b33d 4461 1ebd 7a82 bfbd
000001b0: 18b7 87bc b8a7 34bd e82d e93d 0256 b7bd
000001c0: b0fb 4d3d 0abc d03d b0f2 bfbc d645 f23d
000001d0: c8ae 813d 387a 96bc 0662 d03d b0d8 c8bd
000001e0: 08e7 cf3d a8f2 d83d e4cf 0d3d 3008 0e3c
000001f0: c45a 60bd 4012 bfbc 0098 7c3b 84f6 4b3d
00000200: 6696 80bd a4e8 82bd 2c36 2e3d a0b5 8a3b
00000210: 280b fe3c 72a8 b7bd 9076 1ebd 383a edbd
00000220: 2caf cb3d e8cd bd3c ec7d 07bd 00e3 7c3d
00000230: 5492 f9bd 642b de3d defb cdbd 80e3 c83a
00000240: 6073 bcbb e816 3abd e0e3 dcbb 9ae9 e33d
00000250: 32e5 cc3d 70da 36bd 50ab 133d 20b8 9cbb
00000260: 9e73 f93d fc62 d53d b449 f0bd 2cf2 bdbd
00000270: 5a0a c33d d0a8 d5bc 9021 12bc 8067 a9bb
00000280: 3421 6ebd c0f3 8fbc c086 05bd ccd2 e0bd
00000290: ae9d a93d a042 f3bd 8a0d aebd e07c 413d
000002a0: 0200 8a3d caff f03d e29b ff3d 3875 543d
000002b0: bcb5 1fbd 40c8 813c b42d d43d 8458 95bd
000002c0: c470 06bd 1823 e1bc e8a1 e73c 2038 f23c
000002d0: a0a1 d7bd 0ed7 a33d c00f 31bd ee29 b03d
000002e0: d0b0 53bd 744c 57bd 20b2 8e3b 7a11 bb3d
000002f0: 2297 c7bd 0a75 903d 70c8 3a3d 287e f53d
00000300: 1cf1 263d b8c2 363d ce08 a3bd 8080 8bba
00000310: cc37 77bd 3ee6 f23d 3838 283d 3cd6 c7bd
00000320: 0084 c23b 1803 4d3d c497 05bd 6069 c0bc
00000330: 48a9 823c c068 0f3b 9a3e b6bd a8f4 b53d
00000340: b07a 193c 2291 eb3d 20d1 0cbd 387b f73c
00000350: 20ed ecbd 58f5 5b3d b8da ddbc 64db a83d
00000360: ec32 f4bd 142d 303d c44a 1d3d b848 593d
00000370: 4ce8 693d f0bc c7bc ce09 a33d c8c8 f63c
00000380: f2d5 893d 60de 313d 6a2b 9abd 4042 643c
00000390: 08c5 e83c 5a38 f83d c893 dbbd c213 cabd
000003a0: 445e 4ebd f456 77bd 80b0 e7ba a00f 3b3d
000003b0: 7c47 a1bd b4c2 463d ae73 de3d f05c 1d3c
000003c0: e6fa f3bd 92c4 b1bd ac5b 4c3d 80be ecbc
000003d0: aa07 8bbd 6029 32bd acee d93d cc00 a23d
000003e0: d096 863d 4457 023d 909d dc3d 8c9b 5e3d
000003f0: e43b 80bd a48a 89bd 14b4 33bd 10ba a33c

fc.4.bias f4 [6]
0.042160884 -0.057892308 -0.101535186 0.063543454 -0.056799993 0.0049987584
00000000: e4b0 2c3d 7c20 6dbd aef1 cfbd 1223 823d
00000010: 1ca7 68bd a0cc a33b

fc.0.weight f4 [64, 3]
-0.33481362 -0.5084182 0.29696786 0.06939918 -0.24107659 0.005889237 -0.075274944 -0.022491992
-0.2665262 0.36132646 0.24010473 -0.0006483793 0.07259679 0.38450247 -0.24919105 0.09696722
-0.45940426 -0.42152494 0.12916291 -0.3722844 -0.2109423 0.25234395 -0.52975595 -0.19080967
0.29786718 -0.36011663 0.15463185 0.5681219 -0.25178513 -0.12008965 -0.14984134 -0.3524993
-0.13705939 -0.5335051 0.47485924 -0.3667473 0.21333498 -0.2996592 0.23674881 -0.40597108
0.03992921 -0.5740195 -0.37339625 0.43375266 -0.22711352 -0.49122208 0.44701838 0.22353387
-0.09869385 -0.10490033 -0.36468494 -0.06833261 -0.3626823 -0.48488092 0.576051 -0.48264387
-0.29456562 0.3439924 0.1471557 0.5360849 -0.23360083 0.15365702 0.2343685 0.14708447
0.48922455 0.4401102 -0.33962977 0.19389689 0.029108584 0.13723671 0.29572076 0.08605063
-0.28139877 0.3390776 0.40353477 0.17102796 0.112258315 0.2683882 -0.29752335 0.275941
0.034031034 -0.4003386 -0.3118705 -0.15855733 -0.5290806 0.17199421 -0.08803305 -0.5317508
0.2043249 -0.04773885 0.10524261 -0.4678303 0.15162355 0.23358059 0.5337602 0.48192358
-0.094640315 -0.1783945 -0.22338703 -0.448012 0.36454457 -0.32517958 0.12483287 0.017579257
-0.13295272 0.5285673 -0.542309 -0.003080368 0.38010585 0.37838924 -0.465583 -0.012064815
0.02724588 0.047605276 -0.0068882704 -0.5454139 0.41187543 -0.29324013 0.34172505 0.40121627
0.06336653 0.17567605 -0.46957234 -0.28947198 -0.29911816 -0.42669177 -0.5711577 -0.043650806
0.036767304 -0.35541034 0.29570228 -0.2111873 -0.25886336 0.21445966 0.4969163 0.52087
-0.31652573 -0.47923324 0.17079765 0.13979352 0.43183184 0.2928815 -0.46144783 -0.078235626
-0.015304863 0.17317933 0.47454965 0.20841104 -0.5038412 -0.55965054 0.14987308 -0.24172118
0.35215145 -0.43252987 0.1706276 0.5491891 -0.16185963 -0.010361075 0.10963535 0.3845623
0.15727788 0.49752295 -0.12869531 -0.3904969 0.36346227 -0.14587697 -0.08018488 -0.16208464
0.1934793 -0.45270327 0.44270706 0.2800725 -0.16775435 -0.43371677 -0.4938161 0.54887414
-0.14006019 0.31851488 0.46086574 -0.41294104 0.29783237 -0.13704702 -0.15504467 -0.35410148
-0.52774626 0.2592699 0.3418662 0.385952 0.5566673 -0.2424325 -0.19774115 -0.23818561
00000000: b16c abbe b227 02bf 2c0c 983e 2821 8e3d
00000010: c8dc 76be 80fa c03b c029 9abd 2041 b8bc
00000020: 1f76 88be c8ff b83e 04de 753e 00f8 29ba
00000030: a0ad 943d 82dd c43e f02b 7fbe c096 c63d
00000040: 0937 ebbe 1ed2 d7be 4843 043e 109c bebe
00000050: 4201 58be 3a33 813e 169e 07bf 9c63 43be
00000060: 0c82 983e 3561 b8be d057 1e3e 7070 113f
00000070: fbe9 80be 90f1 f5bd 0270 19be ca7a b4be
00000080: 4c59 0cbe ca93 08bf c020 f33e 4dc6 bbbe
00000090: 7c74 5a3e ee6c 99be 486e 723e 71db cfbe
000000a0: d08c 233d f1f2 12bf cb2d bfbe d414 de3e
000000b0: 7290 68be 7681 fbbe 98df e43e 10e6 643e
000000c0: 0020 cabd fcd5 d6bd fcb7 babe f8f1 8bbd
000000d0: 7fb1 b9be 5042 f8be 1478 133f 191d f7be
000000e0: 4ed1 96be c61f b03e fcaf 163e dc3c 093f
000000f0: 0e35 6fbe 4458 1d3e 4cfe 6f3e 509d 163e
00000100: a47b fa3e 2056 e13e f4e3 adbe e88c 463e
00000110: 2075 ee3c c887 0c3e b668 973e 503b b03d
00000120: 8013 90be 949b ad3e 1c9c ce3e f421 2f3e
00000130: b0e7 e53d 2e6a 893e fb54 98be 2448 8d3e
00000140: 2064 0b3d 2ef9 ccbe 7dad 9fbe da5c 22be
00000150: d471 07bf 401f 303e ac4a b4bd d220 08bf
00000160: 8c3a 513e d089 43bd 7089 d73d 7487 efbe
00000170: 3443 1b3e c02f 6f3e 82a4 083f b0be f63e
00000180: c8d2 c1bd 0cad 36be 92bf 64be d461 e5be
00000190: 96a5 ba3e f07d a6be 60a8 ff3d 6002 903c
000001a0: c224 08be 3050 073f c3d4 0abf 00e0 49bb
000001b0: 3c9d c23e 3cbc c13e e560 eebe 80ab 45bc
000001c0: c032 df3c c0fd 423d 00b7 e1bb 3fa0 0bbf
000001d0: 56e1 d23e 9223 96be 96f6 ae3e 386c cd3e
000001e0: 50c6 813d 6ce4 333e c96b f0be ac35 94be
000001f0: 0426 99be 5877 dabe 6437 12bf 30cb 32bd
00000200: 5099 163d 58f8 b5be 4a66 973e 7c41 58be
00000210: bd89 84be 509b 5b3e d06b fe3e bc57 053f
00000220: a90f a2be 0f5e f5be 94e5 2e3e 0826 0f3e
00000230: 1019 dd3e 90f4 953e e442 ecbe 003a a0bd
00000240: 40c1 7abc ec55 313e 2cf8 f23e b469 553e
00000250: bdfb 00bf 4245 0fbf 5478 193e c285 77be
00000260: 324d b43e 8e74 ddbe 00b9 2e3e a897 0c3f
00000270: 88be 25be 80c1 29bc 8088 e03d 5ae5 c43e
00000280: 740d 213e 54bb fe3e b4c8 03be 36ef c7be
00000290: ba17 ba3e c660 15be f837 a4bd 84f9 25be
000002a0: 701f 463e b9c8 e7be 80aa e23e aa65 8f3e
000002b0: ccc7 2bbe 2010 debe 77d5 fcbe 0483 0c3f
000002c0: f06b 0fbe 6214 a33e 98f6 eb3e 026d d3be
000002d0: 7c7d 983e 0e56 0cbe 08c4 1ebe ca4c b5be
000002e0: 611a 07bf 06bf 843e 1609 af3e 809b c53e
000002f0: c081 0e3f 3a40 78be a87c 4abe eee6 73be

fc.0.bias f4 [64]
0.49670923 0.52047014 -0.08183566 0.12849623 0.447219 0.31796157 -0.27022687 -0.44098765
0.39157492 0.22410887 -0.0808931 -0.52582115 0.44032001 -0.5176021 -0.25609803 -0.4097823
0.4177642 -0.13864604 0.1866563 -0.4694004 0.27610558 0.272704 0.12048817 0.47280335
0.26119435 0.15937304 0.006508827 -0.035608888 0.23940778 -0.20112282 0.36745942 0.53543913
0.020135164 0.4200564 0.4524641 -0.41075623 0.032449603 -0.5285291 0.42572582 0.084917426
-0.46622774 0.3733396 0.082871795 -0.41904056 0.13016939 0.06710768 -0.18221995 -0.18348819
0.31731373 -0.05464661 -0.5248928 0.36651284 -0.5521393 -0.15217802 0.5638839 -0.09033838
-0.14383087 0.23630661 0.23828757 -0.3323013 0.4153645 0.3062706 -0.12376541 -0.55666345
00000000: ac50 fe3e 883d 053f 7499 a7bd 8494 033e
00000010: e4f9 e43e dccb a23e 2d5b 8abe 22c9 e1be
00000020: 827c c83e cc7c 653e 48ab a5bd 379c 06bf
00000030: a071 e13e 9281 04bf 481f 83be fcce d1be
00000040: 30e5 d53e 3af9 0dbe d422 3f3e 4055 f0be
00000050: b65d 8d3e dc9f 8b3e 80c2 f63d 4813 f23e
00000060: 44bb 853e b032 233e 0048 d53b a0da 11bd
00000070: 5027 753e 24f3 4dbe a423 bc3e 8a12 093f
00000080: 80f2 a43c a211 d73e 60a9 e73e a44e d2be
00000090: e0e9 043d af4d 07bf bcf8 d93e 30e9 ad3d
000000a0: 67b5 eebe 5e26 bf3e b0b8 a93d 7c8c d6be
000000b0: 204b 053e c06f 893d de97 3abe 54e4 3bbe
000000c0: f276 a23e 20d5 5fbd 605f 06bf 92a7 bb3e
000000d0: 0059 0dbf 8ed4 1bbe b25a 103f 5403 b9bd
000000e0: 6648 13be 5cfa 713e a801 743e 6523 aabe
000000f0: a8aa d43e 80cf 9c3e b878 fdbd 7f81 0ebf

fc.2.weight f4 [64, 64]
-0.03027144 0.046135247 0.07866675 -0.100383714 0.07562965 -0.122439906 0.042417288 -0.016057894
0.09203668 0.037846163 0.061974496 0.026213586 -0.09109005 -0.08911727 -0.047923446 -0.015808195
-0.038615808 -0.104506746 0.07711108 -0.08832426 0.040486053 -0.109128594 -0.0011974424 0.04543321
-0.117590964 -0.050991982 -0.09427449 -0.06659424 -0.06441264 -0.010597467 0.10082811 0.060096055
0.08913617 0.05678536 0.030032516 0.013425112 -0.04536508 -0.11606242 -0.05668336 -0.061347723
0.06839922 0.0589357 -0.006497115 0.027185574 -0.109902024 -0.06625906 0.010161668 -0.09290594
-0.11811133 0.0024164617 -0.048579603 0.030890107 0.039916024 -0.07563271 0.085728705 0.015447095
0.10677411 0.060179844 0.06640765 -0.05186379 0.0496338 -0.116602674 -0.108566955 0.054215595
-0.027607337 0.084066406 -0.020353422 -0.09567514 0.11878684 0.026912317 -0.03376469 -0.011991918
-0.01792942 -0.037941173 -0.014335066 -0.12394515 -0.06654821 0.05587414 -0.050216705 -0.08550827
-0.0015539229 -0.076316 0.05330479 -0.01530236 0.061986804 -0.11376713 0.030845568 0.017292008
0.1181484 0.0855197 0.10750076 -0.022406831 0.11549926 -0.045522958 -0.11965081 -0.06251331
-0.06694482 0.0074038953 0.029221252 0.014076561 -0.035897374 -0.033429638 0.115392864 0.09260385
0.0829228 0.0951173 -0.075710416 -0.091618225 0.08116664 -0.07519184 0.06904572 -0.001675114
0.015141696 -0.103560135 -0.0149549395 -0.120440036 -0.006693989 -0.02514495 -0.078163594 -0.020341933
0.08549243 0.10930449 0.011159912 -0.098072916 -0.025103107 -0.106439844 0.09556636 -0.03967318
-0.0809291 -0.006807938 0.07467258 -0.011627629 0.033743694 -0.11114985 0.09687683 0.067102045
-0.11486836 -0.12275295 -0.059747726 -0.09455828 0.06382279 -0.027483568 -0.059687838 -0.037478685
-0.070488155 -0.1159427 0.10199945 0.074518725 0.079309046 -0.010097772 0.08334857 0.09772782
0.05700746 -0.08982766 -0.10556942 0.10521841 -0.010872126 -0.031435028 0.034989268 -0.07277183
-0.055647895 0.06315063 0.11728576 0.10931049 0.106754705 0.004934475 0.0075658113 0.07270563
0.03415799 0.049941674 -0.008282483 0.084391385 0.07233228 0.046605036 -0.023607165 -0.04836774
-0.04236722 -0.057185113 0.12323721 -0.0048301965 -0.036352262 0.004854709 0.12339769 0.10302566
-0.031579256 0.07899997 -0.018142566 0.07595076 0.124752074 -0.10903394 -0.06830306 0.1027378
-0.06799246 -0.11871916 -0.082445264 0.039223045 -0.035620883 -0.06430337 0.046017453 0.033055484
0.009521976 0.063011095 0.034470975 0.07328586 -0.1033756 0.08268306 0.070855126 0.075500116
0.12409809 0.050706267 -0.012090623 0.07904352 -0.08829296 0.11153546 -0.077962086 -0.06584163
0.06300503 -0.037977174 -0.119243085 0.051913127 -0.122596875 -0.09122643 -0.06812346 -0.10284603
-0.0004541129 0.07012558 0.06702323 0.10354848 0.030237824 0.10430777 -0.06556478 0.06497258
-0.012348741 -0.07481371 0.06436019 0.030370161 0.054261565 -0.08018032 0.01595074 0.021013215
0.058377847 0.03053099 0.0015998483 0.052780464 -0.12057921 -0.02019374 0.11061749 0.11015019
-0.035618246 0.015733838 0.06890671 -0.098615706 0.022540733 0.054065302 0.05324529 0.024278462
00000000: d0fb f7bc 50f8 3c3d 081c a13d fa95 cdbd
00000010: b8e3 9a3d c6c1 fabd c0bd 2d3d d88b 83bc
00000020: ba7d bc3d 9404 1b3d f8d8 7d3d e0bd d63c
00000030: 6c8d babd 1e83 b6bd 604b 44bd 3080 81bc
00000040: 9c2b 1ebd a207 d6bd 6aec 9d3d 5ae3 b4bd
00000050: b4d4 253d d07e dfbd 80f3 9cba 2c18 3a3d
00000060: 88d3 f0bd f8dc 50bd fc12 c1bd 9062 88bd
00000070: c6ea 83bd 00a1 2dbc f87e ce3d 4827 763d
00000080: 068d b63d c497 683d c006 f63c 00f5 5b3c
00000090: bcd0 39bd 22b2 edbd d02c 68bd c047 7bbd
000000a0: e414 8c3d 9066 713d c0e5 d4bb 48b4 de3c
000000b0: 5014 e1bd d4b2 87bd 207d 263c 7845 bebd
000000c0: 5ae4 f1bd 805d 1e3b 68fb 46bd 400d fd3c
000000d0: fc7e 233d 52e5 9abd 8892 af3d d015 7d3c
000000e0: 62ac da3d 247f 763d bc00 883d 206f 54bd
000000f0: d04c 4b3d 62cd eebd 5a58 debd 2c11 5e3d
00000100: c828 e2bc 022b ac3d 38bc a6bc 54f1 c3bd
00000110: 8446 f33d 3877 dc3c d84c 0abd c079 44bc
00000120: b8e0 92bc 3468 1bbd a0dd 6abc f4d6 fdbd
00000130: 6e4a 88bd 48dc 643d 08b0 4dbd f61e afbd
00000140: 00ad cbba 904b 9cbd 2056 5a3d c0b6 7abc
00000150: e0e5 7d3d befe e8bd d8af fc3c f8a7 8d3c
00000160: caf7 f13d f424 af3d 5c29 dc3d 888e b7bc
00000170: e08a ec3d 4876 3abd 7c0b f5bd fa06 80bd
00000180: 5e1a 89bd 609c f23b 6861 ef3c 60a1 663c
00000190: 2009 13bd 84ed 08bd 1853 ec3d 16a7 bd3d
000001a0: 6ed3 a93d dccc c23d 100e 9bbd 56a2 bbbd
000001b0: b23a a63d 2efe 99bd d867 8d3d 808f dbba
000001c0: e014 783c 5617 d4bd 9005 75bc 44a9 f6bd
000001d0: 4059 dbbb c8fc cdbc 3c14 a0bd 20a4 a6bc
000001e0: a816 af3d 08db df3d 10d8 363c 74da c8bd
000001f0: 08a5 cdbc 22fd d9bd 4cb8 c33d 5880 22bd
00000200: 28be a5bd 2015 dfbb f0ed 983d d081 3ebc
00000210: d436 0a3d 88a2 e3bd 5c67 c63d cc6c 893d
00000220: 1a40 ebbd e665 fbbd 08ba 74bd c6a7 c1bd
00000230: 86b5 823d 3825 e1bc 3c7b 74bd 4083 19bd
00000240: 185c 90bd 5e73 edbd 16e5 d03d 469d 983d
00000250: c86c a23d 2071 25bc a8b2 aa3d 8625 c83d
00000260: a880 693d 90f7 b7bd c834 d8bd c07c d73d
00000270: 0021 32bc 04c2 00bd e850 0f3d 6609 95bd
00000280: 0cef 63bd 1e55 813d 8433 f03d 2ede df3d
00000290: 36a2 da3d 60b1 a13b a0ea f73b b0e6 943d
000002a0: 40e9 0b3d a48f 4c3d 40b3 07bc 64d5 ac3d
000002b0: f222 943d ece4 3e3d d063 c1bc 401d 46bd
000002c0: 4089 2dbd f03a 6abd ca63 fc3d a046 9ebb
000002d0: 1ce6 14bd 4014 9f3b eeb7 fc3d 1eff d23d
000002e0: 4059 01bd bcca a13d b89f 94bc 128c 9b3d
000002f0: 047e ff3d 304d dfbd 7ae2 8bbd 3268 d23d
00000300: a23f 8bbd 0823 f3bd 10d9 a8bd 58a8 203d
00000310: 34e7 11bd 7cb1 83bd cc7c 3c3d 3065 073d
00000320: 1002 1c3c f60b 813d 7031 0d3d e616 963d
00000330: 96b6 d3bd bc55 a93d 7e1c 913d ce9f 9a3d
00000340: 2427 fe3d 60b1 4f3d c017 46bc 92e1 a13d
00000350: f0d2 b4bd b46c e43d 96aa 9fbd fad7 86bd
00000360: c808 813d f48d 1bbd b835 f4bd dca2 543d
00000370: 1214 fbbd ecd4 babd 5084 8bbd f0a0 d2bd
00000380: 0016 eeb9 009e 8f3d 7a43 893d 3a11 d43d
00000390: 50b5 f73c 509f d53d d446 86bd 5810 853d
000003a0: 6052 4abc ee37 99bd 46cf 833d d8ca f83c
000003b0: 6041 5e3d 9435 a4bd 20ab 823c e823 ac3c
000003c0: 9c1d 6f3d 201c fa3c 00b2 d13a 5430 583d
000003d0: 3cf2 f6bd 586d a5bc 6c8b e23d 6c96 e13d
000003e0: 70e4 11bd 40e4 803c f61e 8d3d 08f7 c9bd
000003f0: 58a7 b83c 9473 5d3d bc17 5a3d a0e3 c63c

fc.2.bias f4 [64]
0.059293658 -0.005508676 0.05563806 0.08054593 -0.0058569014 -0.0076019466 -0.0449332 0.08585045
0.096999586 -0.005342439 -0.04169427 -0.0716086 0.019482076 -0.00045108795 0.0012022555 0.11191881
-0.025633708 -0.034762368 0.021131292 0.095860645 0.07318339 0.023112401 -0.015202239 -0.005982518
0.092812926 -0.020750836 0.043696567 -0.015763998 -0.039900243 -0.12409744 -0.032765806 -0.11757201
0.12326743 -0.10803793 -0.10004419 0.04768166 0.05954419 -0.015088037 0.024150386 0.08770694
-0.06922273 -0.03491454 0.030502811 0.02498877 0.022205293 0.046250194 0.118399024 0.06377521
0.026058987 -0.11098686 -0.07040775 -0.013853475 0.016822755 -0.059416994 0.07599501 -0.088366866
-0.05741544 -0.05004482 -0.002721116 0.0380176 0.08285038 -0.034856975 0.06322567 0.11253971
00000000: e8dd 723d 2082 b4bb bce4 633d 44f5 a43d
00000010: 40eb bfbb c019 f9bb e00b 38bd 5cd2 af3d
00000020: b8a7 c63d a00f afbb 9cc7 2abd 88a7 92bd
00000030: e098 9f3c 0080 ecb9 0095 9d3a b035 e53d
00000040: c8fd d1bc fc62 0ebd 881b ad3c 9652 c43d
00000050: 2ce1 953d 3856 bd3c d012 79bc 0009 c4bb
00000060: b414 be3d a8fd a9bc 2cfb 323d 8023 81bc
00000070: 706e 23bd cc26 febd 7035 06bd 98c9 f0bd
00000080: a273 fc3d fe42 ddbd f8e3 ccbd d84d 433d
00000090: 9ce4 733d d033 77bc 08d7 c53c b29f b33d
000000a0: a6c4 8dbd 8c02 0fbd 08e1 f93c 40b5 cc3c
000000b0: e0e7 b53c d870 3d3d 307b f23d 949c 823d
000000c0: a879 d53c 144d e3bd f031 90bd b0f9 62bc
000000d0: e0cf 893c 3c5f 73bd 46a3 9b3d b0f9 b4bd
000000e0: 742c 6bbd ccfb 4cbd c054 32bb 58b8 1b3d
000000f0: 76ad a93d 30c6 0ebd 767c 813d 387b e63d

fc.4.weight f4 [6, 64]
0.0633132 -0.07021734 -0.1122808 -0.053536892 -0.106450304 0.03868121 -0.09026007 0.12241143
0.012373596 0.014254183 -0.06272295 -0.10659394 0.07871275 -0.089978695 0.047518045 -0.028790593
-0.019101664 0.09433578 0.11628777 0.019963995 -0.044504642 -0.08716732 0.07130778 0.03229496
0.08989981 0.10493924 0.11834569 0.04077883 0.055655524 0.04097429 -0.114620104 0.077912405
0.08493768 0.04991415 -0.102582484 -0.009903535 0.0018223524 -0.031563923 0.056811035 -0.035108462
-0.06616683 0.11175059 0.035222575 0.03615512 0.09682174 0.0045393705 -0.06586179 -0.09921828
0.08215155 -0.010180458 0.10644831 0.116391495 -0.010077611 -0.11169344 0.12330827 0.087417886
-0.07395737 0.052060768 0.12031545 -0.10919173 0.01091741 -0.025524616 -0.04097262 -0.010122851
-0.0675738 -0.10619043 -0.009025276 0.07712704 0.04709345 -0.05553949 -0.029478148 -0.071547255
-0.06920026 -0.095812544 -0.0971335 0.054473862 0.114372745 -0.075796366 -0.10051432 0.11342046
-0.0816631 0.039348096 -0.0469092 0.049246594 -0.016475111 -0.033988938 -0.007698208 0.1115714
0.10001837 -0.0710275 0.052072167 0.06301427 -0.06847657 0.08893894 0.09958248 0.072537065
-0.08554618 -0.11202885 -0.05588889 0.039729193 0.11612138 0.03823152 0.022127435 -0.042792752
-0.10899007 0.087753356 -0.03866698 -0.09351058 -0.016566798 -0.04410526 0.11385709 -0.089519516
0.050288856 0.101921156 -0.023431152 0.118297264 0.06332165 -0.018368825 0.101749465 -0.09806955
0.101514876 0.10593158 0.034622088 0.008668944 -0.05477406 -0.023324132 0.0038542747 0.049795642
-0.06278686 -0.06392029 0.04253213 0.004233077 0.03101118 -0.08967675 -0.03868729 -0.1158337
0.09945521 0.023169473 -0.033079073 0.06173992 -0.12186113 0.1084812 -0.100578055 0.0015326589
-0.0057510585 -0.045432 -0.006741032 0.1112854 0.10004653 -0.044641912 0.03605205 -0.0047826916
0.12180255 0.104192704 -0.11732808 -0.09274706 0.09523459 -0.026081473 -0.008919135 -0.005169809
-0.058137134 -0.017572284 -0.03259921 -0.10977706 0.08282028 -0.11877942 -0.08498676 0.04723823
0.06738283 0.11767538 0.12480904 0.0518696 -0.038991675 0.015842557 0.1036028 -0.07292274
-0.032822385 -0.027482554 0.028275445 0.029567778 -0.105288744 0.08000003 -0.04322791 0.086017475
-0.051682293 -0.052563146 0.0043547302 0.09134193 -0.09745623 0.070535734 0.04560131 0.11986953
0.040757284 0.044619292 -0.07960664 -0.0010643154 -0.060355946 0.118603215 0.04106924 -0.09757659
0.005936146 0.05005178 -0.032615438 -0.023487747 0.01594986 0.0021882504 -0.08898659 0.08884555
0.00936763 0.11502291 -0.034379125 0.030210122 -0.115686655 0.053700775 -0.027081832 0.082449704
-0.11923775 0.04301174 0.03840138 0.053047866 0.0571063 -0.024382085 0.079608545 0.030125037
0.0673026 0.043424964 -0.07527812 0.013931811 0.028414264 0.12120123 -0.107215464 -0.0986705
-0.050382867 -0.06038566 -0.0017676502 0.045669198 -0.07874963 0.048525527 0.10861908 0.009604678
-0.119130895 -0.08680071 0.049892113 -0.028899431 -0.06788571 -0.04349649 0.10641226 0.07910308
0.06571734 0.031821504 0.1077224 0.05434756 -0.06261423 -0.06715897 -0.043872908 0.019986182
00000000: 5aaa 813d 1cce 8fbd 7af3 e5bd 8049 5bbd
00000010: 9e02 dabd 3070 1e3d 46da b8bd d8b2 fa3d
00000020: a0ba 4a3c 608a 693c e474 80bd ec4d dabd
00000030: 2634 a13d c046 b8bd 48a2 423d 40da ebbc
00000040: 187b 9cbc 1e33 c13d 4828 ee3d 888b a33c
00000050: 804a 36bd c884 b2bd d009 923d b847 043d
00000060: 641d b83d 62ea d63d 3a5f f23d b407 273d
00000070: 0cf7 633d a8d4 273d f2bd eabd 8a90 9f3d
00000080: cef3 ad3d c872 4c3d c416 d2bd 7042 22bc
00000090: 00dc ee3a 2c49 01bd b0b2 683d e4cd 0fbd
000000a0: 7a82 87bd 7edd e43d 8c45 103d 6417 143d
000000b0: 7a4a c63d 00bf 943b 8ce2 86bd f432 cbbd
000000c0: 123f a83d f0cb 26bc 9201 da3d aa5e ee3d
000000d0: 901c 25bc 88bf e4bd 0c89 fc3d 2608 b33d
000000e0: f676 97bd ac3d 553d f267 f63d ea9f dfbd
000000f0: f0de 323c 0019 d1bc e8d2 27bd 50da 25bc
00000100: 2264 8abd 5e7a d9bd c0de 13bc c8f4 9d3d
00000110: 10e5 403d 607d 63bd 287c f1bc 5e87 92bd
00000120: deb8 8dbd 5e39 c4bd eeed c6bd fc1f 5f3d
00000130: 423c ea3d 203b 9bbd 74da cdbd fc48 e83d
00000140: fc3e a7bd 782b 213d dc23 40bd ccb6 493d
00000150: d0f6 86bc fc37 0bbd 4041 fcbb 8c7f e43d
00000160: 6ed6 cc3d de76 91bd a049 553d a00d 813d
00000170: 723d 8cbd 9e25 b63d e6f1 cb3d 508e 943d
00000180: d632 afbd 626f e5bd c0eb 64bd 14bb 223d
00000190: 0cd1 ed3d a898 1c3d 9844 b53c 7447 2fbd
000001a0: 3036 dfbd 08b8 b33d 4461 1ebd 7a82 bfbd
000001b0: 18b7 87bc b8a7 34bd e82d e93d 0256 b7bd
000001c0: b0fb 4d3d 0abc d03d b0f2 bfbc d645 f23d
000001d0: c8ae 813d 387a 96bc 0662 d03d b0d8 c8bd
000001e0: 08e7 cf3d a8f2 d83d e4cf 0d3d 3008 0e3c
000001f0: c45a 60bd 4012 bfbc 0098 7c3b 84f6 4b3d
00000200: 6696 80bd a4e8 82bd 2c36 2e3d a0b5 8a3b
00000210: 280b fe3c 72a8 b7bd 9076 1ebd 383a edbd
00000220: 2caf cb3d e8cd bd3c ec7d 07bd 00e3 7c3d
00000230: 5492 f9bd 642b de3d defb cdbd 80e3 c83a
00000240: 6073 bcbb e816 3abd e0e3 dcbb 9ae9 e33d
00000250: 32e5 cc3d 70da 36bd 50ab 133d 20b8 9cbb
00000260: 9e73 f93d fc62 d53d b449 f0bd 2cf2 bdbd
00000270: 5a0a c33d d0a8 d5bc 9021 12bc 8067 a9bb
00000280: 3421 6ebd c0f3 8fbc c086 05bd ccd2 e0bd
00000290: ae9d a93d a042 f3bd 8a0d aebd e07c 413d
000002a0: 0200 8a3d caff f03d e29b ff3d 3875 543d
000002b0: bcb5 1fbd 40c8 813c b42d d43d 8458 95bd
000002c0: c470 06bd 1823 e1bc e8a1 e73c 2038 f23c
000002d0: a0a1 d7bd 0ed7 a33d c00f 31bd ee29 b03d
000002e0: d0b0 53bd 744c 57bd 20b2 8e3b 7a11 bb3d
000002f0: 2297 c7bd 0a75 903d 70c8 3a3d 287e f53d
00000300: 1cf1 263d b8c2 363d ce08 a3bd 8080 8bba
00000310: cc37 77bd 3ee6 f23d 3838 283d 3cd6 c7bd
00000320: 0084 c23b 1803 4d3d c497 05bd 6069 c0bc
00000330: 48a9 823c c068 0f3b 9a3e b6bd a8f4 b53d
00000340: b07a 193c 2291 eb3d 20d1 0cbd 387b f73c
00000350: 20ed ecbd 58f5 5b3d b8da ddbc 64db a83d
00000360: ec32 f4bd 142d 303d c44a 1d3d b848 593d
00000370: 4ce8 693d f0bc c7bc ce09 a33d c8c8 f63c
00000380: f2d5 893d 60de 313d 6a2b 9abd 4042 643c
00000390: 08c5 e83c 5a38 f83d c893 dbbd c213 cabd
000003a0: 445e 4ebd f456 77bd 80b0 e7ba a00f 3b3d
000003b0: 7c47 a1bd b4c2 463d ae73 de3d f05c 1d3c
000003c0: e6fa f3bd 92c4 b1bd ac5b 4c3d 80be ecbc
000003d0: aa07 8bbd 6029 32bd acee d93d cc00 a23d
000003e0: d096 863d 4457 023d 909d dc3d 8c9b 5e3d
000003f0: e43b 80bd a48a 89bd 14b4 33bd 10ba a33c

fc.4.bias f4 [6]
0.042160884 -0.057892308 -0.101535186 0.063543454 -0.056799993 0.0049987584
00000000: e4b0 2c3d 7c20 6dbd aef1 cfbd 1223 823d
00000010: 1ca7 68bd a0cc a33b
